results/scratch/12owob2t/sae_109/model.pth (torch, 132127 bytes, 2 tensors)

encoder.0.weight f4 [128, 128]
000000 38 b6 b1 bd 84 61 99 bd f6 49 8c 3d 76 05 c2 3c
       -0.086773336 -0.07489303 0.068500444 0.023684245
000010 18 be 5e bd cb 9b 17 bd 30 bd 4a bd 64 c2 a3 bb
       -0.054380506 -0.03701381 -0.04949683 -0.0049975384
000020 e2 a8 74 3d 1d 2e 2e 3d e7 b4 7b bd 7f 0d 83 bd
       0.05973137 0.042524446 -0.06145182 -0.063990586
000030 54 a6 12 bd 1a 99 ae 3c 7e 87 4d bd e8 88 33 bc
       -0.035803154 0.021313239 -0.050178044 -0.010957934
000040 ba 64 a8 3c 03 55 75 bd 2a a4 d4 3c f3 4e 2b 3d
       0.020555843 -0.059895527 0.025957186 0.04182334
000050 d8 f0 92 3c 16 30 a4 bc 28 5c ab bd 0a 14 fb bc
       0.017937109 -0.02004246 -0.08367187 -0.030649204
000060 46 03 13 bd 76 18 63 bd 26 aa ad 3c 00 c0 10 bc
       -0.035891794 -0.05544325 0.021199297 -0.008834839
000070 2b 36 70 bc e8 b9 75 bd 40 23 ce 3b 98 fa f7 bc
       -0.014661352 -0.059991747 0.006290823 -0.03027086
000080 98 01 a6 3c 4f 23 90 3d 00 e9 b3 bc 3d 8d b2 3c
       0.020264432 0.070379846 -0.021961689 0.021795863
000090 89 20 b3 bd ba 95 da 3b 87 51 88 bc 7b 2d 47 3d
       -0.0874644 0.006670681 -0.016640438 0.048627358
0000a0 a1 1f 92 3d ac af 18 bd 43 cd 8b bc 6d 97 04 bd
       0.07134939 -0.03727691 -0.01706565 -0.032370973
0000b0 d4 22 96 bd 25 83 a8 bd 2f b0 48 bd 9f 19 88 3d
       -0.07330862 -0.08228139 -0.048996147 0.06645512
0000c0 69 6b a7 bd 5f e4 38 3d f4 59 a6 bd bb 4a fe 3c
       -0.08174784 0.045139667 -0.08122626 0.031041494
0000d0 61 ee 6e bd 39 f7 1b bd fe 9e c2 3b 26 21 b3 bd
       -0.058332805 -0.038077567 0.0059393635 -0.08746557
0000e0 e1 64 a2 3d 9a fd 95 bd 79 48 89 bd bb 63 8d bd
       0.079293974 -0.07323761 -0.06703276 -0.06903788
0000f0 13 a3 81 3d 04 d1 ad 3c ca 0e 20 bd 4c 61 a5 3d
       0.06329932 0.02121783 -0.039076604 0.080751985
000100 2a e4 ad 3d da 23 88 bd 03 29 46 3d e2 70 ea 3c
       0.084907845 -0.06647463 0.048378956 0.02861828
000110 8e d7 32 bd 60 ca 61 bd 2c ff 53 bd ce 6f 09 3d
       -0.0436626 -0.05512464 -0.051757023 0.03355389
000120 4c fc 8a 3b 07 01 ed 3c 9f 64 01 3c 8c c4 41 3d
       0.004241502 0.028931154 0.007897525 0.047306582
000130 41 06 96 bd e0 ef 46 bd cd e8 59 bd 7e 4a 50 3c
       -0.073254116 -0.048568606 -0.05320053 0.012713073
000140 0a 6d a5 3d 0b 77 fe bc 81 05 64 3d 99 13 05 3c
       0.08077438 -0.031062623 0.05566931 0.008122348
000150 d3 6c a9 3d 5e 93 9d bd 87 a9 02 bc e7 d8 47 3d
       0.0827271 -0.07694124 -0.007974989 0.04879084
000160 2d cf a5 bd b7 3e 32 3d 72 68 b8 3c 0b 63 f8 3c
       -0.08096156 0.04351684 0.02251074 0.030320665
000170 9c 9b ea bc 6f 42 8c bc 5b b0 77 3b c3 d3 3f 3d
       -0.028638653 -0.017121522 0.0037794325 0.04683281
000180 8e 7f 2f bd f0 56 57 bd 1c 2a 58 bc 12 92 8a 3d
       -0.042846255 -0.052573144 -0.013193633 0.06766142
000190 3e b9 91 bb 6d 36 fb 3c 1b 25 7c bc 69 dd 9a 3d
       -0.0044471314 0.0306656 -0.015389706 0.07561762
0001a0 bd 17 2f bd 03 67 be bc 36 8e 9d bc 0a bd 49 bd
       -0.042747248 -0.02324248 -0.01923285 -0.049252547
0001b0 b2 d5 a3 3b 28 d7 2f 3d 40 73 a0 3d 1a 07 4a 3d
       0.0049998397 0.0429298 0.07834482 0.04932318
0001c0 62 3f 82 bc 47 b4 06 3c 23 19 15 bd ab 8d 02 bd
       -0.015899364 0.008221692 -0.036400925 -0.031873386
0001d0 31 a7 6f bc 21 fb 88 bb 92 8d 30 3d de 7c ab bd
       -0.014627264 -0.0041803275 0.043103762 -0.08373426
0001e0 36 19 39 3d 59 e3 c2 bc 98 b2 f9 3b 21 a0 23 3c
       0.04519006 -0.023790048 0.007620167 0.009986908
0001f0 72 2d 99 3c 9d d0 0b 3d f7 e9 75 bd 10 eb ac 3d
       0.018698428 0.034134496 -0.06003758 0.08443272
000200 14 b4 a6 bc 2e 6e 2f 3d f4 d8 86 bd d2 ef 8b 3c
       -0.02034954 0.042829685 -0.06584349 0.017082129
000210 b3 a4 0b bd 45 f7 88 bd a4 58 a7 3c 09 7b 85 3c
       -0.034092616 -0.06687788 0.02042801 0.01629402
000220 64 43 7e bd 4d 2c 13 bd 77 82 6a 3c 69 e5 0e bd
       -0.062075987 -0.03593092 0.014313332 -0.03488675
000230 11 c5 b3 bc 1d be c7 3c 0b 42 a5 3d e8 fe 2b bd
       -0.021944555 0.024382645 0.08069237 -0.041991144
000240 4c 65 98 3d 10 db 1c 3b cf 95 07 bd aa 7e e2 bb
       0.07441196 0.0023934282 -0.033101853 -0.006912072
000250 26 8f fb bc 5e 38 69 bd 66 dd 8d bd f2 c5 82 bd
       -0.030707907 -0.05693852 -0.06926994 -0.06385411
000260 b6 22 65 bd 90 3a 44 3d 70 50 68 bc d7 49 19 3d
       -0.055941306 0.047907412 -0.014179334 0.037423935
000270 96 c1 48 3d fb b8 37 3d be 89 71 bc ba 97 d0 bc
       0.049012743 0.044854145 -0.014742313 -0.025462974
000280 6e 1a a1 3d 85 d1 67 bd 40 72 91 bd 96 67 fb 3c
       0.07866369 -0.056596298 -0.071018696 0.030689042
000290 6a 61 36 bd bb 65 af bd 4a ae 3f bc d4 6e d8 3c
       -0.044526495 -0.085643254 -0.011699269 0.026420034
0002a0 59 b9 a2 bc fb 71 19 3c 91 6f 46 bd 69 88 aa 3d
       -0.019863771 0.009365554 -0.04844624 0.083267994
0002b0 1d c1 bb bc 0f d9 fa bc 13 62 b2 3d eb a4 a1 bd
       -0.022919232 -0.03062108 0.087101124 -0.07892784
0002c0 cb 4b c2 bc ce a6 ae 3d 81 c6 01 3d 75 97 a6 3d
       -0.023717782 0.08527909 0.03168345 0.08134357
0002d0 ad 38 71 bc 5e 14 a6 bd 23 bb 8f 3d a5 c5 67 3d
       -0.014722985 -0.081093535 0.07018115 0.056584973
0002e0 d0 8e a1 3d d4 5b 92 3d 9a 0d 8d 3d 34 3b ca 3c
       0.078885674 0.07146421 0.0688736 0.024686433
0002f0 a1 15 ab bd 6b bc 0c 3c 77 a4 6f 3d 7e 73 6b bd
       -0.08353735 0.008589844 0.058506455 -0.05748319
000300 de 6f ad 3d 0f 92 80 bc 49 77 56 bb 9a cc a8 3d
       0.084686026 -0.015694646 -0.0032724908 0.0824215
000310 e5 23 c1 3c fd d2 b4 bd 17 85 54 3d 96 aa 80 bc
       0.023576686 -0.08829305 0.051884737 -0.015706342
000320 9c b0 20 bd 37 d5 33 3d df f8 32 bd a4 cc 60 3c
       -0.039230928 0.04390451 -0.043694373 0.013720665
000330 f2 19 45 3d 9a 19 97 bd be f5 46 bd bd d1 9e bd
       0.048120447 -0.0737793 -0.0485742 -0.07754848
000340 6d 24 69 bc 47 08 aa bc 0c 10 ad bd 9f 19 4d 3d
       -0.014229876 -0.0207559 -0.08450326 0.050073262
000350 57 3b 0b bd 7e 32 ab 3d 69 f4 ac 3c 38 61 b5 3c
       -0.033992138 0.0835924 0.021112638 0.022141084
000360 35 99 a9 bd cd 5b 74 ba 69 19 b3 3d b6 fc b7 3c
       -0.08281175 -0.0009321541 0.08745081 0.02245937
000370 1d 3c 2d 3d 31 a6 d4 bc b4 46 77 bd c4 4d 8d 3a
       0.042293657 -0.025958152 -0.060370162 0.0010780622
000380 c8 dd ec bc 9f 95 9c bd 33 73 51 bd ab 85 f1 3c
       -0.028914347 -0.076457255 -0.051135253 0.029482683
000390 03 09 4d 3d 3f 7f b2 bd a4 02 51 3d 34 32 b2 3d
       0.050057422 -0.087156765 0.05102791 0.08700982
0003a0 1c 07 9c 3d 91 9d 1b bc 50 e3 a2 bd 2e 65 c7 bc
       0.076185435 -0.009498016 -0.07953513 -0.024340238
0003b0 80 53 8f 3c 60 e8 76 39 3c 32 d6 bc 82 19 9b bd
       0.01749587 0.00023546955 -0.026147 -0.075732246
0003c0 cb 26 79 bc 0c ca c7 3c 3a 07 8b bd 48 4a 33 bd
       -0.015207003 0.024388336 -0.06788488 -0.043772012
0003d0 74 e8 c2 3b d2 56 a3 bd fc 31 44 bc 8c c7 4d 3d
       0.0059481207 -0.07975544 -0.011974808 0.05023913
0003e0 4d f6 b1 3d d4 20 26 bd 57 8a 9c bd ac 52 a8 3d
       0.08689556 -0.04055865 -0.07643574 0.082188934
0003f0 79 e0 29 bd df 27 0d 3d b4 eb 82 3d bd c0 44 bd
       -0.04147384 0.034461852 0.06392613 -0.048035372

decoder.weight f4 [128, 128]
000000 b3 5d 83 bc d3 9b ea 3b 6f 4b 63 bd 15 ec 9e bd
       -0.01603589 0.007159689 -0.05549186 -0.07759873
000010 0a 80 96 3d 75 a4 b1 bd 96 9f 80 3d c1 be 12 bd
       0.0734864 -0.08673946 0.062804386 -0.03582645
000020 bb da 70 bd fa 4c d2 3c ac 97 29 ba 1c c5 10 3c
       -0.058802348 0.02567147 -0.0006469439 0.008836057
000030 fb 36 98 3d aa 87 ef bc c8 27 ae 3d 56 63 a6 3a
       0.07432362 -0.029239494 0.085036814 0.0012694399
000040 89 c0 6a 3d 77 0e 90 3b 80 45 2c 3d b8 11 94 3d
       0.057312522 0.0043962556 0.042058468 0.07229942
000050 51 71 02 3d 9f 50 9f bd d0 d9 02 3d b6 23 64 bd
       0.03184635 -0.07779049 0.031946003 -0.05569812
000060 7b 66 7e bc 3f bc cc 3c ca 0c 7c bc f9 5e 1c bd
       -0.015527363 0.024992106 -0.0153839085 -0.03817651
000070 47 38 6b 3d 6c 38 77 bd 60 e5 f6 bc 06 7c 72 bd
       0.057426717 -0.060356542 -0.030138671 -0.05920031
000080 0c 74 45 bd d6 2d 31 ba 4f 2a 87 bb 92 7a a9 bc
       -0.048206374 -0.0006758844 -0.0041249166 -0.020688329
000090 97 38 3c 3c d8 78 9c bd 7d 5e 54 bc 91 af 70 3d
       0.011488101 -0.076402366 -0.012961981 0.058761183
0000a0 7f 2b 03 bd 66 81 4b 3d 25 dc 9f 3d d6 d2 37 3d
       -0.032023903 0.04968395 0.07805661 0.044878803
0000b0 09 58 82 3d 55 6b 83 38 a2 60 87 3d 09 f2 43 bd
       0.063644476 6.266559e-05 0.06610228 -0.047838245
0000c0 81 18 72 3c 07 6e 8d bd 57 92 6f 3d 88 af 92 bd
       0.01477635 -0.06905752 0.05848917 -0.07162386
0000d0 ff 18 f4 3b 8d 86 4a 3d d6 0f 5d bd b3 99 ec 3c
       0.007449269 0.049444724 -0.05397018 0.028881883
0000e0 8c 83 26 bd b2 3c 57 3d 43 27 ae bd 21 ac 33 3d
       -0.040652797 0.052548118 -0.08503582 0.043865327
0000f0 91 03 a3 bc 26 25 a3 3d 46 49 bf 3c cc 72 38 3d
       -0.019899162 0.0796607 0.02335037 0.045031354
000100 fa 46 2d 3d 62 85 96 bd 80 4d a2 bd e9 80 88 bc
       0.042304017 -0.073496595 -0.07924938 -0.016663032
000110 a2 87 8a 3d ea 5e 98 bb 04 5b cb bc 43 58 e0 bc
       0.06764151 -0.0046499865 -0.024823673 -0.027385836
000120 f4 8a 64 3d ab 53 55 bd 07 88 a0 bd c9 79 b4 bd
       0.05579658 -0.052081745 -0.07838445 -0.08812291
000130 a9 d8 3c 3d cf 75 76 bd 7c 03 00 3d 8c b8 96 3d
       0.04610506 -0.060170945 0.031253323 0.07359418
000140 dc ba 0f 3c 99 80 75 3d 08 1d aa bd 71 81 c3 3c
       0.008772578 0.059937093 -0.083063185 0.023865433
000150 d3 dc 96 3d d9 74 06 bd 52 97 46 3d 0f 6e da bc
       0.073663376 -0.03282628 0.048484154 -0.026663808
000160 3f 6a 68 3d 60 0c 69 3d b3 42 a4 bc d2 00 d8 bc
       0.05674195 0.056896567 -0.020051336 -0.026367579
000170 30 47 da bc a7 75 55 3d ac aa 20 3c a4 d4 3e bd
       -0.026645273 0.052114155 0.009806316 -0.04658951
000180 af 0c 82 bc c3 dd 11 bd b8 ef bf bc 26 19 a1 3c
       -0.015875189 -0.03561188 -0.023429736 0.019665312
000190 aa f0 aa 3d ae 5b 29 bd 83 db b1 bc 08 7d 61 3d
       0.08346684 -0.0413472 -0.021711117 0.05505088
0001a0 86 a6 0e 3c 2d ee 97 bd 34 2f 28 bc e7 aa 6b bd
       0.0087066945 -0.07418475 -0.01026516 -0.057536032
0001b0 3c e9 9f 3d e0 07 3f 3d 2a 8c a5 bc 36 4f de bc
       0.07808158 0.04663837 -0.020208437 -0.02713738
0001c0 49 ad d5 bc 42 8d 6d 3d 86 df 73 bc 3a 42 ea 3c
       -0.026083605 0.057996042 -0.014884835 0.028596032
0001d0 53 62 b1 bb 73 04 2a 3d 6c c2 d7 bb 5c c6 ab bd
       -0.0054133325 0.04150815 -0.006584456 -0.083874434
0001e0 66 16 ec bb ae 2e e9 bb 9a 98 a1 bd 38 c0 b6 bc
       -0.0072048185 -0.0071161604 -0.078904346 -0.022308454
0001f0 92 24 b2 bd cb 83 9e bc fa 77 aa bd 11 7f a0 bd
       -0.086983815 -0.019349953 -0.08323665 -0.07836736
000200 fd f6 2d 3d 01 22 91 3d 00 6b 10 3d 75 b1 8d 3c
       0.042471875 0.07086564 0.035258293 0.017296532
000210 a0 2b a8 3d b3 63 26 bc 27 b1 8e 3d 8c 5d f0 bc
       0.08211446 -0.010155606 0.06967383 -0.029341482
000220 4a d0 50 bd 23 76 a4 bd 46 ff 91 3a 6b c9 43 3d
       -0.05097989 -0.08030345 0.00111387 0.04779951
000230 49 e5 2e 3d 42 25 92 bd f0 d9 8b 3d c0 1d 54 bd
       0.042699132 -0.071360126 0.06828678 -0.051786184
000240 6f 1c 85 3c 2d 6c f2 3c 81 f3 1b bd 43 ef 0f bd
       0.01624891 0.029592598 -0.03807402 -0.035140287
000250 b2 cb 46 bb 18 01 24 bd 15 96 36 3d e5 3d b4 3d
       -0.0030333814 -0.040040106 0.044576723 0.08800868
000260 44 0c 0d bc 33 75 ee 3c 7a 89 a4 3c 3e bb a6 bd
       -0.008608881 0.02910862 0.020085085 -0.08141182
000270 b1 7d 59 3d 09 14 c7 3a af cd 97 bd f9 ba 22 bd
       0.053098384 0.0015188466 -0.07412278 -0.039729092
000280 20 48 8b 3d 29 e5 62 bd ac d1 a1 3d 31 8d 61 3d
       0.06800866 -0.055394325 0.0790132 0.05506629
000290 86 a3 30 3d ba 0f 99 bd f9 83 84 bc 4e 6c 6b 3d
       0.043124698 -0.07473703 -0.01617621 0.057476334
0002a0 07 db 84 3d 24 15 a1 3c 2e a4 38 bd b2 3a ad 3d
       0.06487089 0.019663401 -0.04507845 0.08458461
0002b0 0b 35 be bc fb a4 28 3d 39 cd bc bc 8f f6 77 3a
       -0.023218652 0.041172963 -0.023047077 0.00094590423
0002c0 2a 63 89 bd cf b2 a1 bd 11 f5 87 3d 36 3b 8d bd
       -0.06708367 -0.07895433 0.066385396 -0.06896059
0002d0 63 97 f4 3c 2d 02 a8 3d 89 4f 46 3d 17 00 fe bc
       0.029857343 0.0820354 0.048415694 -0.031005902
0002e0 c6 c2 d8 bc 5f fa 91 3d c0 4f 87 3d 87 6e 02 bd
       -0.026460063 0.071278326 0.06607008 -0.03184369
0002f0 15 0f 4e bc 4a b4 29 bd 1f 37 b4 3d 07 93 57 bd
       -0.012576838 -0.041431703 0.08799576 -0.05263045
000300 f0 b2 d3 3c 48 2b ad 3d 29 b1 87 3c 27 4b 63 bd
       0.02584216 0.08455521 0.016563969 -0.055491593
000310 ec 48 3d 3c df 29 9f bd e8 2a 7b 3d 66 86 51 bd
       0.01155303 -0.07771658 0.061320215 -0.051153563
000320 7c a1 dc bc d0 df f8 3c 3d c6 99 3d c9 d7 84 3d
       -0.02693247 0.03038016 0.07508514 0.0648647
000330 b6 c2 9b bd d0 33 a3 3d d5 15 8c bd 33 ce 03 3d
       -0.076054975 0.07968867 -0.06840102 0.03217907
000340 cb 47 41 3d 68 d3 a1 3c 93 65 89 3d ce c3 46 3c
       0.047187608 0.019754127 0.06708827 0.012131644
000350 d2 c0 b1 3d f0 c1 48 38 f9 ba 29 bd 8c 46 aa 3d
       0.08679356 4.7864334e-05 -0.041438077 0.08314237
000360 48 53 a6 bd c9 ef 20 3d 96 a3 a6 bd 66 60 3c bd
       -0.081213534 0.039291177 -0.0813667 -0.04599037
000370 81 dd 19 bd 66 97 9d bd ab ff 80 3d c7 9a 73 bd
       -0.03756476 -0.076948926 0.06298765 -0.05947378
000380 c2 82 65 3d 18 aa 81 3d d5 3d 8e 3c 05 e5 f3 3b
       0.056032903 0.06331271 0.017363468 0.0074430727
000390 e5 16 93 bd 82 ff 8c 3d 41 cd e6 3c 39 8c 9a 3d
       -0.07182101 0.06884672 0.028174045 0.075462766
0003a0 cc c3 ae bd e7 f6 47 bd 51 a4 5e bc 1d b5 87 bd
       -0.08533439 -0.04881945 -0.013588981 -0.066263415
0003b0 04 fc 7b 3d fd 4d 47 bb 9d 26 88 bd c3 22 49 3d
       0.061519638 -0.0030411475 -0.0664799 0.049105417
0003c0 50 fe 00 bd 63 20 8a bd 80 f0 9e 3c 44 54 9c 3c
       -0.03149253 -0.067444585 0.019401789 0.01908315
0003d0 e8 51 ca bc 30 b3 6a 3d 15 d8 71 3d c0 67 8b 3d
       -0.024697259 0.057299793 0.059043963 0.06806898
0003e0 9a 66 7a bd d1 a6 b2 3d b4 79 52 3d 85 c3 72 bd
       -0.061133005 0.08723224 0.051385596 -0.059268493
0003f0 84 3d b2 3c c0 53 89 3d a2 4e 10 bc 96 47 14 bd
       0.021757849 0.06705427 -0.00880781 -0.036201082
