results/scratch/12owob2t/sae_402/model.pth (torch, 525343 bytes, 2 tensors)

encoder.0.weight f4 [512, 128]
0.0030139121 -0.0010397565 0.06699035 -0.009334035 0.05198403 0.046924308 -0.0781321 -0.038339052
-0.045486227 0.029683623 -0.080653764 0.07656743 -0.036935784 0.067360066 -0.018349554 -0.05673135
0.021422906 -0.0219727 -0.023533544 -0.04319457 -0.019231066 0.07218453 -0.08442798 -0.065298036
-0.075540304 0.07169005 -0.015349873 0.041929226 -0.0019387145 0.06124437 0.04658226 -0.030325675
0.07124292 -0.042516854 0.03905457 -0.056549873 0.052472357 -0.041937057 -0.06614378 0.02542579
-0.030298753 0.04021325 -0.084670834 -0.058977716 0.056475744 -0.0031661494 -0.05308668 -0.05599286
0.030816138 0.028548816 0.037213013 -0.08473776 -0.07367973 -0.008210447 0.069256894 -0.05567075
0.07259529 -0.026051212 0.030081097 0.037349682 -0.01137311 -0.02581091 -0.06462879 -0.04841226
-0.04132496 -0.06057494 -0.08386768 -0.037988063 0.06813857 0.052254207 0.08518706 -0.047170527
0.056486268 0.012459298 -0.08683004 0.015562425 -0.019813864 -0.0044126543 -0.08328886 0.049605712
0.053622767 0.050945126 -0.035932187 -0.08556531 -0.02540784 0.020845832 0.08370355 0.0612632
0.022353875 0.04970322 -0.027596679 0.05735793 -0.008732096 -0.051200457 -0.009351881 0.08591474
-0.07637854 0.02529507 -0.06031618 0.033764128 -0.033020016 0.06260649 0.081839636 0.028490666
0.029920802 -0.057878815 -0.06964905 0.010426268 0.06230105 -0.07681913 0.022824042 0.07942373
-0.055354778 0.064642616 0.017839612 0.003318773 -0.006631384 0.068440184 -0.06458577 -0.06701935
-0.07716214 0.02131841 -0.031340513 0.00034884675 -0.07483841 0.067667395 -0.03338442 -0.06456213
0.008209944 0.016097287 0.005711625 -0.0007731218 0.010670603 0.024649827 0.04753979 0.06947451
0.024845239 -0.0060751825 -0.046924476 0.0053012054 -0.005433117 -0.013192776 0.06899784 -0.0074090427
-0.062463168 0.061127387 -0.06427678 0.00096198736 -0.051310893 -0.018069116 -0.04414994 -0.07270713
-0.016663505 -0.0048990953 0.085269965 -0.065389626 -0.041387238 -0.086575955 0.015132194 0.045636404
-0.01871262 0.036866635 -0.01247507 -0.057440184 -0.0221548 -0.029871432 0.08113967 -0.0049863197
0.035776705 -0.018036194 -0.03454164 -0.04389157 -0.0020185204 -0.07265643 0.08249473 -0.032574475
-0.08784905 -0.0824303 -0.028610703 0.045985855 0.027309002 0.008329064 -0.048826836 0.06783124
0.01775714 -0.020459853 0.07203817 -0.00084266963 -0.05454761 0.086835586 0.08118385 0.005262696
0.0485873 -0.05135514 0.036461048 -0.013794761 -0.06363121 -0.0028401876 0.03766776 -0.060258213
-0.08637407 -0.015997719 -0.07134761 0.020683264 -0.015087794 -0.01647584 -0.04898251 -0.049288057
0.014081724 0.06629971 -0.009944862 0.0014268468 0.053818967 0.06516429 -0.0826701 0.047236983
0.032728046 0.0145350555 -0.08625534 0.079197936 -0.08276022 -0.06407635 -0.07564556 -0.02194178
0.043341987 -0.04909682 -0.014601384 0.08520496 0.022166288 -0.029426513 0.08380239 -0.001483704
-0.0024765828 -0.073657826 -0.028531961 -0.0649244 -0.017903578 -0.012117527 0.043346323 0.01772185
-0.070319414 -0.02079567 0.071278386 0.07463263 0.07264467 -0.028178968 0.02593198 0.07027768
-0.083518475 0.07113754 0.082143985 0.03943243 -0.06838325 0.025520641 0.061879233 -0.05615312
00000000: 0e85 453b 7048 88ba 3d32 893d c8ed 18bc
00000010: 35ed 543d b433 403d b903 a0bd 6909 1dbd
00000020: c44f 3abd 122b f33c cd2d a5bd 62cf 9c3d
00000030: fa49 17bd 13f4 893d ce51 96bc 225f 68bd
00000040: 177f af3c 1700 b4bc 6bc9 c0bc caec 30bd
00000050: 788a 9dbc 7cd5 933d 94e8 acbd faba 85bd
00000060: e0b4 9abd 3cd2 923d 097e 7bbc fbbd 2b3d
00000070: 771c feba 60db 7a3d 0acd 3e3d 8d6d f8bc
00000080: cfe7 913d 2726 2ebd aff7 1f3d d7a0 67bd
00000090: 41ed 563d 31c6 2bbd 6476 87bd bf49 d03c
000000a0: 1735 f8bc a6b6 243d e767 adbd 9e92 71bd
000000b0: 1c53 673d 2c7f 4fbb 6b71 59bd c558 65bd
000000c0: 2072 fc3c 35df e93c ac6c 183d fe8a adbd
000000d0: 66e5 96bd 1c85 06bc 8fd6 8d3d 0307 64bd
000000e0: d7ac 943d 5a69 d5bc a26c f63c fbfb 183d
000000f0: 4856 3abc 6771 d3bc 195c 84bd ef4b 46bd
00000100: 5c44 29bd 6e1d 78bd d1c2 abbd 5f99 1bbd
00000110: 3c8c 8b3d 8208 563d 8e76 ae3d e235 41bd
00000120: 255e 673d 1522 4c3c f3d3 b1bd 8bf9 7e3c
00000130: af50 a2bc 0798 90bb 5a93 aabd 5c2f 4b3d
00000140: 8ca3 5b3d d6ab 503d a12d 13bd de3c afbd
00000150: 1a24 d0bc e1c4 aa3c c46c ab3d 1fef 7a3d
00000160: 791f b73c 9b95 4b3d 6e12 e2bc 26f0 6a3d
00000170: 1111 0fbc 92b7 51bd a238 19bc 11f4 af3d
00000180: 5a6c 9cbd 9b37 cf3c 190e 77bd 414c 0a3d
00000190: ff3f 07bd d537 803d 8a9b a73d 4265 e93c
000001a0: 781c f53c 5612 6dbd 29a4 8ebd f0d2 2a3c
000001b0: 632f 7f3d 5953 9dbd 7cf9 ba3c e9a8 a23d
000001c0: b1bb 62bd 5963 843d 6124 923c c57f 593b
000001d0: 154c d9bb 5e2a 8c3d 8b45 84bd 7141 89bd
000001e0: 2f07 9ebd f2a3 ae3c e95e 00bd 6be5 b639
000001f0: e144 99bd 3495 8a3d 1abe 08bd 2639 84bd
00000200: 0083 063c 75de 833c 9528 bb3b 53ab 4aba
00000210: c1d3 2e3c 6fee c93c 15b9 423d a748 8e3d
00000220: 3e88 cb3c 5312 c7bb e133 40bd bcb5 ad3b
00000230: 4a08 b2bb 8326 58bc bd4e 8d3d 8ec7 f2bb
00000240: 61d9 7fbd b660 7a3d 8ba3 83bd e12d 7c3a
00000250: 5f2b 52bd af05 94bc 91d6 34bd 7ae7 94bd
00000260: e781 88bc 9788 a0bb 05a2 ae3d ffea 85bd
00000270: aa85 29bd bc4e b1bd 06ed 773c 3ded 3a3d
00000280: 354b 99bc 7801 173d 3c64 4cbc 6646 6bbd
00000290: fc7d b5bc efb4 f4bc 8e2c a63d 4864 a3bb
000002a0: 988a 123d a4c0 93bc 897b 0dbd a6c7 33bd
000002b0: 2749 04bb e5cc 94bd fff2 a83d d06c 05bd
000002c0: 34ea b3bd 38d1 a8bd fe60 eabc aa5b 3c3d
000002d0: 21b7 df3c a076 083c a6fe 47bd 1beb 8a3d
000002e0: 6c77 913c 6c9b a7bc c088 933d 9ae6 5cba
000002f0: 516d 5fbd dbd6 b13d b843 a63d b272 ac3b
00000300: 7a03 473d c459 52bd 2e58 153d 6c03 62bc
00000310: 1451 82bd 7122 3abb 8249 1a3d 51d1 76bd
00000320: e3e4 b0bd a60d 83bc b21e 92bd f36f a93c
00000330: cb32 77bc 57f8 86bc e2a1 48bd 46e2 49bd
00000340: 08b7 663c 24c8 873d c6ef 22bc 0905 bb3a
00000350: 4771 5c3d db74 853d f14e a9bd 917b 413d
00000360: d80d 063d 7124 6e3c a4a6 b0bd 8732 a23d
00000370: 317e a9bd 763a 83bd 0fec 9abd 3fbf b3bc
00000380: 5e87 313d bf19 49bd a53a 6fbc f07f ae3d
00000390: 1396 b53c df0f f1bc 96a0 ab3d d878 c2ba
000003a0: 2a4e 22bb ead9 96bd dcbb e9bc 15f7 84bd
000003b0: 86aa 92bc 9888 46bc ea8b 313d 6a2d 913c
000003c0: a003 90bd ae5b aabc 67fa 913d fed8 983d
000003d0: bbc6 943d 94d7 e6bc 4e6f d43c bfed 8f3d
000003e0: bc0b abbd 8fb0 913d 1b3b a83d e683 213d
000003f0: 840c 8cbd aa10 d13c 1475 7d3d d000 66bd

decoder.weight f4 [128, 512]
-0.029944267 0.03736916 0.002652749 -0.021692393 -0.0047319736 0.023929894 0.025553044 -0.004897164
0.0011861209 -0.010450869 0.021161057 0.011463834 0.0136296265 0.027302325 0.0006624199 0.017845923
0.028696558 0.018575724 0.022098714 -0.030553568 0.00048304864 0.022480581 0.0015643383 -0.017156232
0.03682061 -0.041902967 0.02211206 -0.011377608 0.013801861 -7.0191316e-05 0.0030063558 0.043170918
0.0332825 -0.0072364397 0.0018214823 0.014113398 0.03874766 -0.017231831 0.032435786 -0.012346922
-0.028482528 -0.038779218 0.008713032 0.033429515 -0.03138378 -0.014414095 -0.036013093 0.04100217
-0.028683951 0.0249223 -0.022543835 -0.0402434 -0.0024808066 -0.028803388 -0.0046264175 -0.023607709
-0.016788494 -0.036391467 -0.016457241 -0.015796477 -0.013459727 -0.014608395 0.015811406 0.035251625
0.041753538 -0.0417998 -0.005992197 -0.03428163 0.039929703 0.01870024 -0.016540494 0.02872758
-0.0010446745 -0.0105115725 0.020992223 -0.035900638 0.008301842 0.0032564998 0.036744628 -0.012628692
-0.021623405 0.03283974 0.039950214 -0.033314317 0.011199136 0.03697406 -0.042701513 -0.027457574
-0.03249856 0.036034286 -0.03253387 0.0063813357 0.005283198 0.024679901 0.0016557487 0.030453732
0.029187804 0.028693708 0.04400466 -0.012665368 0.022000888 0.029949237 -0.0019459035 0.026426159
-0.02958768 -0.009833307 -0.02263337 -0.030168477 -0.013620015 0.014094054 0.016083717 0.019016638
0.026259795 0.013608022 0.038910173 0.01326415 -0.043224465 0.0064077987 0.027880955 0.03195567
-0.013336065 -0.030679801 -0.03683874 0.033372812 0.008348947 0.0037757456 -0.013364687 -0.013280837
0.022121431 -0.040599737 -0.011710578 -0.034825016 0.013636821 -0.008410418 -0.009733941 0.027421322
-0.02040858 0.02593054 0.021456748 0.016212553 0.010383635 0.042581037 -0.024787925 -0.011978315
0.013600165 0.032780692 0.023857987 0.040620815 0.038444262 -0.007754761 0.014946517 -0.043836996
-0.008319225 0.000557234 0.024716018 -0.042393193 0.030379768 -0.0019844 0.040486425 0.036528744
-0.021212362 0.026343165 -0.014659719 0.018626409 -0.00849513 -0.016882697 0.03587102 -0.028763833
-0.041891128 -0.020429932 -0.014270729 -0.010112848 -0.04243284 -0.004519552 -0.012305273 0.037079807
-0.027236698 -0.024710687 -0.019681118 0.026984483 -0.0044085043 0.017476654 -0.007886628 0.038224295
-0.014834166 -0.014527098 -0.03601645 -0.040680986 0.018603256 -0.017785907 0.023769906 -0.030680072
0.008994539 -0.03828962 -0.0034250738 0.024252048 -0.029314207 -0.007532511 -0.008097051 0.004075724
0.024965344 0.016966308 0.0422904 -0.037715293 0.01910298 0.03836753 0.0001902482 -0.027746657
-0.003745549 -0.025950091 -0.015197725 0.0020448861 -0.014666647 -0.0012373745 0.03127196 0.038352557
0.015605672 -0.009316413 -0.025397655 0.03026367 -0.026747715 0.017331168 -0.027154414 0.00956347
-0.028669966 -0.019204222 0.023564832 0.018605497 -0.035564624 -0.03226764 -0.008963538 0.014621123
0.025352867 -0.0071264603 0.021557072 -0.0087248245 0.029539473 0.0030646028 0.03252737 -0.01809634
0.017585719 0.01741713 -0.031757038 0.03752328 0.02324314 0.003313452 0.034694392 0.025483342
-0.013792258 0.019421924 -0.0042901067 -0.001066036 -0.0242425 -0.031240707 0.010684201 -0.009072682
00000000: ae4d f5bc 6810 193d bed9 2d3b 3fb4 b1bc
00000010: ac0e 9bbb a008 c43c 9e54 d13c 6478 a0bb
00000020: 9d77 9b3a 1f3a 2bbc f459 ad3c ced2 3b3c
00000030: cc4e 5f3c 20a9 df3c 3fa6 2d3a 9d31 923c
00000040: 0b15 eb3c 1e2c 983c 5d08 b53c 7a4b fabc
00000050: b141 fd39 3229 b83c 7c0a cd3a 3a8b 8cbc
00000060: 35d1 163d 72a2 2bbd 5a24 b53c 2669 3abc
00000070: 3321 623c ad33 93b8 4806 453b fdd3 303d
00000080: 3b53 083d a81f edbb cebe ee3a e23b 673c
00000090: deb5 1e3d c529 8dbc 63db 043d bf4a 4abc
000000a0: 3154 e9bc f5d6 1ebd 1bc1 0e3c 63ed 083d
000000b0: 478c 00bd 1929 6cbc 7782 13bd e4f1 273d
000000c0: 9bfa eabc da29 cc3c d9ad b8bc 43d6 24bd
000000d0: 0795 22bb 15f5 ebbc 3499 97bb f464 c1bc
000000e0: 0688 89bc 380f 15bd 56d1 86bc 9d67 81bc
000000f0: 3086 5cbc 0d58 6fbc ec86 813c 0264 103d
00000100: c205 2b3d 4436 2bbd 315a c4bb e56a 0cbd
00000110: 548d 233d 3f31 993c ee7f 87bc 1a56 eb3c
00000120: 76ed 88ba bb38 2cbc e2f7 ab3c 8c0c 13bd
00000130: 7304 083c 006b 553b 8981 163d 93e8 4ebc
00000140: 9123 b1bc f782 063d d6a2 233d 9874 08bd
00000150: 957c 373c 1d72 173d c8e7 2ebd b5ee e0bc
00000160: 361d 05bd b098 133d 3c42 05bd 861a d13b
00000170: ad1e ad3b 812d ca3c b505 d93a 1b7a f93c
00000180: 431b ef3c 110f eb3c 3b3e 343d 6782 4fbc
00000190: 353b b43c 1a58 f53c b00d ffba ac7b d83c
000001a0: dd61 f2bc e11b 21bc 9e69 b9bc e223 f7bc
000001b0: 7c26 5fbc bfea 663c 00c2 833c c8c8 9b3c
000001c0: c81e d73c 2ef4 5e3c 4660 1f3d e151 593c
000001d0: 230c 31bd 83f8 d13b 9a66 e43c f3e3 023d
000001e0: 837f 5abc 3554 fbbc 38e4 16bd eeb1 083d
000001f0: 06ca 083c 8072 773b 8ff7 5abc de97 59bc
00000200: 0138 b53c e94b 26bd b9dd 3fbc ada4 0ebd
00000210: f96c 5f3c dacb 09bc 1c7b 1fbc aea2 e03c
00000220: e52f a7bc 496c d43c 10c6 af3c 30d0 843c
00000230: 1f20 2a3c 7469 2e3d 0c10 cbbc b240 44bc
00000240: 3ad3 5e3c 0c45 063d d371 c33c 0362 263d
00000250: bb77 1d3d a61b febb 3ce2 743c 6c8e 33bd
00000260: 5c4d 08bc 5713 123a 3f79 ca3c 7ca4 2dbd
00000270: fede f83c b50c 02bb 18d5 253d 2a9f 153d
00000280: 8cc5 adbc 9fcd d73c 512f 70bc 6996 983c
00000290: 282f 0bbc 954d 8abc 7eed 123d 21a2 ebbc
000002a0: 0896 2bbd ac5c a7bc c7cf 69bc 5cb0 25bc
000002b0: 0fce 2dbd c018 94bb 0e9c 49bc ffe0 173d
000002c0: 7f1f dfbc 116e cabc 4c3a a1bc 900e dd3c
000002d0: 3775 90bb 332b 8f3c ea36 01bc 1491 1c3d
000002e0: 000b 73bc 1103 6ebc fc85 13bd 1ba1 26bd
000002f0: db65 983c c0b3 91bc 1bb9 c23c c654 fbbc
00000300: d55d 133c 94d5 1cbd 3477 60bb 3bac c63c
00000310: 5924 f0bc 48d3 f6bb 7ea9 04bc a78d 853b
00000320: 1f84 cc3c edfc 8a3c b338 2d3d 5a7b 1abd
00000330: da7d 9c3c 4527 1d3d 5d7d 4739 f54c e3bc
00000340: e277 75bb 4995 d4bc e1ff 78bc 7f03 063b
00000350: 604c 70bc 662f a2ba 0717 003d 9217 1d3d
00000360: efae 7f3c dea3 18bc be0e d0bc 84eb f73c
00000370: 061e dbbc 18fa 8d3c ef72 debc 1ab0 1c3c
00000380: 47dd eabc 2c52 9dbc 090b c13c 8e6a 983c
00000390: 36ac 11bd 132b 04bd cedb 12bc 6f8d 6f3c
000003a0: d1b0 cf3c 1585 e9bb 7598 b03c 91f2 0ebc
000003b0: c4fc f13c 81d7 483b 6b3b 053d c73e 94bc
000003c0: ed0f 903c 5eae 8e3c ab13 02bd 03b2 193d
000003d0: 6668 be3c 8026 593b b51b 0e3d 71c2 d03c
000003e0: ecf8 61bc ba1a 9f3c 0694 8cbb 3cba 8bba
000003f0: 3598 c6bc 83ec ffbc c90c 2f3c 96a5 14bc
