results/scratch/12owob2t/sae_376/model.pth (torch, 525343 bytes, 2 tensors)

encoder.0.weight f4 [512, 128]
0	0xbc56f0d7	-0.013118944
1	0xbbdd0f6f	-0.0067462246
2	0xbd242358	-0.04007277
3	0x3dacc6be	0.084363446
4	0xbd97b867	-0.07408219
5	0x3c88abf4	0.016683556
6	0xba305e2e	-0.0006727901
7	0xbcb74f24	-0.022376604
8	0x3d992290	0.074772954
9	0x3bd79921	0.0065795337
10	0xbd83365a	-0.06406851
11	0x3d9c6ee3	0.076383375
12	0x3d96445f	0.073372595
13	0xbcc8f160	-0.02452916
14	0x3d8e4886	0.069474265
15	0xbba9f5b2	-0.00518676
16	0xbd851f8f	-0.0650016
17	0x3cdc097f	0.026859997
18	0x3b2d4b86	0.002644272
19	0xbd4b8439	-0.049686644
20	0xbd3ddd67	-0.046353724
21	0xbc941311	-0.018075498
22	0x3d5e31a0	0.054246545
23	0xbd229396	-0.03969153
24	0x3d106333	0.035250854
25	0x3c890567	0.016726209
26	0xbd5a8513	-0.053349566
27	0xbc3cebac	-0.011530798
28	0x3da223a3	0.079169534
29	0xbd674dbd	-0.05647062
30	0x3d93bcb4	0.07213727
31	0x3c028fec	0.007968884
32	0x3d1c57b9	0.038169596
33	0xbcb0d6cf	-0.021586804
34	0x3d87c000	0.06628418
35	0xbcda6382	-0.026658777
36	0x3da42227	0.080143265
37	0x3d7ce3a0	0.061740518
38	0xbd69b12d	-0.057053734
39	0xbc513466	-0.01276884
40	0x3cee8a45	0.029118666
41	0xbd9c7e3a	-0.07641263
42	0x3d8e98d0	0.069627404
43	0xbcfa51f3	-0.030556655
44	0xbaf513d1	-0.0018697922
45	0xbd5e928e	-0.054338984
46	0x3cd2b834	0.0257226
47	0x3cd9d58e	0.026591089
48	0xbd4237c5	-0.047416467
49	0xbc964e63	-0.018347925
50	0x3ce3ec60	0.027822673
51	0x3be913f8	0.007112976
52	0xbc7e1e88	-0.015510209
53	0xbc18f787	-0.009336359
54	0xbda41297	-0.08011358
55	0x3d92d36e	0.07169233
56	0x3b80d68e	0.003931827
57	0xbd5cddfb	-0.053922635
58	0xbd777d27	-0.06042209
59	0xbd6496e0	-0.055807948
60	0xbd5b9d9b	-0.0536171
61	0xbc65bc1a	-0.014021898
62	0xbcb0981f	-0.021556912
63	0x3d9461ba	0.07245202
64	0xbca6cb87	-0.020360721
65	0xbcebeddb	-0.028799942
66	0xbd56f3c7	-0.052478578
67	0x3ca61b7b	0.020276776
68	0xbd480479	-0.04883239
69	0xbd4a4bed	-0.049388815
70	0x3c967a6d	0.018368924
71	0xbd546ffb	-0.051864605
72	0xbce75b1c	-0.028241687
73	0xbd9015a1	-0.070353754
74	0x3da48473	0.08033075
75	0xbcb8d593	-0.022562778
76	0xbd94d211	-0.072666295
77	0xbdb1f34c	-0.08688983
78	0x3da41526	0.08011846
79	0x3d354d05	0.044262905
80	0xbb9b1b3a	-0.0047334703
81	0x3d8cb2b1	0.0687002
82	0x3d4bc9b5	0.04975291
83	0xbd7b1f6e	-0.06130927
84	0x3d3df339	0.046374533
85	0x3da01ed3	0.07818379
86	0xbd56be0f	-0.052427348
87	0x3b2ae31b	0.0026075307
88	0xbcf785a1	-0.030215086
89	0x3c9580a4	0.018249817
90	0x3d6e16e7	0.05812731
91	0x3d716b0e	0.058939986
92	0x3d9e9b27	0.07744437
93	0x3d6947da	0.05695329
94	0x3b2b6865	0.0026154753
95	0x3d5d3136	0.05400201
96	0x3d969ca9	0.07354099
97	0xbd775238	-0.060381144
98	0xbda81685	-0.0820742
99	0xbd63b0f4	-0.055588678
100	0x3c42f80f	0.011899962
101	0x3c82dc00	0.015974045
102	0xbd1182e5	-0.03552522
103	0x3d904f62	0.07046391
104	0xbdae4b78	-0.08510488
105	0xbdaf8336	-0.085699484
106	0xbd309567	-0.04311123
107	0x3d8863f2	0.06659688
108	0x3d822fbd	0.063567616
109	0xbc7fd424	-0.015614543
110	0xbd81f65e	-0.06345819
111	0x3d92acd7	0.07161873
112	0x3d688a1b	0.056772333
113	0x3a5a0b02	0.00083176803
114	0x3d4ddc50	0.050258934
115	0xbb865514	-0.0040994976
116	0x3d6f86b0	0.058478057
117	0xbd564413	-0.052311014
118	0x3a6bade3	0.000899045
119	0xbca410f9	-0.020027624
120	0xbd15e104	-0.036591545
121	0x3d4202f5	0.0473661
122	0x3da440ab	0.08020147
123	0xbcf9c5f1	-0.030489894
124	0xbccad055	-0.024757544
125	0xbd0811f0	-0.03322023
126	0x3daffeb7	0.08593505
127	0x3d2f0c76	0.042736493
128	0x3d9855ab	0.07438215
129	0x3d8178cd	0.06321869
130	0xbc0756af	-0.008260413
131	0xbdad3d63	-0.08458974
132	0xbbd7b7fa	-0.006583211
133	0x3d4cdfc4	0.050018087
134	0xbd7fbb3d	-0.062434424
135	0xbd66bde0	-0.056333423
136	0x3c10f4e0	0.008847445
137	0xbd456a48	-0.04819706
138	0xbc107b1f	-0.008818417
139	0x3aa9df6b	0.001296026
140	0xbdaaef79	-0.08346457
141	0x3dae3a10	0.08507168
142	0xbd0dbc77	-0.034603562
143	0xbb53ccf2	-0.0032318202
144	0x3d3321f6	0.04373356
145	0xbd1913a0	-0.03737223
146	0xbcc5f991	-0.024166854
147	0xbb5803fe	-0.0032961364
148	0xbcd0477f	-0.025424717
149	0xbdaac0a8	-0.083375275
150	0xbd5035b0	-0.05083245
151	0xbd6dcf3e	-0.05805897
152	0xbd90726e	-0.07053076
153	0x3d884f96	0.06655805
154	0x3d5f71c1	0.054551844
155	0xbd04588f	-0.03231102
156	0x3da86852	0.082230225
157	0xbd8e5532	-0.069498435
158	0xbd8e4654	-0.06947008
159	0xbd911567	-0.0708416
160	0x3c9452f3	0.01810596
161	0x3c55309f	0.01301208
162	0x3d4d6cd6	0.050152622
163	0x3d835b1a	0.064138606
164	0x3cc915fe	0.02454662
165	0x3c6079a4	0.013700876
166	0x3d839edd	0.06426785
167	0xbda9bcdc	-0.08287975
168	0xbd55c074	-0.05218549
169	0x3d2d7b66	0.04235401
170	0x3da63d28	0.081171334
171	0xbcbb8a0d	-0.022892976
172	0x3d8b5acd	0.06804428
173	0xbd21aa98	-0.03946933
174	0xbbe883e5	-0.007095801
175	0xbb0127f5	-0.0019707654
176	0x3d72f03a	0.05931113
177	0xbc887dfe	-0.01666164
178	0x3c2386d8	0.00998088
179	0xbd2b24e9	-0.041783247
180	0x3d9e9bd7	0.07744568
181	0x3cb31eec	0.02186533
182	0xbd238c83	-0.039928924
183	0x3d442a5c	0.04789196
184	0xbdab797d	-0.083727814
185	0x3d756955	0.059914906
186	0xbda6c58e	-0.08143149
187	0x3d32ca83	0.04365016
188	0xbc10888e	-0.00882162
189	0x3cd487e9	0.025943713
190	0x3cf81ca4	0.030287094
191	0xbd0ef77b	-0.034903985
192	0x3c543769	0.012952664
193	0xb9d03cc8	-0.00039718137
194	0xbd53d4d0	-0.051716626
195	0xbd9f8f99	-0.07791061
196	0xbd6195f4	-0.055074647
197	0x3daef4f7	0.08542817
198	0x3ae88f35	0.0017742874
199	0x3d9deefa	0.07711597
200	0xbd17d81a	-0.037071325
201	0xbc960b03	-0.018315798
202	0xbd3d5e1a	-0.04623232
203	0xbce01e12	-0.027358089
204	0xbd54e252	-0.05197365
205	0x3d435374	0.04768701
206	0x3d2689f1	0.040658895
207	0x3db4f600	0.08835983
208	0x3cb65462	0.022257034
209	0xbc7d3c85	-0.0154563235
210	0x3d075a7f	0.03304529
211	0xbd19f435	-0.03758641
212	0x3d813f56	0.063109085
213	0x3c7ddc05	0.015494351
214	0xbdb1e1ad	-0.08685622
215	0xbc564985	-0.013079052
216	0x3d949e28	0.072567284
217	0x3c69f331	0.014279173
218	0xbd7508d0	-0.059822857
219	0xbd51f6b6	-0.051260673
220	0xbd0c2d29	-0.034222756
221	0x3d0f1dc9	0.034940515
222	0x3d964317	0.07337015
223	0xbc9cd8f8	-0.019146428
224	0x3c713f53	0.01472457
225	0x3b488087	0.0030594186
226	0x3cd5790e	0.0260587
227	0xbd71a8f8	-0.05899903
228	0x3d69e87f	0.05710649
229	0xbc84530e	-0.016152885
230	0xbac5eaad	-0.0015099846
231	0x3c9df830	0.019283384
232	0x3d9d950a	0.076944426
233	0x3d3a5e3d	0.04550003
234	0xbc400ea3	-0.01172224
235	0x3c8a39db	0.01687329
236	0x3ce13829	0.0274926
237	0xbd2e5f16	-0.04257115
238	0x3d596383	0.053073417
239	0xbba9cc81	-0.0051818495
240	0x3d856486	0.06513314
241	0x3d874f74	0.06606951
242	0xbdaa8a65	-0.08327178
243	0xbda6c9fb	-0.081439935
244	0xbce45b58	-0.027875587
245	0xbd1b9ffa	-0.037994362
246	0xbd90b2dc	-0.07065365
247	0xbce992ac	-0.028512321
248	0x3d5d99a1	0.05410159
249	0x3d4038e0	0.04692924
250	0x3d92b0fe	0.07162665
251	0x3d897465	0.067116536
252	0xbd60055d	-0.054692615
253	0xbc05de6a	-0.008170703
254	0x3d842e9c	0.064542025
255	0x3d693d9f	0.056943532

decoder.weight f4 [128, 512]
0	0x3c61fa21	0.013792546
1	0xbca960e7	-0.02067609
2	0xbd11ff87	-0.03564408
3	0xbbc989b1	-0.0061504473
4	0x3b7b99c3	0.003839121
5	0x3c9feeeb	0.019523105
6	0x3c0a9a71	0.008459673
7	0xbd15f074	-0.036606267
8	0x3ba38d6a	0.004991223
9	0x3d351bc2	0.044215925
10	0x3c963ea5	0.018340418
11	0x3d262546	0.04056289
12	0x3d176658	0.036962837
13	0x3c759dd5	0.014991243
14	0xbcb2483f	-0.021762965
15	0x3d2546ca	0.040350713
16	0x3d1a8328	0.037722737
17	0xbcd018c4	-0.025402434
18	0xbce0b5cd	-0.02743044
19	0xbd0b11b6	-0.033952437
20	0x3cbc3bf1	0.022977801
21	0xbd0c007c	-0.03418015
22	0x3d15ad17	0.036542024
23	0xbc4bddd7	-0.012443027
24	0x3d22c071	0.039734308
25	0xbc9a9ce7	-0.018873645
26	0x3c714fa0	0.014728457
27	0x3cf67c22	0.030088488
28	0xbba66a1f	-0.0050785686
29	0x3d064965	0.03278484
30	0xbc887bd3	-0.016660606
31	0x3cf3d31d	0.029763753
32	0xbcbc90c7	-0.023018254
33	0x3c267fef	0.010162338
34	0x3cddcd0f	0.027075319
35	0x3b160254	0.0022889571
36	0xbcb09efb	-0.021560183
37	0xbc46af28	-0.012126721
38	0x3d0a175f	0.033713695
39	0x3c90df6d	0.017684663
40	0xbc9ab6be	-0.018885966
41	0x3d04e46e	0.03244441
42	0x3c268573	0.010163653
43	0xbd0a49a1	-0.033761624
44	0xbcf53f8c	-0.029937528
45	0x3d22c728	0.03974071
46	0xbd10dfde	-0.035369746
47	0xbcb706c0	-0.022342086
48	0x3ba3daf0	0.0050004646
49	0x3c8e4921	0.017368855
50	0xbba40e4b	-0.0050065867
51	0xbb5a3b0c	-0.0033299355
52	0x3c73b55e	0.014874784
53	0xbd1d3a30	-0.03838557
54	0xbc387c7b	-0.011260147
55	0x3caa3616	0.020777743
56	0xbc83d0d0	-0.01609078
57	0x3d21a8c1	0.039467577
58	0xbcf40b50	-0.02979055
59	0xbc94be8b	-0.018157264
60	0xbc8748d7	-0.016514225
61	0x3d03bcd5	0.032162506
62	0xbd338267	-0.043825533
63	0xbc901bbe	-0.017591354
64	0x3c6a5518	0.0143025145
65	0x3cd313cb	0.025766274
66	0x3cbb9ae4	0.022901006
67	0x3c1fe721	0.009759695
68	0x3c7c91cc	0.01541562
69	0xbb0a0d3d	-0.002106502
70	0xbca33708	-0.019923702
71	0xbd1cd167	-0.03828564
72	0x3c78afe4	0.015178654
73	0xbd0584db	-0.032597404
74	0xbd275541	-0.04085279
75	0x3b706fed	0.0036687807
76	0x3959ee8a	0.00020783595
77	0x3b8655ca	0.0040995823
78	0x3cda5e89	0.026656406
79	0x3c537a10	0.01290752
80	0xbd1e187e	-0.038597576
81	0x3d21d978	0.039514035
82	0xbcffff1e	-0.031249579
83	0xbd20a608	-0.03922084
84	0xbbf66e2a	-0.007520457
85	0x3c98a8dc	0.018635206
86	0x3c766ed3	0.015041071
87	0x3d04f235	0.03245755
88	0xbcb3cc4e	-0.021948006
89	0x3d14dd08	0.036343604
90	0xbd040486	-0.032230876
91	0x3cfb3768	0.030666068
92	0x3d00ed5f	0.031476375
93	0xbd1c85f9	-0.038213704
94	0xbcf49cf2	-0.029859994
95	0x3d2cd61f	0.04219639
96	0x3c60f37a	0.013729924
97	0xbd154e76	-0.03645178
98	0xbd0e3474	-0.034717992
99	0x3c7db981	0.015486122
100	0x3ca8c854	0.020603336
101	0x3c83437f	0.016023396
102	0xbd19b2be	-0.037523977
103	0xbc9cb299	-0.01912813
104	0xbb176004	-0.0023098001
105	0xbc27fdf7	-0.010253421
106	0xbd2cfa79	-0.042231057
107	0xbc9e6a96	-0.019337934
108	0xbccc81db	-0.024964264
109	0x3beb4307	0.007179621
110	0x3c9b65b2	0.01896939
111	0x3cbdc31c	0.023164324
112	0x3cfc478b	0.030795833
113	0x3c46ff31	0.012145803
114	0xb808fad7	-3.265854e-05
115	0x3c0c7418	0.008572601
116	0xbd329ebf	-0.043608423
117	0x3cb47986	0.022030603
118	0xbc862bc5	-0.016378293
119	0x393ab9f1	0.00017807611
120	0xbcd4f2db	-0.025994709
121	0xbc1f24e8	-0.009713389
122	0xbce2ca8c	-0.027684473
123	0xbcfc9435	-0.03083239
124	0xbc2da39d	-0.0105980905
125	0x3d255498	0.040363878
126	0x3d1f031c	0.038821325
127	0xbcd1b317	-0.025598092
128	0xbd0b6c65	-0.03403892
129	0xbc1a5641	-0.009419979
130	0x3c5d6697	0.013513229
131	0x3d1804a7	0.03711381
132	0x3bdd8f5a	0.0067614736
133	0xbd1f984c	-0.0389636
134	0x3d1c3136	0.03813287
135	0xbcae2fc6	-0.021263015
136	0x3d1e81d3	0.03869803
137	0x3c6df337	0.014523319
138	0xbd026ff1	-0.031845037
139	0x3d19c9e9	0.037546072
140	0xbae56f35	-0.0017504456
141	0x3caf17e9	0.021373706
142	0x3c291473	0.010319817
143	0xbd326df4	-0.04356189
144	0xbc23733e	-0.009976206
145	0xbcc2764b	-0.023738047
146	0x3cc2bceb	0.023771724
147	0xbbc0f116	-0.0058881147
148	0xbc7d76a9	-0.015470185
149	0x3b4b568c	0.0031026928
150	0x3c2f6b21	0.010706694
151	0xbd0eb248	-0.03483799
152	0xbb28a7b9	-0.0025734736
153	0x3d0225b7	0.03177425
154	0xbc0ea9fd	-0.008707521
155	0x3d22765a	0.03966365
156	0xbcfc6c50	-0.030813366
157	0xbd15e996	-0.036599718
158	0xbd25f97f	-0.04052114
159	0x3d108df2	0.03529162
160	0xbcd7d200	-0.026345253
161	0x3d0ec9e7	0.034860518
162	0xbcd581e4	-0.026062913
163	0x3d2d9f9c	0.042388543
164	0x39ccab33	0.00039037465
165	0x3d144883	0.036201965
166	0x3cec83be	0.028871413
167	0x3c8622a1	0.016373934
168	0xbce2ba19	-0.027676629
169	0xbba2f67f	-0.0049732323
170	0x3cbbf6b7	0.022944791
171	0x3d128dc6	0.035779737
172	0xbd0b8537	-0.03406259
173	0xbbe07fe8	-0.006851185
174	0x3b942437	0.0045209187
175	0xbbda8c6e	-0.0066695726
176	0xbd228e66	-0.039686583
177	0xbc9a7859	-0.018856214
178	0x3d0328bc	0.03202127
179	0xbc82d0d0	-0.01596871
180	0x3cb143fb	0.02163886
181	0xbd1ad684	-0.037802234
182	0x3ca37b3f	0.01995623
183	0x3c7af911	0.015318171
184	0x3c50d750	0.012746647
185	0xbb4d3a38	-0.0031315219
186	0x3bbf05a8	0.0058295317
187	0xbc4dd188	-0.012562163
188	0x3ca33682	0.019923452
189	0x3d232f5b	0.039840084
190	0x3d1a4af6	0.037669145
191	0x3cd58c42	0.026067857
192	0x3d20e47d	0.039280403
193	0xbd30b840	-0.043144464
194	0x3bbbee7c	0.0057352167
195	0xbcfbd881	-0.030742886
196	0xbc1e71c6	-0.00967068
197	0x3ca42ba2	0.020040337
198	0xbc0cffca	-0.008605907
199	0x3cd52105	0.026016722
200	0x3c01e685	0.007928495
201	0x3cd74e24	0.026282378
202	0xbcf83662	-0.03029937
203	0x3c290d61	0.010318131
204	0x3d31f03e	0.043442003
205	0x3d1b9f55	0.037993748
206	0xbca61d53	-0.020277655
207	0x3d1f2294	0.038851336
208	0x3d1ce2c6	0.038302206
209	0x3cf5ea81	0.030019047
210	0x39f192c3	0.00046076448
211	0xbc78c689	-0.015184053
212	0xbd0486b8	-0.03235504
213	0x3c81dad6	0.01585142
214	0xbcc8285b	-0.024433305
215	0xbc8c9dec	-0.017165147
216	0x3bf42c66	0.007451582
217	0xbb51927c	-0.003197818
218	0x3d0bd0d7	0.034134712
219	0xbb9c0a24	-0.004761951
220	0x3bf467e7	0.007458675
221	0xbd003f29	-0.031310234
222	0x3ca6e40c	0.020372413
223	0x3cb02d36	0.021505933
224	0xbce5585b	-0.027996233
225	0x3c8b9b57	0.017041845
226	0x3c622505	0.013802771
227	0x3d28bf29	0.04119793
228	0xbcda3cd6	-0.026640337
229	0xbd05ebdb	-0.032695632
230	0x3cfb1565	0.03064985
231	0x3cb390aa	0.021919567
232	0x3c8dd729	0.01731451
233	0xbc6484a6	-0.0139476415
234	0xbd155b21	-0.03646386
235	0xbd0b0214	-0.03393753
236	0xbb0711ba	-0.002060993
237	0xbd16ccc1	-0.036816362
238	0xbd0babd6	-0.034099422
239	0x3c0f5114	0.008747358
240	0xbbb06005	-0.00538254
241	0xbb3a267d	-0.0028404288
242	0x3cd08de3	0.025458282
243	0x3cfa96f0	0.03058955
244	0xbce8981b	-0.028392842
245	0x3d0eb792	0.034843035
246	0xbd190205	-0.03735544
247	0x3c89c9ab	0.016819796
248	0x3d229473	0.039692353
249	0xbca76898	-0.020435616
250	0x3ca60a83	0.020268684
251	0xbc3b1cf3	-0.011420476
252	0x3ce7fc4e	0.02831855
253	0x3c9adaa3	0.018903082
254	0x3c6328b8	0.013864689
255	0x3c85c791	0.016330512
