results/scratch/12owob2t/sae_278/model.pth (torch, 132127 bytes, 2 tensors)

encoder.0.weight f4 [128, 128]
-0.055991914 -0.013958574 0.009949694 -0.08446868 0.036526866 0.0003566651 0.044515904 0.07592767
0.0044341516 -0.01676035 0.014528038 -0.04599471 0.034627438 -0.005927161 -0.07872745 0.00859392
0.032028854 0.01776245 -0.013894629 -0.07882363 0.01891747 0.0659117 0.069335215 0.07470479
0.076212876 -0.07366868 0.06542423 0.0381498 0.00042482125 -0.06309437 -0.03440832 0.027554266
-0.017943492 -0.04227589 -0.05057244 0.08560483 0.061969437 -0.011808224 -0.08791878 -0.014968234
0.078685954 -0.08010467 -0.041769132 0.043993507 0.062422454 -0.08539316 0.030360265 0.024468305
0.06825763 0.059427787 0.05118185 -0.081861585 -0.04778477 -0.075019136 -0.069846235 0.024660822
0.0061251028 -0.054266162 0.03784224 0.055308174 -0.053365365 -0.08533951 -0.079920955 -0.0685024
0.013357936 -0.0814456 -0.08409471 0.016745755 0.024163563 -0.020425268 0.04892999 0.06969503
0.03948958 0.02664461 -0.02440804 0.021653807 0.053048972 -0.06263062 0.011398358 -0.053198222
0.07936051 0.07087697 0.01925069 -0.013938685 0.03583925 0.02373489 -0.03157186 -0.0357101
0.071244255 -0.013771314 0.03189078 0.017756592 0.02221899 -0.07706586 0.020162283 0.020617267
0.05659925 0.019323638 -0.08324491 -0.08459955 -0.067794345 -0.0039728926 -0.06277682 0.079206936
-0.017721944 -0.060814865 0.034060534 -0.0026774101 -0.03660013 0.004378423 -0.013459523 -0.056490865
0.04862475 0.06847344 -0.057720743 0.009763016 -0.08287179 -0.029223012 -0.075140655 -0.011670789
0.03419722 0.07603213 0.012710929 -0.07460878 0.017398324 -0.07386614 -0.057699353 -0.065325096
-0.0058976714 0.046928387 0.07901788 -0.022680547 0.069815546 -0.07428124 0.025172047 0.0866852
-0.026696341 0.012847434 0.028371003 0.025594063 -0.035769522 0.023030607 0.0048897085 0.045032516
0.02819425 0.025929911 -0.0054279766 -0.07355904 0.08493839 -0.009616636 0.004394652 -0.017833522
-0.017172659 0.03568405 0.06471916 0.086274564 0.02250686 -0.049369268 0.012270538 0.038317416
0.06314614 -0.045141213 0.08600729 -0.009715618 -0.061440114 0.06249585 0.036856417 -0.07203526
-0.060329523 0.0039797267 0.01491322 -0.06994042 0.02760767 -0.07805611 0.037077002 -0.013168203
0.07205255 0.011357385 0.079467684 -0.053929243 -0.015391017 0.005119051 0.015852535 -0.007236171
0.04898154 0.008847308 -0.0066673784 0.02301612 -0.047809362 -0.022746854 -0.06451416 0.02961366
0.026475491 -0.054623127 0.05671968 -0.023201639 0.035355978 -0.012905449 -0.08817627 -0.07481236
0.014091335 0.018691748 0.0019834412 0.033730492 0.012856991 -0.076448694 -0.04129132 -0.032079957
-0.07880724 0.06620697 0.07451074 0.03763465 0.07041267 -0.07470713 -0.044707764 -0.07068569
-0.0013552635 0.053793088 -0.013172291 0.04856299 -0.04786626 -0.048991706 -0.05624675 -0.07484215
0.022464564 -0.038184498 0.021863941 -0.007878889 -0.06486315 0.059268825 -0.016169481 0.0010763146
-0.038621202 -0.0044449857 -0.069007106 0.018727835 -0.04441738 -0.063133754 -0.086816445 -0.038562007
-0.044362582 0.06715672 0.035891317 0.0813533 0.068772264 0.023920676 -0.0076119527 -0.01854358
-0.011643805 0.044794187 -0.053320114 -0.025888091 0.049868803 -0.047546998 -0.007855962 0.01803785
00000000: c757 65bd 81b2 64bc 0b04 233c eafd acbd
00000010: 329d 153d c8fe ba39 4f56 363d f77f 9b3d
00000020: 5c4c 913b 004d 89bc 0207 6e3c f364 3cbd
00000030: 80d5 0d3d a138 c2bb db3b a1bd 83cd 0c3c
00000040: b030 033d 8f82 913c 4ca6 63bc 496e a1bd
00000050: cff8 9a3c b7fc 863d 9fff 8d3d d3fe 983d
00000060: 7f15 9c3d 9bdf 96bd 24fd 853d f742 1c3d
00000070: 8bba de39 9f37 81bd bdef 0cbd 7cb9 e13c
00000080: 3bfe 92bc 7c29 2dbd 0c25 4fbd 9651 af3d
00000090: aad3 7d3d 4877 41bc c30e b4bd 533d 75bc
000000a0: 1a26 a13d eb0d a4bd 1c16 2bbd 8932 343d
000000b0: b0ae 7f3d 9ce2 aebd 17b6 f83c c171 c83c
000000c0: a8ca 8b3d 8d6a 733d 0fa4 513d 0ca7 a7bd
000000d0: f7b9 43bd a2a3 99bd 8b0b 8fbd 7e05 ca3c
000000e0: 16b5 c83b 3246 5ebd 7700 1b3d d38a 623d
000000f0: a495 5abd 7bc6 aebd 99ad a3bd fc4a 8cbd
00000100: 3fdb 5a3c f3cc a6bd d939 acbd 652e 893c
00000110: aaf2 c53c e452 a7bc d06a 483d 45bc 8e3d
00000120: d3bf 213d cc45 da3c 5ff3 c7bc 5363 b13c
00000130: e149 593d 7c44 80bd 2ec0 3a3c 61e6 59bd
00000140: c387 a23d f227 913d 9fb3 9d3c 155f 64bc
00000150: 2dcc 123d ac6f c23c 7f51 01bd c144 12bd
00000160: 82e8 913d 14a1 61bc e89f 023d 4676 913c
00000170: 9904 b63c b5d4 9dbd 5f2b a53c 8be5 a83c
00000180: 9dd4 673d 9b4c 9e3c 4f7c aabd 8742 adbd
00000190: c3d7 8abd 0a2f 82bb 2291 80bd 3f37 a23d
000001a0: 9c2d 91bc 0219 79bd 0f83 0b3d 7d77 2fbb
000001b0: 05ea 15bd e078 8f3b 5585 5cbc f762 67bd
000001c0: bf2a 473d ce3b 8c3d 966c 6cbd 0ff5 1f3c
000001d0: afb8 a9bd 1965 efbc 58e3 99bd d636 3fbc
000001e0: 6212 0c3d bcb6 9b3d 8041 503c 7dcc 98bd
000001f0: ee86 8e3c 2147 97bd 2856 6cbd 2ac9 85bd
00000200: 4141 c1bb fb37 403d 20d4 a13d 8ecc b9bc
00000210: 74fb 8e3d c320 98bd 9c35 ce3c 0388 b13d
00000220: 49b2 dabc 0b7e 523c 4e6a e83c a4aa d13c
00000230: 1083 12bd afaa bc3c d939 a03b 0474 383d
00000240: a1f7 e63c f76a d43c 2bdd b1bb 1fa6 96bd
00000250: 2ef4 ad3d 188f 1dbc 0301 903b 9b17 92bc
00000260: adad 8cbc 7029 123d 7b8b 843d b8b0 b03d
00000270: 4e60 b83c 6e37 4abd 5e0a 493c b9f2 1c3d
00000280: c352 813d fee5 38bd 9724 b03d 412e 1fbc
00000290: a1a8 7bbd a6fb 7f3d c1f6 163d 3987 93bd
000002a0: 171c 77bd 5e68 823b 9456 743c ec3c 8fbd
000002b0: 7b29 e23c e2db 9fbd 0ede 173d 72bf 57bc
000002c0: 4a90 933d 5314 3a3c f4bf a23d e9e4 5cbd
000002d0: 9b2a 7cbc b6bd a73b 2ddd 813c 671d edbb
000002e0: dea0 483d 4df4 103c 067a dabb 4d8c bc3c
000002f0: c0d3 43bd 9c57 babc 0020 84bd 5998 f23c
00000300: 21e3 d83c 80bc 5fbd e552 683d 5d11 bebc
00000310: 6ed1 103d 6071 53bc c395 b4bd 3937 99bd
00000320: 58df 663c 701f 993c 9ffc 013b fc28 0a3d
00000330: 21a6 523c 2291 9cbd 1621 29bd 4666 03bd
00000340: b165 a1bd 8597 873d 1699 983d ca26 1a3d
00000350: 8534 903d 0d00 99bd 7d1f 37bd a9c3 90bd
00000360: 19a3 b1ba 2456 5c3d 98d0 57bc fce9 463d
00000370: 690f 44bd 87ab 48bd fe62 66bd d746 99bd
00000380: 9b07 b83c 5967 1cbd 021c b33c 7516 01bc
00000390: f9d6 84bd dec3 723d dc75 84bc 2013 8d3a
000003a0: 4431 1ebd 3ea7 91bb 9953 8dbd 1e6b 993c
000003b0: 00ef 35bd 454c 81bd d2cc b1bd 32f3 1dbd
000003c0: 8ab5 35bd 7689 893d c602 133d 8f9c a63d
000003d0: 79d8 8c3d 4bf5 c33c b06d f9bb b5e8 97bc
000003e0: a8c5 3ebc 1c7a 373d 3166 5abd 4313 d4bc
000003f0: 3b43 4c3d a4c0 42bd 4bb6 00bc 1dc4 933c

decoder.weight f4 [128, 128]
-0.047912028 0.043504987 -0.008487817 -0.06399823 -0.046262518 -0.012524167 0.01887095 -0.00869679
0.0322445 0.010294557 0.038832903 0.042784624 0.030947022 0.0711443 0.026965806 0.019144174
0.0840493 0.0008209468 0.052237816 0.06294289 0.051317327 -0.020240584 0.012899675 -0.0012940099
-0.06811297 0.053511515 0.063089736 0.04782937 -0.0034169415 0.048220355 -0.08626519 -0.05187378
0.00990003 -0.068507336 0.010059125 -0.05608812 -0.041680973 -0.008648262 0.057844095 -0.045031756
-0.0044150115 0.03204817 0.017616613 -0.018315071 -0.057345666 0.06225642 -0.027807046 0.025203014
0.008966882 -0.054139882 -0.07705173 0.029729346 0.04589651 -0.030761594 0.03222038 -0.014648548
-0.029730791 0.07198458 -0.0320837 -0.0056505543 0.03527626 -0.07944856 0.042032007 -0.05931894
-0.08379569 -0.07835165 -0.063823 -0.06975088 -0.074361436 -0.056561965 0.059979558 -0.01578986
0.012787754 0.011541848 0.03178021 -0.07517152 0.08707824 0.08769905 -0.06437817 -0.05052172
0.07874493 0.001560469 -0.009865281 0.07516182 -0.009705798 0.061068878 -0.03291175 0.028863437
0.013584992 -0.012088969 0.028047426 -0.026989736 0.024002135 0.07604602 0.057633966 0.08339513
-0.038639415 -0.07428792 -0.081045955 0.040220335 -0.060516834 0.011656659 0.07551292 0.057541385
0.0017753431 -0.045290392 0.053890962 -0.027601829 0.05968336 0.015275355 -0.035662692 -0.0539838
0.024038443 -0.018699696 -0.00816223 0.018949402 -0.059536964 0.04855164 0.02980861 -0.05827668
0.078620635 0.019272562 0.0032370302 -0.034334898 0.067966014 0.030600803 0.05697003 0.012695916
-0.068820424 0.038244408 -0.073437974 -0.058110893 -0.0707015 -0.05416451 -0.03369513 -0.018931037
-0.00621804 -0.087541915 0.0072782547 -0.037879575 -0.063589394 0.051485013 -0.02750853 -0.04488808
-0.015580667 -0.02245541 0.07881411 -0.00909988 0.014647863 0.006209334 -0.053938482 -0.08732812
0.064498365 -0.023918683 -0.048398964 -0.060125723 -0.06973277 0.01688781 0.08752529 -0.059407763
-0.016313989 -0.012971115 0.015549595 -0.051010814 0.004094064 0.040621515 0.08078534 0.06023756
0.026022349 0.07794663 -0.0009782283 0.07282151 -0.01294585 0.039833006 -0.055548806 -0.052292332
0.064677596 0.079757944 -0.05365673 -0.06973056 0.03273252 -0.08697706 -0.06353469 -0.07894807
-0.007804144 -0.08591377 0.060080342 0.05392074 -0.047236975 -0.023203073 -0.018534277 -0.056148898
-0.028258871 -0.05841926 0.042559896 -0.06405007 0.018213265 0.038431183 -0.009105658 -0.0042020995
0.038916092 -0.02106813 0.023037067 -0.011804661 -0.07082309 0.009549938 0.04963137 0.026197448
-0.033780802 0.082937874 0.05281278 0.082452215 -0.047501363 -0.0048045227 -0.08008975 0.07499722
0.02678672 -0.067503646 0.086532906 0.022236751 -0.05764782 -0.059523467 0.0740654 0.022998402
-0.056254715 0.08816897 0.073809415 0.07451124 -0.06791931 0.0004882923 -0.038411036 0.088091284
-0.059038237 -0.025136886 -0.07263693 0.028327147 0.012020439 0.063190654 0.06508162 -0.061558507
0.005820016 -0.001779273 0.0011921847 0.017168708 -0.050709117 -0.014920258 0.038051207 -0.05340109
-0.01297941 0.061590273 0.06706981 -0.012823537 0.040317588 -0.02518901 0.049580507 -0.0234017
00000000: 673f 44bd 4932 323d 7c10 0bbc 8111 83bd
00000010: c47d 3dbd 2a32 4dbc 4097 9a3c fb7c 0ebc
00000020: cf12 043d 80aa 283c 400f 1f3d ee3e 2f3d
00000030: 9c84 fd3c 1ab4 913d 65e7 dc3c 3ed4 9c3c
00000040: 0a22 ac3d cf34 573a 52f7 553d 34e8 803d
00000050: 1e32 523d 95cf a5bc 2959 533c c49b a9ba
00000060: d07e 8bbd e42e 5b3d 3135 813d bbe8 433d
00000070: c4ee 5fbb b582 453d ceab b0bd 9a79 54bd
00000080: bc33 223c 934d 8cbd 07cf 243c a8bc 65bd
00000090: abb9 2abd 71b1 0dbc eeed 6c3d 3873 38bd
000000a0: cdab 90bb f144 033d b750 903c 7d09 96bc
000000b0: 4ae3 6abd 9600 7f3d 9acb e3bc 8d76 ce3c
000000c0: d4e9 123c c8c1 5dbd 4ccd 9dbd f58a f33c
000000d0: fbfd 3b3d bdff fbbc 84f9 033d 7700 70bc
000000e0: fd8d f3bc a76c 933d 336a 03bd 4928 b9bb
000000f0: d77d 103d edb5 a2bd c129 2c3d 6bf8 72bd
00000100: 139d abbd d476 a0bd a2b5 82bd 8dd9 8ebd
00000110: cf4a 98bd 85ad 67bd 20ad 753d bd59 81bc
00000120: ba83 513c 051a 3d3c f72b 023d 87f3 99bd
00000130: 1456 b23d 8f9b b33d b4d8 83bd ddef 4ebd
00000140: 0645 a13d a788 cc3a fda1 21bc 71ee 993d
00000150: 1105 1fbc 5c23 7a3d 79ce 06bd 0473 ec3c
00000160: 9693 5e3c d010 46bc b7c3 e53c 9419 ddbc
00000170: 20a0 c43c 04be 9b3d 9811 6c3d 11cb aa3d
00000180: 5d44 1ebd 4424 98bd 6cfb a5bd 14be 243d
00000190: 80e0 77bd 92fb 3e3c 85a6 9a3d 84b0 6b3d
000001a0: a1b2 e83a 6b82 39bd c5bc 5c3d 3b1d e2bc
000001b0: 8a76 743d 7c45 7a3c 0b13 12bd 1e1e 5dbd
000001c0: 45ec c43c 1b30 99bc e0ba 05bc c73b 9b3c
000001d0: 08dd 73bd 16de 463d 3031 f43c 87b3 6ebd
000001e0: db03 a13d 7ee1 9d3c 5b24 543b c0a2 0cbd
000001f0: c431 8b3d 89ae fa3c 6859 693d 8802 503c
00000200: b9f1 8cbd 2ba6 1c3d a666 96bd b005 6ebd
00000210: f3cb 90bd 9bdb 5dbd e803 0abd 4315 9bbc
00000220: b3c0 cbbb 2d49 b3bd 6d7e ee3b 9d27 1bbd
00000230: 283b 82bd f3e1 523d 9259 e1bc 90dc 37bd
00000240: 0e46 7fbc 68f4 b7bc 4b69 a13d aa17 15bc
00000250: 97fd 6f3c ab77 cb3b 99ee 5cbd 16d9 b2bd
00000260: b817 843d 1df1 c3bc fe3d 46bd 6446 76bd
00000270: 0ed0 8ebd 4e58 8a3c 7640 b33d 8e55 73bd
00000280: eaa4 85bc cd84 54bc bac3 7e3c b7f0 50bd
00000290: 7f27 863b bf62 263d c972 a53d a9bb 763d
000002a0: d22c d53c 7ca2 9f3d e537 80ba 7223 953d
000002b0: d51a 54bc ef27 233d 2587 63bd 7c30 56bd
000002c0: b075 843d 2258 a33d 29c7 5bbd e5ce 8ebd
000002d0: 8912 063d 0721 b2bd 7a1e 82bd 87af a1bd
000002e0: e8b9 ffbb 8ff3 afbd ce16 763d fedb 5c3d
000002f0: 8f7b 41bd 5f14 bebc 32d5 97bc 63fc 65bd
00000300: 267f e7bc 0949 6fbd 4953 2e3d af2c 83bd
00000310: fc33 953c 046a 1d3d e62f 15bc c4b1 89bb
00000320: 7b66 1f3d 1297 acbc 3bb8 bc3c 5668 41bc
00000330: b20b 91bd 5877 1c3c 434a 4b3d 089c d63c
00000340: bd5d 0abd 55db a93d 3752 583d b5dc a83d
00000350: ca90 42bd 426f 9dbb 1806 a4bd 2498 993d
00000360: d36f db3c 5a3f 8abd 2a38 b13d d929 b63c
00000370: 1f20 6cbd e1ce 73bd 9aaf 973d 2567 bc3c
00000380: 586b 66bd ef91 b43d 6429 973d 5999 983d
00000390: 4719 8bbd be00 003a e454 1dbd 3469 b43d
000003a0: 14d2 71bd dfeb cdbc acc2 94bd 550e e83c
000003b0: 60f1 443c 1a6a 813d 8349 853d c624 7cbd
000003c0: d5b5 be3b 7f36 e9ba 1543 9c3a 64a5 8c3c
000003d0: 5db4 4fbd 1974 74bc 95db 1b3d 1abb 5abd
000003e0: 97a7 54bc 1546 7c3d e65b 893d d019 52bc
000003f0: 0e24 253d 2f59 cebc ee14 4b3d ecb4 bfbc
