results/scratch/12owob2t/sae_102/model.pth (torch, 525343 bytes, 2 tensors)

encoder.0.weight f4 [512, 128]
0.062286597 -0.029144496 0.067542925 -0.04572051 -0.045600418 -0.050425097 0.07409967 -0.06511313
-0.06293954 -0.025353007 0.05927901 -0.032017358 0.07007435 -0.052602496 -0.03970819 -0.048358742
0.071740896 0.010088739 -0.060175147 -0.004531068 -0.07739315 0.015388256 -0.038596895 -0.02390852
0.03982822 0.0052299537 0.06440081 0.08207389 -0.08363609 -0.051219523 0.08696085 -0.078237936
0.0724573 0.0019872189 0.04612995 -0.07606188 0.036421195 -0.0031284913 0.06721361 0.07844521
-0.03280696 0.05717986 0.049348194 0.025030155 -0.0040802397 0.07826795 0.03519962 -0.0513946
0.064190194 -0.070073895 -0.047571473 -0.0046954527 -0.08713894 -0.011478571 -0.07873533 0.05093348
0.07341689 0.008817977 -0.005515173 -0.039767735 0.058699213 -0.07072109 0.049979392 0.06870689
-0.028878089 -0.015394948 -0.060681034 0.002403156 0.04568626 0.07814762 0.04263439 -0.07731643
0.041659705 -0.014053594 0.06729854 0.004430035 -0.01436038 -0.025015868 -0.074571975 0.023112103
0.069439195 0.009219306 -0.021205598 -0.06339171 0.03384384 -0.048970748 0.033876896 -0.029921422
0.008342795 0.074274294 -0.07202005 -0.0072012204 -0.06974117 -0.028940886 0.079282 0.056633677
-0.0041829953 -0.029910259 0.007174827 0.0051151155 -0.026239216 -0.071148016 -0.025865883 -0.0083977
0.082007885 0.015294168 -0.060430706 0.012305347 0.047498964 -0.063886754 0.065116175 -0.0605309
0.023591647 0.06800456 -0.019297756 0.0132409865 0.025980389 0.011374672 0.057969075 -0.025798004
0.05885734 -0.0009501528 0.082143046 0.069060296 0.004142314 0.08272893 0.040945202 -0.05468195
-0.011650587 -0.040460527 -0.05327248 0.06331889 0.042231683 -0.04665223 0.016193762 -0.002095601
0.03706638 0.06815284 0.06852053 0.042444747 -0.054520883 0.004233806 0.04711302 0.000230498
-0.05421139 0.07948974 -0.061478958 0.04717029 0.014200056 -0.048024908 -0.07826633 0.050775263
-0.043356884 0.04091307 0.031678654 -0.007881877 0.057468764 -0.06554375 -0.087963276 -0.04363827
-0.0146355955 0.059387337 -0.08763789 0.024368439 0.032032087 -0.06649427 -0.035966087 0.03919716
-0.01004224 -0.016215278 -0.084354416 0.032407317 -0.02769248 0.00022331934 0.0553349 -0.075996816
-0.025972735 -0.035431918 0.05425412 -0.03169907 0.016682768 0.017647857 0.075566314 -0.026380446
-0.06720813 -0.05754978 0.027480341 0.030316321 -0.08139514 -0.050849367 -0.008325251 -0.016798789
-0.073305845 -0.07973823 0.034419023 0.029746674 -0.03165829 -0.079926476 0.079038754 -0.080480486
-0.0050496506 -0.05800931 0.0078012706 0.036805555 0.0789283 -0.0068032304 -0.05032943 0.07039972
-0.037759323 -0.05428319 0.030209634 0.012874479 5.575324e-05 0.02877069 -0.013983538 -0.08038075
0.087012336 0.029377708 0.07054783 -0.018700011 -0.081923254 0.048384655 -0.07251756 0.083136834
-0.027496196 -0.071126565 -0.0620179 0.024579866 0.057558417 0.022330154 0.028170044 0.047838513
-0.02718909 0.025312295 0.03580822 -0.063604586 0.0861021 -0.030052966 -0.006682493 0.037221912
-0.065320596 0.06918585 0.05727767 0.029601488 -0.024372168 -0.05699581 0.04384235 0.03351641
0.008620037 -0.076575965 -0.059151933 -0.07222731 0.07660398 -0.008965305 0.014166564 -0.005728626
00000000: 3b20 7f3d 70c0 eebc f253 8a3d 6e45 3bbd
00000010: 81c7 3abd 8c8a 4ebd 91c1 973d 085a 85bd
00000020: 72e6 80bd 1cb1 cfbc 8cce 723d a224 03bd
00000030: 2483 8f3d b775 57bd 0ea5 22bd d113 46bd
00000040: e4ec 923d 3d4b 253c 377a 76bd 5a79 94bb
00000050: 4d80 9ebd 061f 7c3c c717 1ebd cddb c3bc
00000060: ea22 233d 0860 ab3b 92e4 833d 5b16 a83d
00000070: 6649 abbd 90cb 51bd 8818 b23d 363b a0bd
00000080: 7e64 943d 003c 023b c2f2 3c3d 55c6 9bbd
00000090: 642e 153d 6007 4dbb 4aa7 893d e2a7 a03d
000000a0: 9760 06bd 6e35 6a3d 5521 4a3d 0a0c cd3c
000000b0: 88b3 85bb f24a a03d 7a2d 103d 2583 52bd
000000c0: 2676 833d e782 8fbd 4eda 42bd 50dc 99bb
000000d0: e775 b2bd 9e10 3cbc fd3f a1bd a09f 503d
000000e0: 985b 963d 4779 103c a0b8 b4bb 7ee3 22bd
000000f0: 966e 703d 38d6 90bd 31b7 4c3d 33b6 8c3d
00000100: be91 ecbc 183b 7cbc ad8c 78bd 447e 1d3b
00000110: 8421 3b3d dc0b a03d 66a1 2e3d 1458 9ebd
00000120: 5ea3 2a3d 0c41 66bc d1d3 893d d429 913b
00000130: cd47 6bbc 14ee ccbc 31b9 98bd 9855 bd3c
00000140: 2336 8e3d 920c 173c 5db7 adbc 83d3 81bd
00000150: d79f 0a3d 8d95 48bd 80c2 0a3d c51d f5bc
00000160: 38b0 083c 1f1d 983d 3f7f 93bd 37f8 ebbb
00000170: 75d4 8ebd 7015 edbc 9a5e a23d b7f8 673d
00000180: 8211 89bb 5c06 f5bc d01a eb3b b39c a73b
00000190: a0f3 d6bc 0db6 91bd b0e4 d3bc 8296 09bc
000001a0: c0f3 a73d 6494 7a3c 3086 77bd 5e9c 493c
000001b0: 468e 423d 0fd7 82bd a15b 853d 40ef 77bd
000001c0: 4543 c13c fa45 8b3d 5416 9ebc b9f0 583c
000001d0: d3d4 d43c d55c 3a3c fb70 6d3d 5656 d3bc
000001e0: 6514 713d ad13 79ba 9d3a a83d 7c6f 8d3d
000001f0: 40bc 873b c96d a93d 28b6 273d 2efa 5fbd
00000200: 1be2 3ebc f0b9 25bd 3e34 5abd 56ad 813d
00000210: 21fb 2c3d 6916 3fbd c8a8 843c 5a56 09bb
00000220: ebd2 173d b793 8b3d 7e54 8c3d 8bda 2d3d
00000230: 4a51 5fbd bdbb 8a3b 95f9 403d d6b1 7139
00000240: c30c 5ebd 84cb a23d 5cd1 7bbd a235 413d
00000250: 5aa7 683c c4b5 44bd 194a a0bd b9f9 4f3d
00000260: fd96 31bd 7794 273d 7ac1 013d fd22 01bc
00000270: 5e64 6b3d cd3b 86bd 1726 b4bd 0bbe 32bd
00000280: 23ca 6fbc 2340 733d 7e7b b3bd 52a0 c73c
00000290: 1434 033d 262e 88bd 2d51 13bd 348d 203d
000002a0: 3588 24bc e7d5 84bc 02c2 acbd 89bd 043d
000002b0: 57db e2bc d42a 6a39 d9a6 623d 38a4 9bbd
000002c0: c6c4 d4bc 0f21 11bd 9139 5e3d e2d6 01bd
000002d0: 4daa 883c 3d92 903c 83c2 9a3d ce1b d8bc
000002e0: 6ba4 89bd 51b9 6bbd 741e e13c ef59 f83c
000002f0: 7fb2 a6bd 6d47 50bd a266 08bc 9d9d 89bc
00000300: 6021 96bd cc4d a3bd f6fa 0c3d 4caf f33c
00000310: 20ac 01bd 7eb0 a3bd 12df a13d f4d2 a4bd
00000320: 8a77 a5bb 2c9b 6dbd cda1 ff3b 6cc1 163d
00000330: 29a5 a13d a2ed debb 3b26 4ebd ba2d 903d
00000340: 85a9 1abd 0d58 5ebd 327a f73c 7bef 523c
00000350: 96d8 6938 83b0 eb3c 361b 65bc aa9e a4bd
00000360: 8633 b23d 85a9 f03c 617b 903d c430 99bc
00000370: 61c7 a7bd fd2e 463d 1684 94bd a543 aa3d
00000380: b43f e1bc ceaa 91bd 7b06 7ebd b75b c93c
00000390: 60c2 6b3d baed b63c ddc4 e63c 51f2 433d
000003a0: a8bb debc bb5b cf3c a4ab 123d 1f43 82bd
000003b0: 4c56 b03d a331 f6bc d0f8 dabb 0176 183d
000003c0: cec6 85bd 50b1 8d3d fd9b 6a3d d27e f23c
000003d0: 24a8 c7bc 7074 69bd 0994 333d 8148 093d
000003e0: 0e3b 0d3c dcd3 9cbd 4c49 72bd e9eb 93bd
000003f0: 8ce2 9c3d 37e3 12bc e01a 683c 33b7 bbbb

decoder.weight f4 [128, 512]
0.019429253 0.00070717494 -0.044041663 0.028653698 -0.029956423 0.032166466 0.024618566 0.019336542
0.03863604 0.019779062 -0.019211318 -0.02004847 -0.030230295 0.033430696 -0.02547846 -0.0044025355
0.0017380082 -0.010127723 -0.003957418 0.034354884 -0.04159301 -0.034717236 -0.011329754 0.011100952
0.03519226 -0.04121572 -0.026671398 0.04116419 0.016945835 0.027872741 -0.041483685 0.027492555
0.040807765 0.021327855 -0.019271947 -0.017620964 0.041802693 -0.02932304 0.03855404 0.01631202
-0.01975856 -0.041254733 0.027958378 -0.0020554743 0.029228803 0.006946638 -0.014748225 -0.02516984
-0.02695809 -0.0126835685 0.027192645 0.031785242 0.01419964 -0.034279436 -0.03193424 0.014820325
0.005708198 0.02486177 -0.036560975 -0.025325429 0.014840212 -0.0133413 -0.03569606 -0.025812684
0.0014176302 0.005694566 0.013433416 0.010822877 -0.009057899 -0.03912864 -0.026413692 -0.03476034
-0.04281865 0.027187344 -0.005953645 -0.021212876 0.040574513 0.024833402 0.0053421254 0.039303623
0.018031903 -0.006715049 -0.010397034 -0.040536694 0.014792256 -0.0074795918 0.0033916119 -0.037393577
-0.023426207 0.021088077 0.03678066 -0.023623366 0.028105242 0.023396745 0.025379902 -0.035509493
-0.0436597 0.023534194 0.015146299 -0.023395702 -0.0125234565 0.0006812627 -0.02101983 0.02328306
0.03230783 -0.024786133 -0.03128732 -0.037853945 -0.017659616 -0.0056205997 0.019685525 -0.013663467
-0.015329717 0.021235097 0.0060573216 0.030393558 0.027094852 0.005450142 0.0069936924 0.01980975
-0.021604866 0.0029378422 0.027564622 0.04141429 0.008424537 -0.01798084 0.009970109 0.03388346
-0.020295585 0.021952456 0.008647014 0.039992433 -0.04026735 0.018674532 0.0019209617 -0.023046494
-0.020104276 -0.021997247 -0.008460187 0.03396561 0.0162032 -0.000721236 0.0075863 0.036923934
-0.003357248 -0.022262646 0.006233043 0.042161707 -0.020045457 0.018101925 0.039029185 0.03139639
-0.038343698 -0.03837369 0.018051842 0.029315379 -0.024258746 0.024130886 -0.011069139 6.511368e-06
-0.044034604 0.029386202 -0.024333207 0.03850195 0.0013322132 0.015167069 -0.03960292 0.033637527
0.04029337 0.008395782 -0.036295414 0.017025603 -0.01477348 0.036949515 0.019242447 -0.017250184
0.031110195 -0.028510446 -0.029192388 0.014060965 0.022432853 -0.028832655 -0.010732851 -0.017403351
0.017118359 0.027939178 0.03381231 -0.012766982 0.023718359 -0.029096212 0.006728627 0.033446368
-0.035064526 0.024619553 0.033414092 -0.011762385 0.039931986 -0.0295638 -0.026944162 0.03863897
0.037471805 0.04327 -0.014357009 -0.012544884 -0.016502712 0.0032208397 -0.03673616 -0.01370005
0.017239643 0.018244138 -0.030244399 -0.010719778 -0.0109361075 -0.014863857 -0.012353553 -0.011425835
0.000858706 -0.02627176 -0.030364394 0.02215349 0.026306966 -0.033879824 0.0127409315 0.035405103
0.016558837 0.03593336 -0.03464388 0.012454561 0.02720007 -0.029290661 -0.038234323 0.0049565667
-0.026863467 0.0047979313 -0.0026183412 -0.0014902835 -0.012664582 -0.0073823095 0.016479649 -0.026793953
0.0026916945 0.00063410786 0.0012716867 0.03923457 0.009356172 0.004261393 -0.022335617 -0.0012832651
-0.0071788654 -0.005319683 -0.0018315441 0.030695483 0.011409609 0.010121968 0.013391721 0.03971972
00000000: 192a 9f3c b561 393a 0865 34bd 29bb ea3c
00000010: 2c67 f5bc fcc0 033d e0ac c93c ab67 9e3c
00000020: d340 1e3d b307 a23c 0e61 9dbc b03c a4bc
00000030: 86a5 f7bc a0ee 083d 34b8 d0bc 2543 90bb
00000040: e1cd e33a c0ee 25bc 3aad 81bb b5b7 0c3d
00000050: 6f5d 2abd a933 0ebd 6fa0 39bc c4e0 353c
00000060: c225 103d d1d1 28bd fa7d dabc c89b 283d
00000070: fed1 8a3c 6055 e43c ccea 29bd 1138 e13c
00000080: 0b26 273d c1b7 ae3c 34e0 9dbc d759 90bc
00000090: 4d39 2b3d df36 f0bc d7ea 1d3d c9a0 853c
000000a0: b4dc a1bc b9fa 28bd f808 e53c 23b5 06bb
000000b0: 3e71 ef3c a0a0 e33b 8aa2 71bc fb30 cebc
000000c0: 36d7 dcbc bece 4fbc 1cc3 de3c 3e31 023d
000000d0: 9ba5 683c 9868 0cbd 7acd 02bd f3d0 723c
000000e0: d60b bb3b e9aa cb3c f6c0 15bd 4677 cfbc
000000f0: 5c24 733c 7895 5abc 0836 12bd 1f75 d3bc
00000100: c7cf b93a 7b99 ba3b d517 5c3c 7052 313c
00000110: 9567 14bc 5a45 20bd 8761 d8bc dc60 0ebd
00000120: 9c62 2fbd feb7 de3c cb16 c3bb a0c6 adbc
00000130: 7631 263d 6b6f cb3c ff0c af3b d6fc 203d
00000140: a4b7 933c ea09 dcbb 5258 2abc ce09 26bd
00000150: 385b 723c 5d17 f5bb ce45 5e3b 022a 19bd
00000160: 51e8 bfbc e7c0 ac3c 51a7 163d ca85 c1bc
00000170: f73c e63c 88aa bf3c 83e9 cf3c 6772 11bd
00000180: 83d4 32bd c8ca c03c 2f28 783c 58a8 bfbc
00000190: 2f2f 4dbc c496 323a c731 acbc 1ebc be3c
000001a0: 3755 043d 4a0c cbbc 2227 00bd bd0c 1bbd
000001b0: e6aa 90bc 022d b8bb 8a43 a13c bcdc 5fbc
000001c0: 7e29 7bbc 3af5 ad3c 7f7c c63b e9fb f83c
000001d0: 06f6 dd3c 1b97 b23b 582b e53b 0f48 a23c
000001e0: b0fc b0bc d088 403b 34cf e13c 08a2 293d
000001f0: 1207 0a3c 8e4c 93bc ab59 233c 62c9 0a3d
00000200: ed42 a6bc a3d5 b33c 35ac 0d3c 1bcf 233d
00000210: 60ef 24bd 55fb 983c c7c8 fb3a 00cc bcbc
00000220: b9b1 a4bc 9233 b4bc 999c 0abc 861f 0b3d
00000230: 93bc 843c 5411 3dba 7f96 f83b 8d3d 173d
00000240: 4605 5cbb 2760 b6bc 8e3e cc3b c1b1 2c3d
00000250: 5f36 a4bc 7d4a 943c 11dd 1f3d 8099 003d
00000260: 480e 1dbd bb2d 1dbd 75e1 933c ce26 f03c
00000270: 47ba c6bc 23ae c53c 555b 35bc 3a7c da36
00000280: a15d 34bd 55bb f03c 6f56 c7bc 39b4 1d3d
00000290: a89d ae3a 4c7f 783c ac36 22bd 81c7 093d
000002a0: a90a 253d 768e 093c 80aa 14bd 4779 8b3c
000002b0: 770c 72bc 6058 173d 56a2 9d3c 4250 8dbc
000002c0: cfda fe3c bd8e e9bc e024 efbc f65f 663c
000002d0: 1ac5 b73c 7632 ecbc d7d8 2fbc 7991 8ebc
000002e0: cd3b 8c3c b4e0 e43c c77e 0a3d 9b2c 51bc
000002f0: 014d c23c 2e5b eebc d07b dc3b 0fff 083d
00000300: d29f 0fbd f2ae c93c 37dd 083d 05b7 40bc
00000310: b98f 233d c82f f2bc 01ba dcbc e643 1e3d
00000320: 097c 193d e23b 313d a939 6bbc 0f89 4dbc
00000330: b230 87bc b914 533b a878 16bd 2d76 60bc
00000340: 273a 8d3c bb74 953c 1ac3 f7bc 02a2 2fbc
00000350: 5c2d 33bc 8987 73bc 8f66 4abc 6d33 3bbc
00000360: c91a 613a e037 d7bc c0be f8bc 3c7b b53c
00000370: b581 d73c 92c5 0abd 57bf 503c f104 113d
00000380: 66a6 873c dc2e 133d bee6 0dbd 370e 4c3c
00000390: aed2 de3c f8f2 efbc 989b 1cbd b26a a23b
000003a0: c610 dcbc f737 9d3b 7a98 2bbb 9e55 c3ba
000003b0: 1b7f 4fbc 4de7 f1bb 5400 873c fe7e dbbc
000003c0: 2467 303b 423a 263a baae a63a 6eb4 203d
000003d0: a14a 193c 28a3 8b3b 2ff9 b6bc 3b33 a8ba
000003e0: b03c ebbb bc50 aebb 6c10 f0ba 1875 fb3c
000003f0: 5eef 3a3c 9cd6 253c f368 5b3c 25b1 223d
