results/scratch/12owob2t/sae_442/model.pth (torch, 525343 bytes, 2 tensors)

encoder.0.weight f4 [512, 128]
00000000: f9dc d8bc 9693 8b3d e244 b9bb fac2 853c
00000010: 4aa7 993d c10d a7bc 9e6b eebc c9df 83bd
00000020: e7cc b2bc 79b7 b0bd 9032 6ebd d5b8 b3bd
00000030: 981d ffbc 7fb7 043d efc2 5dbd 5124 9abd
00000040: 414b 173d 9b66 6c3d ddab 623d 71d1 603d
00000050: 6769 37bd 1814 b4bd 86c9 e13c 3690 c53c
00000060: c83c ad3d 9fde 963d 1eee 8bbd 4b45 773c
00000070: fa74 513d a019 3fbd fdca 5abd 4e56 883d
00000080: e2e7 a03c 28dd e83c 5a52 bb3a dfbb a2bd
00000090: 251f 303d d519 a7bd 2fb8 29bd 297a 4e3d
000000a0: 4017 9dbd 0e26 70bd 6649 acbd eb34 3f3d
000000b0: 2d55 b9bc cf85 81bd 2e48 103c 8e62 3fbc
000000c0: 99e3 a03c 7973 e5bc 3abe 36bd 1048 ee3c
000000d0: 50c9 273d 3421 28bc b63c a13d 59d5 523d
000000e0: fc1a 9d3c 7ba2 533d e984 b4bd 865e 863c
000000f0: 0492 09bd de62 b93c 2b02 d23c f7e3 483d
00000100: 1be1 21bd d94b 9b3b d2dd 0cbd 72c7 9cbd
00000110: e937 8b3d 9024 b4bd 0af8 93bd e543 543d
00000120: 53fb 96bb 7f15 9abc bae1 1e3d 30d9 bb3c
00000130: 6997 9dbd ed2d c5bc c8d8 86bd a909 a8bd
00000140: cabe 22bd 6c39 aebd 4e1b 383d 6e81 863d
00000150: 9238 9e3d 49e1 acbd be77 d53c 46f2 d1bc
00000160: 75b9 503d 14ca 073d ebb9 94bd 31b6 a1bd
00000170: 9245 8bbd df7a 243c 3f20 5cbd 90cf 80bd
00000180: 24ce 4e3d fb7b d63b 2ff0 a5b7 fc3b 943c
00000190: e5ba 8b3d 049f 0bbd 3623 37bc 3989 8fbd
000001a0: 789f ae3a c075 9e3d c14b 02bd e42f aa3d
000001b0: 7c6d 9d3d 6d6e 16bc 7e63 88bd 0c63 ff3c
000001c0: fce2 a53d d5fc 36bd 9c68 63ba 5e96 503d
000001d0: 90a3 8fbd 48e1 fcbc aa9a bc3c 6805 0fbd
000001e0: 7f39 abbd e3f6 ca3c a371 363d 05e4 123d
000001f0: ac8c 333c 01e8 fa3c 9707 debc 24c6 71bd
00000200: 3b84 a7bd 3877 81bd 1f76 21bd 4845 cdbb
00000210: 5a11 88bd 7cfb 38bd f8b5 993d 2c5a 9ebd
00000220: 92fc bebc 37ef ed3c 851b 763d 75f1 b3bc
00000230: 3b95 7ebd 67f2 7a3d 8f56 d3bc 8169 0939
00000240: 79e8 393d e2c7 843d d2a4 93bc 2257 823d
00000250: 2bba 863c 7505 d1bc faf5 263d 9964 ac3d
00000260: 906e bfb8 2b99 fcbb 1ab5 2ebd 7d6f 4dbd
00000270: 2125 30bd b528 3e3d 21e8 433c fb0c f53c
00000280: a5cc 85bd c4a0 a83d bab4 c43c 50c1 923d
00000290: 1b1a 1f3c e5b7 493c 3278 afbd 2246 bebc
000002a0: 5d17 113b 6bb8 f03b d9a8 16bd 7a9d 363a
000002b0: 5a80 383d fe9a 85bd 3231 003d bb95 04bd
000002c0: 64e1 d6bc 2e1b a5bd fba1 a53c 9b7d 743d
000002d0: 0677 6e3d e0f9 a83d b7ef 83bd f7dc 323c
000002e0: 6230 89bd 515a afbd 979b b33b 73d7 a03d
000002f0: a2a4 2a3d 6e38 883d 2f94 50bc 91e1 1cbd
00000300: 9897 3ebd 9726 213d ea8a 53bc a04f abbd
00000310: a67a 863d 9c6a 533d a1fa df3c 65aa 79bd
00000320: 2864 46ba a21c 1b3d 79a7 5fbd 7753 9a3d
00000330: de68 633d 2815 803d fa0a 5e3c 8572 383d
00000340: 2a35 93bd df4f 763c 4a74 863d 9a1d 62bd
00000350: c748 81bd bfa4 6f3b 46a4 42bb 36c6 263d
00000360: 9ee9 4ebd d5ef 98bc 43a0 f0bc acd0 96bd
00000370: cc6e b4bd feb2 aa3d a3ff 68bc d62a acbc
00000380: f42b 40bd 6052 b2bd 3802 fc3c 2f4c f6bc
00000390: 8df4 6d3c 4128 353d 1829 993c e5fc 0a3d
000003a0: 9cda 0cba 1e3d ac3d ead4 9e3c 06e2 833d
000003b0: 1343 4a3d aa4f b33d 3bf2 89bd 5ee0 86bd
000003c0: 7063 4c3a a13b 1fbd 7a0b 5cbc a322 afbc
000003d0: a338 15bd f3f3 863d d420 82bd 10e2 19bc
000003e0: 4f7a fa3c 7e51 253d d53c 2b3d d629 8cbd
000003f0: 7e14 7abc 62b9 9e3d d6f3 a83d 1e73 b3bc
-0.026472555 0.06815259 -0.0056539634 0.016328324 0.07502611 -0.0203923 -0.02910405 -0.06439168
-0.02182622 -0.08628745 -0.05815369 -0.08775488 -0.031142041 0.032401558 -0.05414098 -0.07526458
0.036937002 0.05771504 0.055339683 0.05488724 -0.044778254 -0.08792895 0.027561914 0.024116617
0.08458859 0.0736668 -0.068325266 0.015092204 0.05113695 -0.046655297 -0.05341624 0.06657086
0.01964182 0.028425768 0.001429151 -0.0794599 0.04299845 -0.08159224 -0.041435417 0.05040947
-0.0767045 -0.05863004 -0.08412437 0.046681326 -0.022623623 -0.0632435 0.0088062715 -0.011681212
0.019639777 -0.028009163 -0.044615008 0.029087096 0.04096347 -0.0102618225 0.07872908 0.051472995
0.019177906 0.051668625 -0.08814413 0.016402494 -0.033586517 0.022630151 0.0256358 0.04904553
-0.039521318 0.0047392664 -0.03439123 -0.07655229 0.067977734 -0.08796036 -0.07225044 0.05182256
-0.004607597 -0.018809078 0.03878949 0.022930712 -0.07694895 -0.02406975 -0.065843165 -0.082049675
-0.039732732 -0.08507046 0.044947915 0.065676555 0.07725634 -0.08441407 0.026058074 -0.02562822
0.050958116 0.0331517 -0.072620235 -0.078960784 -0.06800379 0.01003906 -0.05374169 -0.062895894
0.05048956 0.0065455413 -1.9781377e-05 0.018095009 0.06822757 -0.034087196 -0.011177829 -0.07008595
0.0013322672 0.07737303 -0.031810526 0.08309916 0.07686898 -0.009181601 -0.06659602 0.031175159
0.080999345 -0.044674713 -0.0008674951 0.05092465 -0.07013619 -0.030869141 0.023022968 -0.034917265
-0.08360576 0.024775928 0.044541966 0.035861988 0.010958832 0.030628206 -0.027103228 -0.059026852
-0.08179518 -0.06321567 -0.03941929 -0.0062643625 -0.066439345 -0.04516171 0.07505411 -0.07732043
-0.023313794 0.02904473 0.06008484 -0.021965722 -0.062154036 0.06126633 -0.02579811 0.00013104641
0.04538772 0.06483437 -0.018022928 0.063642755 0.016446194 -0.025515297 0.040761925 0.08417625
-9.1281836e-05 -0.0077086887 -0.04265318 -0.05015515 -0.04300416 0.04642554 0.011957199 0.029913416
-0.065331735 0.082337886 0.024011958 0.07165778 0.009710814 0.01231191 -0.08567847 -0.023226801
0.002213917 0.007346203 -0.03678212 0.0006966215 0.04504428 -0.06523703 0.031296916 -0.032369357
-0.026230522 -0.08061825 0.02021884 0.0596901 0.05821898 0.08250785 -0.06442206 0.01091694
-0.066986814 -0.08562148 0.0054811942 0.07853594 0.041660912 0.06651388 -0.012730642 -0.038301054
-0.04653129 0.039343443 -0.012911538 -0.08364797 0.06566362 0.051615342 0.027341189 -0.060953517
-0.0007568025 0.037869103 -0.054603074 0.07535451 0.05551993 0.06254035 0.013552422 0.04503109
-0.071878746 0.015033691 0.06565149 -0.05520401 -0.06312709 0.0036566702 -0.0029699965 0.040716372
-0.050515763 -0.018669048 -0.029373294 -0.0736402 -0.08810195 0.08334921 -0.014221105 -0.02101652
-0.046916917 -0.08707118 0.030762777 -0.030065624 0.0145236375 0.044227842 0.018696353 0.033932585
-0.00053731515 0.08410095 0.019388635 0.06439595 0.049380373 0.08755429 -0.06735655 -0.065857634
0.00077968 -0.038875226 -0.013430471 -0.02137882 -0.036430966 0.06589498 -0.06353918 -0.009392276
0.0305759 0.04036092 0.04180606 -0.06843917 -0.015263675 0.07750203 0.08249633 -0.021905478

decoder.weight f4 [128, 512]
00000000: 4f17 c9bc e375 a5bc d3b4 013c 88ed eabc
00000010: 0168 323d a7d9 3e3c 3b6d f8bc c282 f83c
00000020: 27e7 b0bc 009b dd3c 817e 5bbb d201 f63c
00000030: 9247 20bd 9afc 363a e36e 0dbd c776 ea3c
00000040: 7e91 1e3d b4ca 743c e0d1 02bd 7756 52bc
00000050: 921f 1cbd 5479 0c3d b8f9 67bb cd5a a4bc
00000060: 9c3e 093d 8d0e 3b3c d59d 70bc dbd7 cbbc
00000070: 84a9 4bbc 77c9 2d3d d620 e3ba bf3f 00bc
00000080: a406 8abc 6912 ae3c 7353 a53c 3ce6 df3c
00000090: f000 d53c 5484 09bd 86cf 72bc ba65 e33c
000000a0: 754b 1ebd 0d48 9d3c 14a1 993c b86f 16bc
000000b0: b8d2 f83c 8b60 c43c 8814 8abc 03dd 023d
000000c0: 0470 ef3c 544b 233b da69 0b3d 2010 0bbc
000000d0: f23d 13bd bf6c 003d 220a b4bc 1eaa 9cbb
000000e0: 47a9 333d 1778 923c 52ba 9dbc c17a 0cbd
000000f0: 5fcd 263d 2725 df3c 162e 153c d5e9 e8bc
00000100: f2c1 6a3c 9c88 95bc 519e 2f3d 43b7 01bd
00000110: 13fd 1abd c923 9b3c 768a c3bb cf77 173b
00000120: 416d d4bc 1cf9 0a3d 954e b33b 7c82 6abc
00000130: d09e 08bd 8144 6eba 05ae 6cbc fc73 ccbc
00000140: 7f9e 3b3c f50a f4bc 5022 323d fa3d 31bd
00000150: cce8 f7bb 7c53 e83c 4bde 123d 47b4 9b3c
00000160: 258b eabc b66e c4bc be0b 2bbc 132a 5f3b
00000170: 47fd 253d 7f6f 1ebb 74d2 24ba d1a0 26ba
00000180: ac57 0a3d 3b94 fdbc 82fe 33bc 3771 963c
00000190: 5380 b03a 667a 8cbc 7ad6 833c 4c01 e63c
000001a0: 2eae 3e3c 85bb 4bbc e7cd efbc c1db f33b
000001b0: d75a cbbc 9147 293d 9a05 ac3a 34c5 9d3c
000001c0: 26f2 e43c f0e0 0abd 4943 d53a e46b 14bd
000001d0: c838 26bd 04af 34bd 2769 763c 5f3c b6bc
000001e0: f024 e33b 9d6f ad3c b21d c73c 5d58 003d
000001f0: 5f9d c63c 3497 29bd ca26 033c ccbd 1abd
00000200: 430f 07bd fae7 d6bc a4d2 43bc 745d 4d3b
00000210: fcee 243d 2b58 e63c 40bb e4bc cf4f 203d
00000220: f299 d33b 88eb 87bc de4c 133d f5d0 233d
00000230: 2cd4 cabb 74a7 55bc eb59 1cbd d75e 9ebc
00000240: b137 a13b 02e8 00bc 9a31 063d 46ec 763c
00000250: aeb1 743c 92fe 1a3d f0c1 323d edf0 89bc
00000260: 151a fe3c 22cd 0c3d eada 8fbb e06f 22bd
00000270: 3572 81bc f206 183d 33b5 ef3c f313 923c
00000280: fac9 d53b 7c2e 23bd 7fe2 c33c 14b2 33bd
00000290: 29c7 503c 880c f33b 17ec a03c 3457 ebbc
000002a0: e1c9 593c 3401 023d c21c f9bc d4a1 d6bc
000002b0: 2d00 27bd 1159 cdbc db9a 003d 0df3 8c3c
000002c0: 74cd 1d3d d0e5 063d 3c01 203d 609e 183c
000002d0: 6f82 cfbc 8c84 e33a 9d95 eb3b 69ab 8c3c
000002e0: 2b2f a53b 3c4a 1bbd 82ee b03c 8c5e cb3b
000002f0: 189e 91bb f1f1 a03c 94b6 18bd 3a9e acbc
00000300: 6442 1e3a 859d c63b 2e6f 9f3c c6e8 02bd
00000310: c5a0 52bc ee97 1d3d ddec f6bc d5c0 3d3c
00000320: d610 14bc 69bf 20bd 030e a7bc 9b6a c23b
00000330: 2329 203d 1dd9 483c ff27 ff3c 371e 363c
00000340: 1bb2 fe3c ae42 50bc 89e2 dd3b c15d 073d
00000350: 5893 453c 6d20 d3bc 6793 e0bb 5e92 bbbc
00000360: 6ce5 38bb 75dc b83c 2fa7 023d b132 67bc
00000370: d2c6 263d 2b7d 2bbd c6ce 0dbc 24bb c4bc
00000380: b7da 2b3d c998 2cbd 2741 75bc 02b1 a33c
00000390: dfb7 ec3c 2bb0 f23c a8bb 05bd d283 1abd
000003a0: c5e5 a4bc 37e8 e63c 9f45 c13c d8ad dcbb
000003b0: 5bf5 1d3d 2314 49bc 886a aabc 7021 ecbc
000003c0: ba71 bf3c c4fa 25bd 67eb 17bc 16c3 56bc
000003d0: 98de 073d 9480 293b e67a 32bd b81b b0bc
000003e0: c032 0a3d a995 073d 2bce 503c f61c 9fbc
000003f0: b46b bfbb 7c40 dabc 9d15 25bc f813 1a3d
-0.024547247 -0.020197814 0.007916647 -0.028677717 0.043556217 0.011648572 -0.030325523 0.030335788
-0.021594597 0.027051449 -0.003349215 0.030030165 -0.039130755 0.00069803896 -0.034529578 0.02862109
0.03871297 0.014940906 -0.031938434 -0.012837998 -0.038116045 0.034295395 -0.0035396647 -0.020062828
0.033506975 0.011417043 -0.014686068 -0.024883201 -0.012430552 0.04242846 -0.0017328511 -0.007827698
-0.01684887 0.021249013 0.020181393 0.027331464 0.026001424 -0.033573464 -0.014819985 0.027758468
-0.03864618 0.019199396 0.018753566 -0.009181909 0.030373916 0.023971817 -0.016855493 0.031949054
0.029228218 0.0024916725 0.034036495 -0.008487731 -0.035947748 0.03135371 -0.021977488 -0.0047810217
0.043862607 0.017879529 -0.019253884 -0.034296755 0.0407232 0.027239395 0.009105226 -0.028431812
0.014328467 -0.018253617 0.04287559 -0.031668913 -0.037839007 0.018937962 -0.0059674336 0.0023112183
-0.025931003 0.033928975 0.005472014 -0.014313336 -0.03335458 -0.00090891874 -0.014445786 -0.02495765
0.011451363 -0.029790381 0.043489754 -0.043271996 -0.0075655933 0.028360121 0.035856526 0.019006861
-0.028630802 -0.023978572 -0.010439811 0.0034052178 0.040524747 -0.0024175344 -0.00062874635 -0.0006356361
0.033775017 -0.03095447 -0.010985972 0.018364532 0.0013465978 -0.017148208 0.016093481 0.02807679
0.011638207 -0.012434845 -0.029272987 0.007441968 -0.02482359 0.041328017 0.0013124228 0.019259073
0.027947497 -0.033905923 0.0016270663 -0.036235705 -0.040581495 -0.04411222 0.015039719 -0.022245584
0.0069318935 0.021171385 0.024306152 0.03133427 0.024244962 -0.041403964 0.0080048535 -0.03777866
-0.03297354 -0.026233662 -0.011952076 0.003133622 0.040266976 0.028118214 -0.027921319 0.03913861
0.0064575607 -0.016591802 0.03596198 0.0399942 -0.0061898436 -0.013040412 -0.03817169 -0.019332333
0.004919969 -0.007867815 0.032762147 0.01507098 0.01493494 0.037840433 0.043641984 -0.016838515
0.031018296 0.034375317 -0.0043901103 -0.039657474 -0.015801528 0.037116 0.029261207 0.017831778
0.0065243216 -0.039839253 0.023911713 -0.043871 0.012742796 0.0074172653 0.019643826 -0.028728105
0.013292761 0.03173943 -0.03040922 -0.026200213 -0.040771652 -0.025066884 0.03139768 0.01720574
0.038526013 0.03293401 0.039063677 0.009315103 -0.02533075 0.0017358228 0.007189466 0.017171578
0.0050410233 -0.037912592 0.021598104 0.006206339 -0.004443895 0.019646617 -0.037283495 -0.021071542
0.00060371147 0.0060612583 0.019462194 -0.03196027 -0.012855713 0.03847497 -0.030142242 0.011581619
-0.009037217 -0.039245043 -0.020392423 0.0059331185 0.03910173 0.012258795 0.031147001 0.011115602
0.031090787 -0.01271121 0.00677139 0.033048395 0.012059055 -0.025772298 -0.006853509 -0.022896942
-0.0028212918 0.02256606 0.03189772 -0.014111207 0.040716954 -0.041867416 -0.008655256 -0.024015017
0.04195663 -0.042137895 -0.014969147 0.019981865 0.02889627 0.029625019 -0.032649666 -0.03772337
-0.020129094 0.0281869 0.023592768 -0.006734591 0.038564067 -0.012272867 -0.020802751 -0.028824538
0.023369659 -0.04052235 -0.009272433 -0.013108036 0.033171266 0.0025863992 -0.043574236 -0.021497592
0.033739805 0.03310171 0.012744467 -0.01942299 -0.0058416966 -0.026642077 -0.010075954 0.0376167
