results/scratch/12owob2t/sae_252/model.pth (torch, 525343 bytes, 2 tensors)

encoder.0.weight f4 [512, 128]
000000 ff f7 b4 bd 65 af 48 3d 2b db ea 3b b1 19 67 3d
       -0.08836364 0.048995394 0.00716724 0.056420986
000010 fc 43 e5 3a 36 67 a9 bd 41 6d 0a bd 90 33 2f bd
       0.0017491574 -0.08271639 -0.0337956 -0.042773783
000020 3f cd 81 3d 30 25 35 bd 31 ee 8d 3d 1c 2a ae bc
       0.06337976 -0.044224918 0.06930197 -0.021260314
000030 e9 d2 a0 bd 5e 34 09 3d 58 e7 44 3c b2 3f 8e 3d
       -0.07852728 0.033497207 0.012018047 0.06945743
000040 cd c0 eb bc 5e 39 0c bd c6 69 a9 3d 35 36 52 bd
       -0.028778458 -0.034234397 0.08272128 -0.051321227
000050 80 da 7e bd 5c d5 76 3c 1a d5 8a 3d 20 ba 63 bc
       -0.062220097 0.015065517 0.06778927 -0.013899356
000060 02 01 84 bd 31 10 45 bd 74 c5 b4 bd c4 24 d3 bc
       -0.06445505 -0.048111144 -0.08826724 -0.025774367
000070 9c 7f 55 bd e8 da ac bd e9 91 9a 3d 83 e7 aa 3d
       -0.05212365 -0.084401906 0.075473614 0.083449386
000080 44 64 2a bd 96 51 8c bd 91 36 07 bd e2 00 f0 bc
       -0.041599527 -0.06851499 -0.033011023 -0.029297296
000090 c0 bd b9 3a ed f0 e3 3b 71 2e c7 3c fc f8 3a 3c
       0.001417093 0.006956211 0.024314137 0.011411902
0000a0 bd 22 3f bd b5 09 c9 bc 10 65 d4 3b a3 37 53 3d
       -0.04666399 -0.024540761 0.006481774 0.05156673
0000b0 64 6b 8a 3d d3 13 e7 3c 5d 66 7f bd 8e cd 40 bc
       0.067587644 0.028207695 -0.06235348 -0.011767758
0000c0 17 82 8f bd 6c 38 51 bd 85 aa aa 3d 04 01 a5 bd
       -0.070072345 -0.0510792 0.08333305 -0.08056834
0000d0 8e e3 70 3d 7a be f4 bc 37 c2 5c bd 2d 1b 90 3b
       0.058810763 -0.029875983 -0.053896155 0.004397771
0000e0 22 85 be bb e6 23 d8 bb 0a 81 69 3d 8a 02 3e bc
       -0.0058142105 -0.0065960763 0.057007827 -0.011597285
0000f0 38 ce 1a 3d 90 71 8b 3d fc 0e 93 bb 8c ec 7d 3d
       0.03779432 0.0680877 -0.0044878703 0.061993167
000100 87 22 80 3d 2a 0e 31 bd bd 7b 6f bd d6 fb 10 bd
       0.062565856 -0.0432264 -0.058467615 -0.03539642
000110 31 2f e9 bc 9e be 09 bd e8 b1 17 3c 45 3a 63 3c
       -0.028464885 -0.033629052 0.009258725 0.013868873
000120 73 ca 64 3d 48 8d 4b bd 92 98 3b bc 09 00 fe 3b
       0.055857133 -0.049695283 -0.01144995 0.007751469
000130 2d d7 47 bb e4 fc 11 3c 3a 87 52 3d 57 6f 2a 3d
       -0.0030493245 0.0089103915 0.051398493 0.04161009
000140 97 bd 9a 3d ab 09 67 3d 49 af 24 bd ed 1a 5f 3d
       0.07555693 0.056405704 -0.040206227 0.054469038
000150 55 10 5a 3d 2a 7d aa bd 64 93 9f 3c 96 7e d4 bc
       0.05323823 -0.083246544 0.019479461 -0.025939267
000160 55 a7 50 3d c3 fd 03 bc bb 53 60 3d f7 7b 72 3d
       0.05094083 -0.008056107 0.05476735 0.059200253
000170 d0 1c ec 3c 6d ef 08 3d e1 a3 97 3d 8c 9f 77 3c
       0.028822333 0.03343146 0.07404304 0.0151137225
000180 07 39 60 3c 1d 40 5b bd 9a f5 5e bd 1f 97 ca bc
       0.013685471 -0.05352794 -0.054433443 -0.024730263
000190 53 f8 29 3d b6 75 93 3c bf b7 e6 3b ba 10 8b bc
       0.041496586 0.018000465 0.007040947 -0.01697575
0001a0 3c 7b 18 3d 2c 08 2d 3d 51 1e 74 3d f9 ef 40 3d
       0.0372269 0.04224412 0.059599224 0.047103856
0001b0 30 c3 a3 bc fb 75 86 bd 4b 43 12 bc 8c eb b0 3d
       -0.019990534 -0.06565472 -0.008927177 0.08638677
0001c0 1d 37 98 bd d4 eb ab 3c ab b1 a8 bd 11 4b 1d bd
       -0.07432387 0.020986475 -0.082370125 -0.038401667
0001d0 57 cf 58 3d c4 a3 4b 3d ab 0b 8e 3d 95 aa fa 3c
       0.05293211 0.049716726 0.06935819 0.030598918
0001e0 0a 83 e7 bc cb be 18 3d 37 61 8d bd 52 01 79 3b
       -0.028260726 0.03729133 -0.06903308 0.0037995172
0001f0 66 26 8d 3d 92 63 00 bd ab 88 33 bd 1a a3 b0 3c
       0.068920895 -0.031344958 -0.04383151 0.021562148
000200 9e 92 71 3d a9 a0 c3 3c 02 96 13 bd d7 e6 08 3d
       0.058977716 0.02388032 -0.03603173 0.03342327
000210 8f 5c 1d 3d 3a 14 31 3d ad 87 8a bd 6e 29 29 bd
       0.03841835 0.04323218 -0.06764159 -0.041299276
000220 64 db c8 3b b8 c2 35 bd c3 a7 17 3d 37 55 b3 3c
       0.006129669 -0.04437515 0.037025224 0.02189122
000230 56 3e 13 bd 22 0a a8 3d 34 71 4e 3d cd 0c a0 3d
       -0.03594812 0.08205058 0.050400928 0.078149416
000240 34 8c 31 bd 01 c1 09 bb 3f 6d c2 bc 4c 43 89 bd
       -0.0433466 -0.002101958 -0.023733733 -0.06702289
000250 89 7c 53 3d 5c cd 92 3d da 12 b1 bd 00 d6 a3 bd
       0.051632438 0.071680754 -0.08646174 -0.07999802
000260 2c 2b 79 bd 30 67 90 3a ca 5d af bc 50 76 de bc
       -0.060832188 0.001101708 -0.021407027 -0.027156025
000270 80 ed fc bb 2f 81 a2 3d cb 0d 43 bd f5 bf 09 3d
       -0.007718742 0.07934796 -0.047620576 0.03363033
000280 8f 3e d6 3b 30 4f 7a bd 55 96 5a bd 7c ba 66 3d
       0.0065382193 -0.061110675 -0.053366024 0.05633019
000290 f4 34 af 3c 23 00 fc bc bb ef 86 3d 65 03 e9 3c
       0.021387555 -0.030761784 0.06588694 0.028444001
0002a0 ec a3 29 bd 11 dd 14 3d d6 02 9a 3d 03 cf 60 bd
       -0.041416094 0.036343638 0.07520072 -0.05488492
0002b0 0c 8a 66 bd 3d 6c a7 3d 25 8c a4 bd b5 83 8b 3d
       -0.056283996 0.08174942 -0.08034543 0.068122305
0002c0 f0 a1 11 3d 22 c1 5a bc 51 61 3f bd b5 9d 4e 3a
       0.035554826 -0.0133517105 -0.046723668 0.00078817765
0002d0 f9 e4 1b bd c0 2d ff bc da 01 cb bc e4 eb b0 bc
       -0.038060162 -0.031149745 -0.024781156 -0.021596856
0002e0 b3 5f e4 bc d8 a2 6c bd 8c ee 07 3d 7a 02 37 3d
       -0.027877664 -0.057772487 0.03318648 0.044680096
0002f0 ae 94 92 3d 30 b0 77 bd 2f cb 24 bc 40 76 2f 39
       0.07157265 -0.06047076 -0.010058208 0.00016733352
000300 1f 2b c8 3c 3b c8 8c 3d 69 c4 76 bd 61 77 39 3d
       0.024434624 0.068741284 -0.060245905 0.045279864
000310 08 0f 8a bc 18 7f 85 bd 66 11 97 3d 4a f6 53 bd
       -0.01685287 -0.06518382 0.07376365 -0.05174855
000320 ab 25 dc bc 51 81 5c bd bd e5 14 bc 69 49 aa 3d
       -0.02687343 -0.053834263 -0.009087977 0.08314783
000330 8b ce 9b 3d 49 fc e3 3c 77 ca cc bc a2 a3 56 3d
       0.07607754 0.02783026 -0.024998887 0.052402146
000340 2c a6 2e 3d 76 a5 be 3c 53 11 f0 bc 4f cd c9 3b
       0.042638943 0.023272257 -0.029305136 0.006158508
000350 00 f4 8a bc d0 ea 8a 3d d4 44 3c 3d 07 7c 6a bd
       -0.016962051 0.06783068 0.045964077 -0.057247188
000360 9f 0f 8f bd 05 7a 74 bb 6c 0a 65 3d 1a 91 d4 bc
       -0.06985401 -0.0037304175 0.055918142 -0.025948096
000370 7a 5b 12 bd 56 c6 8a bd a7 7a 43 ba dc 9e 34 bc
       -0.03573177 -0.06776111 -0.00074569363 -0.011024203
000380 af b9 c1 3c 48 f5 b4 bc 81 c5 67 bb 11 2b 8e 3d
       0.023648111 -0.022089615 -0.0035365524 0.06941808
000390 dc e3 49 bd 52 84 9f bd 7e 6d 72 3d 07 e0 29 3d
       -0.04928957 -0.0778891 0.05918645 0.041473415
0003a0 96 29 af 3d 2e 1f 5b 3d 8e 33 43 bd 03 63 8c 3d
       0.08552854 0.053496532 -0.04765659 0.068548225
0003b0 45 b0 90 bd c7 85 7c bd a5 5d 3a bd bf 6b 8a bd
       -0.07064871 -0.061651018 -0.045499463 -0.06758832
0003c0 98 c5 2e bd 9a ab 84 3d 78 34 44 3d 91 e6 a1 bd
       -0.04266891 0.06478043 0.0479016 -0.07905305
0003d0 b2 3b a2 bd cc b5 f3 bc a2 cd 42 3d 30 00 a2 bd
       -0.07921542 -0.029749773 0.047559388 -0.07910192
0003e0 b1 9d 38 3d c2 cc 1f 3d 4a d4 9c 3d da 5b 60 bc
       0.04507226 0.03901363 0.076576784 -0.013693774
0003f0 46 3a 94 bd 9b 5a 91 bd 1f 3f 91 bd 20 ac 80 bc
       -0.07237677 -0.0709736 -0.070921175 -0.015707076

decoder.weight f4 [128, 512]
000000 de bb a9 bc b3 22 7f 3c bf e5 e7 bc 14 21 11 3d
       -0.020719465 0.015572238 -0.028307794 0.035431936
000010 c9 94 17 bd b0 a9 2b bd 92 cb d9 3b f3 89 d3 bc
       -0.037007127 -0.041909873 0.006646582 -0.025822615
000020 43 32 f6 3c d3 ab 5e bc 83 f7 15 bd d4 0a 33 3d
       0.030053264 -0.013590771 -0.036613 0.0437115
000030 63 13 ab 3c c9 39 a8 3c 44 bd 86 3c 7b a2 15 3d
       0.020883268 0.020535367 0.01644767 0.036531907
000040 f3 ad 8d 3c 31 9b 82 bc bd 3e c9 3b 43 f6 03 bd
       0.01729486 -0.015943142 0.006141512 -0.032217275
000050 e2 99 23 3d 68 0b 09 3d c3 df 10 3d a3 54 0b 3d
       0.039941676 0.033458143 0.035369646 0.034016263
000060 65 06 f8 ba 2e d9 34 bb fd f1 01 3d a7 e5 e5 3c
       -0.0018922804 -0.002759527 0.03172492 0.028063608
000070 fc 44 d9 bc 90 d8 c3 3a a2 d9 c7 3b d0 d3 61 3c
       -0.026522152 0.001494186 0.006098942 0.01378341
000080 7e 4c e9 bc 8c db df bc 9b 81 29 bd c0 19 33 3d
       -0.028478857 -0.027326368 -0.041383367 0.04372573
000090 a6 db 52 bb 51 04 16 3d cf 90 03 3d c4 59 b8 3c
       -0.0032174378 0.03662521 0.032120522 0.022503741
0000a0 b6 e6 d4 bc 47 1a 18 3d c5 0f 08 bc 11 ce 20 3d
       -0.025988918 0.037134435 -0.008304541 0.03925902
0000b0 f7 a6 30 bd 9c aa 94 ba 43 09 1d bd a9 05 ed bc
       -0.04312798 -0.001134235 -0.03833891 -0.028933363
0000c0 bd 53 22 3d 73 79 15 bd f2 8c 1f 3d 77 45 15 b9
       0.03963064 -0.036492776 0.038952775 -0.00014235625
0000d0 04 39 14 3d 3e 31 48 bc d8 30 7b 3c fa 1b 01 3d
       0.036187187 -0.0122187715 0.0153314695 0.03152082
0000e0 29 ab b8 3c 7f a1 be bc ac bd 89 3c 3a 2a 72 3c
       0.022542553 -0.023270367 0.016814075 0.014780575
0000f0 c6 75 68 bc 7f 61 97 3c ab 7e 51 bc 70 e1 86 b8
       -0.014188236 0.018479107 -0.012786548 -6.431609e-05
000100 9d 94 37 bb 2a 04 97 bc 06 b2 0e 3d 1f ef 59 bb
       -0.0028012164 -0.018434603 0.034837745 -0.00332541
000110 5d 08 b3 3b 64 cf a6 bc 92 fb a1 ba f1 5a 2b 3d
       0.0054636435 -0.020362563 -0.0012358299 0.041834775
000120 9c 8d 89 bb 13 59 0d bd 69 5d de bb de eb ae 3c
       -0.0041977894 -0.034508776 -0.0067860377 0.021352705
000130 72 d7 2f 3d 32 ae 3b bc d1 59 35 3b 7c 73 08 bd
       0.042930074 -0.011455106 0.0027671943 -0.03331326
000140 44 21 01 bd 1c 2b db bc 43 d3 a7 bc e6 71 9e 3c
       -0.031525865 -0.026753955 -0.02048648 0.01934142
000150 bb b9 54 3c 33 ad a1 bc 0e 87 94 3c b6 b4 0b bd
       0.012983735 -0.019735908 0.018130805 -0.034107886
000160 2d cb 1a 3c 1f 80 91 bc 67 fb 1b 3c c7 6c 30 3d
       0.009447855 -0.017761288 0.009520388 0.04307249
000170 30 f8 80 bb 13 23 66 3b 0c 68 82 3c d9 e7 cf bc
       -0.0039358363 0.003511612 0.015918754 -0.025379108
000180 00 fa 7e 3c 8b 80 83 ba 07 ac 02 3c 6f fc cb 3c
       0.015562534 -0.0010032816 0.007975585 0.024900643
000190 dd 7b 1e 3c ef 1c 32 bd d4 a5 d2 bc 03 1b 20 3d
       0.009673086 -0.043484624 -0.025713839 0.03908826
0001a0 a9 73 ac 3b f5 e2 2e 3d 2c a9 41 bc 10 fa 0e 3d
       0.005262811 0.04269691 -0.011820119 0.034906447
0001b0 c9 3c 7d 3b ab 99 77 bc 51 90 02 3b af 41 b3 bc
       0.0038640967 -0.015112321 0.0019922445 -0.021881906
0001c0 37 a3 22 3d b2 1e 31 3d d4 eb 07 bc 8c 5c a2 bc
       0.039706435 0.043242164 -0.008295972 -0.01981952
0001d0 e2 96 e8 3c 3e fc cd 3c 54 f9 bf 3c 4d 22 1e bd
       0.028392259 0.025144693 0.023434319 -0.03860693
0001e0 94 4f e7 bc f7 a3 05 bd 94 8f 11 3c 05 fb 3e bc
       -0.028236188 -0.032627072 0.008884329 -0.011656527
0001f0 38 96 8a bc 7e 06 13 3d dc 91 19 bd c5 55 08 bd
       -0.016917333 0.035894863 -0.037492618 -0.03328492
000200 89 e8 14 3d 12 33 6a 3c 9b ed e0 bb 55 1b 2c bd
       0.036354575 0.014294403 -0.0068642623 -0.042018253
000210 36 41 e4 bc c5 cb 05 bd 4d 2c fb bc 75 12 e5 3b
       -0.027863126 -0.032665033 -0.030660773 0.0069907256
000220 fc 39 93 bb ac 86 05 bd b2 0d 29 bd 72 1b e7 ba
       -0.0044929963 -0.032599136 -0.041272826 -0.0017632081
000230 4d 5e e9 bb 7c 64 00 3c b3 a2 be 3c 96 22 1a 3d
       -0.007121837 0.007836457 0.02327094 0.03763064
000240 b3 f0 f5 bc 96 ed 46 3c 79 b6 a9 3c 9a 13 d4 3c
       -0.030022 0.012141606 0.020716893 0.025888253
000250 13 47 04 bd 39 ce 2e 3d 80 25 ae 3c 17 f7 39 bc
       -0.032294344 0.042677138 0.021258116 -0.011350415
000260 8e 40 f2 bc 9b 59 6b bc 90 26 7c bc c5 23 e6 3c
       -0.029571798 -0.014364625 -0.015390053 0.028093228
000270 81 4f bb bb 95 e0 8d 3c a2 89 1b bd 2f 11 95 bc
       -0.0057162647 0.017319003 -0.037973054 -0.01819667
000280 a6 81 28 bd d2 3e 0d bd 67 dd bd 3c 34 7a 0b 3d
       -0.041139267 -0.03448374 0.023176862 0.03405209
000290 8e fb c2 3b 1d 84 c1 bc 7a 00 f2 3c d6 b0 08 bc
       0.005950398 -0.023622567 0.029541243 -0.008342942
0002a0 3c f8 47 3c 4d fb 65 3b f0 c3 0a bc 0e 38 22 3c
       0.01220518 0.0035092414 -0.008469567 0.00990106
0002b0 05 6d 8c bc dc 10 46 3c fa cc 05 3d e5 98 24 bd
       -0.017141828 0.0120889805 0.032666184 -0.040184874
0002c0 d7 b9 13 3d 3d 50 09 3d 6e 94 d6 3c 5d 39 02 3c
       0.036065903 0.033523787 0.026193824 0.007948247
0002d0 37 ea 2f bb d3 ab 79 3c 35 47 84 bc 50 da 87 3c
       -0.0026842484 0.01523872 -0.016147235 0.016583592
0002e0 d0 58 f2 3c 19 cb 33 bd 58 2e 0a 3d 4c 31 ab bc
       0.029583365 -0.04389486 0.033735603 -0.02089753
0002f0 22 41 f3 3c 07 7f 17 bd 31 1c 34 3d 7e b9 07 3d
       0.029694144 -0.036986377 0.043972198 0.033135884
000300 a9 30 91 bc f0 05 9f 3c 85 4c ab 3c 7c 6b 90 bc
       -0.017723398 0.01941201 0.02091051 -0.017629378
000310 05 03 11 bd 77 19 d1 3c 87 e1 34 bc 0a 05 23 ba
       -0.03540327 0.025524838 -0.011040098 -0.00062187074
000320 0b 70 32 bd 53 be c5 3c f2 be 1b 3d 1c 68 18 3d
       -0.043563884 0.024138605 0.038023897 0.03720866
000330 2f 77 fb 3c 2b 1a 1e bd 6b b5 fa bb d6 a7 86 bc
       0.03069648 -0.038599174 -0.0076510212 -0.016437452
000340 2b 4e 89 bc c2 2a 1c bc 48 02 0e 3c 73 4b 0b 3d
       -0.016760906 -0.009531679 0.008667536 0.0340075
000350 b7 bb b1 3b 4c b0 11 bd 9a d8 0d 3d 29 cf db bc
       0.0054239887 -0.03556852 0.034630395 -0.02683218
000360 cb 70 21 3d f6 63 73 3b ac 49 f4 bc ba f1 5e 3c
       0.03941421 0.0037138439 -0.029820286 0.013607437
000370 02 df 1b bb 76 f4 25 3d 15 c7 0f 3d c6 99 b5 3c
       -0.0023784046 0.04051634 0.03510197 0.022168051
000380 8e 7e 5e 3c d1 b1 1d bd 57 7d 11 bd 7f 89 0b bd
       0.013579978 -0.038499657 -0.035519924 -0.034066673
000390 03 91 33 b9 73 e0 15 bd c9 12 e5 3c 65 e4 21 3c
       -0.00017124791 -0.036591005 0.027963059 0.009881114
0003a0 91 a8 05 bd 34 71 8b 3c bf 33 0d 3d 7f 97 ea 3c
       -0.03263146 0.017021753 0.034473177 0.028636692
0003b0 1a 34 02 bd 5c f9 ed bb db 6c a3 bb c7 82 28 3d
       -0.03178797 -0.007262392 -0.004987342 0.041140344
0003c0 09 22 de 3c 2b 11 07 ba 59 31 c2 3c 45 a9 b8 3a
       0.027115839 -0.00051523995 0.023705171 0.0014088532
0003d0 cd a2 49 bc ad 57 b2 bb 53 1c e4 3c b1 db 29 3d
       -0.012306881 -0.0054425807 0.027845537 0.04146928
0003e0 79 b0 14 bd 03 06 e7 bb 08 35 d5 bc 06 5e b1 3c
       -0.03630111 -0.007050277 -0.026026264 0.02165128
0003f0 db 5d f1 bc fe 7c 9c bc 79 c0 2e 3d 04 16 01 3d
       -0.0294637 -0.01910257 0.042664025 0.031515136
