results/scratch/12owob2t/sae_115/model.pth (torch, 525343 bytes, 2 tensors)

encoder.0.weight f4 [512, 128]
000000 d9 4f 5e bd 97 b8 80 3d 72 7b 6b 3d 3c 1e 4f 3d
       -0.054275367 0.06285208 0.057490773 0.050565943
000010 3a 88 b2 3d c4 96 17 3d 04 af 75 bd 77 e9 ad bd
       0.087173894 0.037009016 -0.05998136 -0.084917955
000020 1c c6 ec 3c f8 77 88 bd 2f bc 65 bd d4 46 f9 ba
       0.02890306 -0.06663507 -0.05608767 -0.0019018301
000030 f0 b5 3d bc 4e 3f b4 3d f2 6c 1f 3d c0 7d 81 3c
       -0.011579022 0.08801137 0.038922258 0.015807033
000040 b0 ff 3a 3d b3 ec 42 3d b6 c3 a1 bc 4f cb a0 bd
       0.045654 0.047589015 -0.019746643 -0.07851278
000050 78 74 82 3d 53 60 89 3d 8a 58 44 3d 8d 9c 96 3d
       0.06369871 0.067078255 0.047936 0.073540784
000060 bb a5 15 bd 18 4a 59 bc 28 78 af bd 3b 61 4a bd
       -0.036535006 -0.013262294 -0.0856784 -0.049409132
000070 2f ab 2d 3d ab 92 98 bc 09 55 8a 3d 98 50 47 3d
       0.04239958 -0.018624624 0.067545004 0.048660845
000080 61 be 9f bd a5 2b 93 3d 1a 43 7c bd 35 1b 4d 3d
       -0.07799984 0.07186059 -0.06158743 0.050074775
000090 94 da 84 bb d4 38 4a 3d d5 86 7b 3d e1 06 da ba
       -0.004054377 0.0493706 0.061407883 -0.001663413
0000a0 11 f9 9c 3d c0 52 3b 3d b2 02 08 bd 23 8f 19 3d
       0.07664693 0.045733213 -0.033205695 0.03749002
0000b0 78 b6 97 3d 9a d9 3c bd f7 75 ae 3d 8e 19 8c 3d
       0.0740785 -0.04610596 0.08518594 0.06840812
0000c0 68 c1 6b 3c df a0 a7 3b b9 45 3d 3d 87 f5 a0 3b
       0.014389373 0.005115613 0.04620907 0.0049120816
0000d0 53 06 33 bc 60 c0 ad bc f3 73 87 3c e0 cf a0 bd
       -0.010926801 -0.021209896 0.016534781 -0.07852149
0000e0 7b ba 68 ba ac 7a 6d bd 56 8f a4 3d 03 d8 4f bd
       -0.00088778854 -0.057978317 0.08035152 -0.050743114
0000f0 8e 51 af bd f2 ea a2 bc cb d0 f3 bc 6a 68 8e 3b
       -0.08560477 -0.019887421 -0.029762646 0.004345943
000100 21 49 82 3d dc f6 77 3d 0e da c1 bc 52 3b 8c 3d
       0.063616045 0.060538158 -0.023663547 0.06847252
000110 e7 d3 6c bd 19 b9 80 bd 95 11 5a bd 5b b7 ed bb
       -0.057819273 -0.062853046 -0.053239424 -0.0072545237
000120 b7 ab a1 bb 8b 38 a6 bd 73 0c 74 3d 4c 7c 5b 3d
       -0.0049338 -0.081162535 0.059582185 0.053585336
000130 f0 14 13 bb 19 a5 99 bd ac 9f 94 3c 60 25 24 3b
       -0.00224429 -0.07502193 0.018142544 0.0025046691
000140 96 58 10 bd 02 86 af 3d 8e 62 dc 3c 0b fa 6a 3d
       -0.035240732 0.08570482 0.026902463 0.057367366
000150 f4 75 8f 3d db 5f 15 3d c7 cb 78 3d 03 0a 47 3d
       0.0700492 0.036468368 0.060741212 0.048593532
000160 ea f0 62 bd 7c 65 fa ba 3b fe c6 3c 93 22 8c 3c
       -0.055405535 -0.0019103731 0.024291148 0.01710633
000170 a7 80 89 3d 44 1c 08 bd 80 5a 8a bb 0c cb 83 3d
       0.067139916 -0.03323008 -0.004222214 0.064352125
000180 75 40 37 bd e2 10 20 3d 0d 27 98 bc 47 64 7c 3d
       -0.044739205 0.0390786 -0.018573308 0.06161907
000190 19 6f 4f 3d a0 14 a0 bd cb 1f 0e 3d 9d 80 5f 3a
       0.05064306 -0.07816434 0.03469829 0.000852594
0001a0 3b 8f 65 bd 29 30 75 bb fd 29 ac 3c 20 ba 12 3d
       -0.0560448 -0.003741274 0.021016115 0.035822034
0001b0 33 9c 66 bd ed 7e 94 3c 4c 98 95 bd 95 2d a5 bc
       -0.056301307 0.01812693 -0.07304439 -0.020163337
0001c0 3c e8 8c 3d 35 5f 8e bc 6f 10 29 bd ac 99 71 3d
       0.06880233 -0.017379383 -0.041275438 0.058984444
0001d0 f7 28 15 bd fe a7 47 3c 9f 8a a6 3d ef 0a 19 bd
       -0.03641602 0.012186049 0.081319086 -0.037363943
0001e0 55 aa af 3d 60 e0 1d bd c1 e8 a8 3d 75 66 91 3d
       0.0857741 -0.03854406 0.08247519 0.0709962
0001f0 cd d3 a5 bd cb 97 28 bd aa 1a 9e 3d eb 69 38 bd
       -0.080970384 -0.041160386 0.077199295 -0.045022886
000200 18 5e 71 bd 3e ad ad 3d b3 dd b7 3c 4f c8 19 3d
       -0.058927625 0.08480309 0.022444582 0.037544545
000210 7f 53 8d 3d 34 a0 5d 3d 9a 26 c8 3c 24 06 87 bc
       0.06900691 0.05410786 0.02443247 -0.01648242
000220 3b b1 9c bd ce 4f 3d bd 05 b8 af bd 69 22 a2 3c
       -0.076509915 -0.046218686 -0.08580021 0.019791799
000230 59 5a a1 bd a4 6b 8d 3d 70 ef 63 bd f7 e4 0e bd
       -0.078785606 0.069052964 -0.055648267 -0.034886327
000240 24 a1 60 bd 12 3d 39 bd 6d 6d 8b bd 26 d8 56 3d
       -0.054841176 -0.045224257 -0.06807981 0.05245223
000250 94 62 89 bd dd 4a 70 3d 04 d4 49 3b 46 2d c3 3c
       -0.067082554 0.058665145 0.0030796537 0.023825299
000260 a4 fb 43 bc 2d cb a3 3c af b1 81 3d d8 43 df bc
       -0.011961851 0.019994343 0.063327186 -0.02725403
000270 43 1b a5 bd 26 00 0d bd 00 cd 10 3d 8c 91 19 3d
       -0.080618404 -0.03442397 0.035351753 0.03749232
000280 f0 65 7a bc c3 e9 23 3d a8 77 b1 bd 71 cd 95 3d
       -0.015283093 0.040017854 -0.08665401 0.073145755
000290 69 1f 40 3d a4 c7 bf 3c 23 f9 8c 3d 9b cd 1d 3c
       0.046904955 0.023410626 0.068834566 0.00963154
0002a0 52 1c 2f 3c 09 36 a2 bc 98 53 6f 3d cb f9 20 3d
       0.010687904 -0.019801157 0.05842933 0.03930072
0002b0 5c 64 65 3d a7 41 0d bd bc 4c 64 3d c0 99 18 3d
       0.056003913 -0.03448644 0.055737242 0.037256002
0002c0 1b 9a 8b bd 85 47 4e 3d 43 78 1b 3d 5d 32 88 bc
       -0.06816503 0.050361175 0.037956487 -0.016625578
0002d0 62 8b db 3c a9 fa ac bd 94 92 ab 3d 51 84 86 bd
       0.026799861 -0.08446247 0.08377567 -0.06568206
0002e0 78 0d c0 bc 65 e5 b3 bd ed 36 54 bd 0e 09 83 3d
       -0.023443922 -0.08783988 -0.051810194 0.063982114
0002f0 9c 3c 79 3d de b7 c7 3c 91 7d 6b 3d a7 78 ab 3d
       0.060848817 0.024379667 0.057492796 0.08372622
000300 2f d8 f5 bc 51 21 13 3c eb 6e 14 bd 56 a5 bd bc
       -0.030010311 0.008980111 -0.036238592 -0.023150127
000310 50 ff 84 3d e8 84 8a bc 88 0c b1 bd 2d 17 8e 3d
       0.064940095 -0.016909078 -0.08644968 0.06938014
000320 a8 a1 e6 3b b1 75 8e bd 4d 3a 18 bd 01 66 51 bd
       0.007038314 -0.069560416 -0.037164975 -0.05112267
000330 be c1 89 3d e2 7b f2 3c e8 0a e3 3c fa fa 44 3d
       0.067264065 0.029600088 0.027715161 0.048090912
000340 c3 d5 de 3c 29 80 49 3a a6 07 a5 bd 36 32 73 3d
       0.027201539 0.0007686639 -0.080580994 0.059374057
000350 af ba ca 3b 70 c4 24 3d 93 0b 2c 3d 86 04 7f bb
       0.006186805 0.0402264 0.042003226 -0.0038912608
000360 80 56 4c 3b 2b 03 11 bd d6 fa b2 3d 58 1d 5a 3d
       0.0031179488 -0.03540341 0.087392494 0.05325064
000370 e8 d3 91 bd f7 99 88 bc 28 59 5a bd 1e 7e ad bb
       -0.07120496 -0.016674979 -0.053307682 -0.0052945754
000380 3f b6 14 3d c9 22 1b bd 18 6a 76 bd a8 7b c7 3c
       0.036306616 -0.03787497 -0.060159773 0.024350956
000390 76 31 6c bd a9 06 84 bd 3f 4e 73 3d e3 5f 55 3d
       -0.057664357 -0.06446583 0.059400793 0.052093398
0003a0 70 2f 0d bd 38 91 91 bd 02 2b 8f 3c 18 5b 10 3d
       -0.034469068 -0.071077764 0.017476562 0.035243124
0003b0 28 74 74 bd 4a 19 6d bd 0e f5 74 bb 4a c1 65 bc
       -0.059681088 -0.057885446 -0.003737751 -0.0140231345
0003c0 b1 1c 84 3d 45 94 4d 3d 28 08 79 bd 03 c6 ff bb
       0.06450785 0.05019023 -0.060798794 -0.0078055873
0003d0 99 87 91 3c 1d 35 72 bd da 9e a6 3b 68 ac f7 ba
       0.017764853 -0.059132684 0.0050848546 -0.0018895986
0003e0 ef 99 82 bd cd ee 25 3d bc 91 74 3d 23 8f 70 3d
       -0.06377017 0.04051094 0.059709296 0.058730256
0003f0 c9 af 19 bd 38 b1 3a 3d 24 74 d4 3c 5f 08 35 bc
       -0.037521157 0.045579165 0.025934286 -0.011049359

decoder.weight f4 [128, 512]
000000 55 b5 41 bc 31 45 1f ba 49 4f b4 bc 4e ea 1f bd
       -0.011823018 -0.0006075679 -0.022010462 -0.03904181
000010 0c 80 85 bc 3e 5c 79 bc 9c 9c ba bc ee 8e 37 bb
       -0.01629641 -0.015219746 -0.022779755 -0.0028008777
000020 f4 88 0b bd 14 dc e5 3b ec a8 f4 3c 5a 42 0d 3d
       -0.034066156 0.0070147607 0.029865704 0.034487106
000030 7c 53 12 bd 7c ee 17 bc c3 cf a1 3c 85 80 61 ba
       -0.03572415 -0.009273168 0.019752389 -0.000860222
000040 b1 d8 f9 bc 74 1f a5 bc 0a e7 ae 3c 5e f8 b0 bc
       -0.030498834 -0.0201566 0.021350402 -0.021602806
000050 b9 3c 94 3c da 3e c4 3b 74 ce 1d 3d 67 29 45 bc
       0.018095361 0.005988938 0.038526967 -0.012033797
000060 de ad f0 bc 20 2a 00 bd a7 01 92 bc f1 2c 4e bc
       -0.029379781 -0.031290174 -0.017823054 -0.012583957
000070 c5 5e 11 bd 9b b4 19 bc d9 06 8c 3c e9 e8 03 bc
       -0.03549077 -0.009381439 0.017093109 -0.008051136
000080 36 83 d8 bc 27 c3 7b 3b 05 df c8 3c a5 c5 ba 3b
       -0.026429754 0.003841588 0.024520406 0.0056998306
000090 44 9e 78 3c 1e d7 60 bc 36 03 8c 3c 0b 40 29 3d
       0.015174452 -0.013723163 0.017091375 0.04132084
0000a0 82 71 0b bd 9b 4b e4 bc 9b e8 0b bd c9 8b db 3c
       -0.034043796 -0.027868083 -0.034157377 0.026800053
0000b0 0e f5 28 3d 67 14 ca bb 76 ee f3 3b 6e 4a 80 3c
       0.041249327 -0.006166983 0.0074441982 0.01566049
0000c0 5d 85 1b 3c 3b 9b d9 3b 16 13 aa bc 3f 0f 06 3c
       0.0094922455 0.0066408194 -0.020761054 0.008182346
0000d0 67 5a 69 3c b1 60 38 3b 47 bd a2 3c 36 6d 7e ba
       0.014242745 0.0028133804 0.019865645 -0.0009705605
0000e0 6a f5 19 3d 2f e5 c1 3b 01 ad 21 bd a2 78 d3 3c
       0.03758756 0.0059172134 -0.03947163 0.025814358
0000f0 4f db de 3c ab 79 ac bb 9b 14 bc 3c 89 9e 05 bd
       0.027204184 -0.0052635274 0.022959044 -0.032621894
000100 02 a9 ac 3c 6f 79 21 3c 45 38 08 bb 4d b2 c9 3c
       0.021076683 0.009855612 -0.0020785492 0.024621153
000110 13 79 d2 bc 57 2e dd 3c 4d 2f da bc 94 58 34 bd
       -0.025692498 0.026999636 -0.026633883 -0.044029787
000120 de 5c f0 bc 87 8d bf ba 99 83 02 3d 39 63 1d 3d
       -0.029341158 -0.0014614322 0.031863783 0.038424704
000130 4a c7 ea 3c b0 e0 81 3c 1d 35 e7 3c 3c 54 19 bc
       0.028659482 0.01585421 0.028223569 -0.009358462
000140 06 a8 2b 3d e1 95 2c bb 31 f1 d5 bc 19 69 a0 bb
       0.041908287 -0.0026334452 -0.026115986 -0.004895341
000150 a8 6d 97 3c 02 2b 8b 3c 29 65 08 3d eb 2d dd bc
       0.018484905 0.016988281 0.0332996 -0.026999434
000160 a4 3e 29 bd f5 d6 b1 3c a6 ce e2 3b 43 5e 0d bb
       -0.041319504 0.021708945 0.006921607 -0.0021571077
000170 32 c6 ec bb 47 e8 66 bc cc af a1 bc 07 63 d2 3c
       -0.007225775 -0.014093465 -0.019737147 0.025681986
000180 3e 79 29 bc 39 97 1f bd c6 0c 78 bc 46 3e d2 3b
       -0.010343848 -0.038962577 -0.015139764 0.006416115
000190 95 89 a7 3c 04 fe 17 3d e1 34 17 3d e8 66 04 3d
       0.020451346 0.037107483 0.036915664 0.0323247
0001a0 7f e4 46 ba f8 ec dc bc 52 ea 8a 3c 83 c7 b1 bc
       -0.0007587149 -0.026968464 0.016957436 -0.02170158
0001b0 fc 5d 55 b7 1d a3 5d 3c b0 93 17 bd b8 9a ee 3c
       -1.2717672e-05 0.013527659 -0.03700608 0.02912651
0001c0 2a 32 de bc 8e 58 8d bb f8 01 da bb 81 e2 25 3d
       -0.02712353 -0.004313535 -0.0066530667 0.040499214
0001d0 bf a6 97 3c 6b dc 00 3d 96 24 b7 bc 57 e1 ba bc
       0.018512128 0.031460207 -0.022356313 -0.022812529
0001e0 4d 1c 2b 3d 42 04 0b 3d 55 c1 a5 bb b0 3d b9 3c
       0.041775037 0.033939607 -0.0050584474 0.022612423
0001f0 87 24 ca 3c 23 88 df 3c e2 cc 33 bb 91 0d 92 3c
       0.02467562 0.027286595 -0.0027435352 0.017828735
000200 01 e3 78 bc 0b 17 d8 bc de da 8e bc ee fb 4a 3a
       -0.015190841 -0.026378175 -0.017438348 0.0007743229
000210 17 e6 bd 3c e1 7a 23 3d 66 2f 68 bc 76 8f 12 bd
       0.023181004 0.03991211 -0.014171457 -0.035781346
000220 36 a4 b2 bc 88 a4 33 3c 32 19 01 bd d1 12 ed bc
       -0.021806818 0.01096452 -0.03151817 -0.028939636
000230 48 9c ff 3c c3 e5 21 3d 40 36 15 bd d7 4a 3f bc
       0.03120245 0.03952576 -0.03642869 -0.011675558
000240 20 99 02 3c 34 8c 1a bd f1 0b 41 3c 12 42 e6 bc
       0.007971078 -0.037731364 0.011782632 -0.028107677
000250 10 d3 b3 bc 15 62 de 3c 31 c1 2b 3d 5d c5 42 3c
       -0.021951228 0.027146379 0.04193229 0.011887875
000260 4e fb 5c 3b 14 b3 b3 3c 37 de c0 bc 92 25 c7 3b
       0.0033719125 0.021935977 -0.02354346 0.006077477
000270 ea d6 7e 3c e8 0e ea 3b 5f 3b ae 3b 3f 64 42 3c
       0.015554169 0.0071428902 0.005317136 0.011864721
000280 cb 65 d8 bc c8 55 7c bc ce b4 d7 bc 75 3e da 3a
       -0.026415726 -0.015401311 -0.026331332 0.0016650694
000290 c2 22 7e 3c 3e 2b ae bc cd ad 0b 3d 2b c2 7a 3c
       0.015511217 -0.021260854 0.034101296 0.015305082
0002a0 df d5 86 3c 03 2b 3f 3c a8 5e 19 bc ed 01 e3 3c
       0.016459404 0.01166797 -0.009360947 0.02771088
0002b0 c7 53 05 3d 91 9c 84 3c ac 9c 22 3d 7f 4b c3 3c
       0.0325506 0.016187938 0.039700195 0.02383971
0002c0 18 ed 87 bc 54 9b 9e 3a 05 d8 1a bd 1c 98 96 bb
       -0.016592547 0.0012100735 -0.03780367 -0.0045957696
0002d0 de ab 04 bd 6a d0 b4 3c 0e ff 88 bc de 9b 45 bc
       -0.032390468 0.022072036 -0.016723182 -0.012061087
0002e0 d3 0b 84 3c ab 24 33 bd c1 95 20 3d 9e f3 f6 3c
       0.01611892 -0.04373614 0.039205316 0.030145463
0002f0 fb fd 19 3b bf 5d 00 bd 5d 25 02 bd 86 36 bb ba
       0.0023497331 -0.031339403 -0.031773914 -0.0014283217
000300 36 c9 94 3a f5 72 00 bd b8 7a 11 bd 5e f6 b7 3b
       0.001135147 -0.03135963 -0.035517424 0.005614086
000310 49 a9 a7 3c 16 dd 09 3d 2b cb 28 bc 06 a5 be bc
       0.020466464 0.03365811 -0.010302345 -0.023272049
000320 d3 c8 2f 3d 74 43 3d bc 69 62 f8 bc 40 14 97 3c
       0.04291613 -0.011551727 -0.030320363 0.018442273
000330 fa 5a 07 bd 13 49 d6 bc dd ab 2b 3d b8 61 92 3c
       -0.033045746 -0.026157891 0.04191195 0.017868862
000340 f8 bf 05 3d ef 3d c1 3c 7c 3a 41 3c 3d f2 2b 3d
       0.03265378 0.023589103 0.011793729 0.041979063
000350 fb e7 1c bd 52 9e 14 3d 31 9f 07 3d 99 27 26 3d
       -0.03830717 0.0362838 0.0331108 0.040565107
000360 5b 12 01 3d f2 49 d5 bc 7a 79 32 3d 91 f8 27 3d
       0.031511646 -0.026036236 0.04357288 0.041008536
000370 b9 d4 1f bc eb 8f d6 3c f9 d2 26 bd 16 25 c9 bc
       -0.009755307 0.026191672 -0.040728543 -0.024553817
000380 53 f1 ae bc 4a 09 d9 3c 55 9e 55 bb de d0 82 38
       -0.021355307 0.026493687 -0.0032595594 6.2377876e-05
000390 d9 40 7f 3c fb c4 47 3c 40 14 fd bc 2d 80 b1 bc
       0.015579426 0.01219296 -0.030893445 -0.021667564
0003a0 3e 4a 19 3d 27 c5 09 3d 27 c0 09 bd 45 25 00 bd
       0.03742432 0.033635285 -0.033630516 -0.031285543
0003b0 ef 42 16 3d 45 7c c2 3b ca 85 d3 bb 44 67 24 bd
       0.036684927 0.0059352242 -0.006455158 -0.040137544
0003c0 fe 62 68 bc 8e 3f fd 3c 68 20 10 bd 55 81 0a bd
       -0.014183758 0.030914094 -0.035187155 -0.033814747
0003d0 0b 39 1e bc c8 b6 1f ba 0c cf f3 3c a6 0f 73 3c
       -0.009657155 -0.0006092605 0.029761814 0.014835274
0003e0 8d 0a 89 bb d2 2a f2 b9 5b f7 34 bd b8 8b 73 3c
       -0.004182166 -0.0004618974 -0.04418121 0.0148648545
0003f0 d9 ab 3d bb d3 b5 00 3d da de 65 bc 71 11 a4 3c
       -0.002894154 0.0314234 -0.014030183 0.020027848
