results/scratch/12owob2t/sae_341/model.pth (torch, 132127 bytes, 2 tensors)

encoder.0.weight f4 [128, 128]
0	0xbd601aeb	-0.05471317
1	0x3dabc702	0.08387567
2	0xbdaa8bb9	-0.08327431
3	0x3c80d0b3	0.015724516
4	0x3b54a032	0.0032444117
5	0x3c3e49bc	0.011614259
6	0xbd04ba6a	-0.03240434
7	0xbcd23e9a	-0.025664616
8	0x3ca3ff23	0.02001912
9	0x3c8ef7ef	0.017452208
10	0xbd902dfc	-0.07040021
11	0xbc890e6b	-0.016730508
12	0x3d1ad4a3	0.037800442
13	0xbd83cc1a	-0.06435414
14	0x3d21e20c	0.039522216
15	0x3da2dd72	0.079523936
16	0xbd8f94f9	-0.07010836
17	0x3ca57549	0.020197527
18	0x3d9113d0	0.07083857
19	0xbd024a4e	-0.031809144
20	0x3cf83ca8	0.03030236
21	0xbd6d9b8e	-0.058009677
22	0xbd8ce079	-0.06878752
23	0x3d51be2a	0.051206745
24	0xbd857cda	-0.06517954
25	0xbd4c4c20	-0.049877286
26	0x3d75e15a	0.060029365
27	0xbce3a61b	-0.027789166
28	0x3c87c6e5	0.016574332
29	0xbd89c274	-0.06726542
30	0xbd18985b	-0.037254672
31	0x3cbf0b3d	0.023320789
32	0xbd10fd40	-0.035397768
33	0x3d74cb2f	0.059764083
34	0xbcf0300a	-0.029319782
35	0xbc32086f	-0.010866269
36	0x3c2a7b4b	0.010405372
37	0xbd2996f1	-0.041403715
38	0xbcf086b4	-0.029361106
39	0xbb69d803	-0.0035681732
40	0xbd31682a	-0.04331223
41	0x3d0b3141	0.03398252
42	0x3d883323	0.066503786
43	0xbc31b932	-0.010847377
44	0x3d25cd00	0.040478706
45	0x3cdf8b80	0.027288198
46	0x3d616367	0.055026438
47	0xbd2108c1	-0.03931499
48	0x3cb8f549	0.022577899
49	0xbd1d4a87	-0.038401153
50	0xbd9b6375	-0.07587329
51	0xbda749ca	-0.08168371
52	0xbd06b621	-0.032888535
53	0xbd5b8a07	-0.05359843
54	0x3dacfa9b	0.08446237
55	0x3ba3d1cc	0.004999375
56	0xbd2b1418	-0.04176721
57	0x3da2bd10	0.07946217
58	0x3c2d17f3	0.010564792
59	0x3c69f4b2	0.014279531
60	0xbd2c115f	-0.042008754
61	0x3d507523	0.05089296
62	0xbc28da52	-0.010305958
63	0xbdb0d966	-0.086352155
64	0x3daff190	0.08590996
65	0xbc99a070	-0.01875326
66	0x3d861755	0.06547419
67	0xbc25a28b	-0.010109554
68	0xbda2f9a0	-0.079577684
69	0xbc9f287d	-0.019428486
70	0xbd7767a1	-0.060401563
71	0xbd820e3d	-0.06350372
72	0xbd806f9d	-0.062712885
73	0x3d981ff2	0.07427968
74	0x3d86dfcc	0.065856546
75	0xbd76b897	-0.060234632
76	0x3a1f2d26	0.00060720963
77	0x3da3fd2f	0.08007275
78	0x3a2503f9	0.00062948425
79	0x3c8e4faa	0.017371971
80	0x3bb4a05d	0.005512281
81	0x3c2ad485	0.010426645
82	0xbd880d73	-0.0664319
83	0x3b6ed129	0.0036440587
84	0xbda88176	-0.08227818
85	0xbd71cd16	-0.059033476
86	0xbd987db7	-0.07445853
87	0xbda328ff	-0.07966804
88	0xbc798248	-0.015228815
89	0x3cd304f2	0.025759194
90	0x3d075652	0.033041306
91	0xbd945d80	-0.07244396
92	0x3be53b52	0.006995597
93	0xbd2b22a2	-0.041781075
94	0x3d64f5af	0.055898365
95	0xbd8bbe14	-0.06823364
96	0x3d4ec362	0.0504793
97	0x3ca043ed	0.01956364
98	0xbd62b737	-0.05535051
99	0x3d92592c	0.071459144
100	0xbd98111e	-0.0742514
101	0xbcfc565c	-0.030802898
102	0xbd8efe93	-0.0698215
103	0xbce7e493	-0.028307235
104	0x3d699983	0.057031166
105	0x3d79e472	0.061008878
106	0xbd76fcb4	-0.06029959
107	0xbbd3fc80	-0.0064693093
108	0x3d50704c	0.050888345
109	0x3d0391e2	0.032121547
110	0xbd4d6848	-0.05014828
111	0xbd98663e	-0.07441376
112	0x3ca70e81	0.020392658
113	0x3caabc64	0.020841785
114	0x3d00d9a8	0.031457573
115	0x3c5647b5	0.01307862
116	0x3c97939c	0.018503003
117	0x3d5e913d	0.05433773
118	0xbc9939ff	-0.018704413
119	0x3d764823	0.06012739
120	0x3c813bc8	0.015775576
121	0xbc2ec974	-0.010668147
122	0x3d3d9ca3	0.04629196
123	0x3d5fb4dd	0.054615844
124	0xbd79f538	-0.061024874
125	0x3d7b541c	0.06135951
126	0xbcf4437c	-0.029817335
127	0x3b05ddc1	0.0020426365
128	0xbd0d92d1	-0.034563843
129	0x3dae3a65	0.085072316
130	0xbc49a10b	-0.012306462
131	0xbd867386	-0.06565003
132	0x3d8f398f	0.069934
133	0x3ca4312c	0.020042978
134	0xbd1cbc9f	-0.03826582
135	0xbd957be3	-0.0729902
136	0x3d59f27d	0.05320977
137	0xbcca5abc	-0.024701469
138	0x3d84016a	0.06445582
139	0xbb9e1a74	-0.004824931
140	0xbdb5c760	-0.088759184
141	0x3ce78c6a	0.028265197
142	0xbd12ea0e	-0.035867743
143	0xbce9dc30	-0.028547376
144	0x3cd31780	0.025768042
145	0x3d6ad83e	0.05733513
146	0xbd93d137	-0.07217639
147	0xbc9ced38	-0.019156083
148	0xbcd09c0b	-0.025465032
149	0x3da035a6	0.078227326
150	0x3d552924	0.052041188
151	0x3d56f1c3	0.052476656
152	0xbc0723ac	-0.008248251
153	0x3d58aa83	0.052896988
154	0x3d63096b	0.055428904
155	0x3d822863	0.063553594
156	0xbda7028d	-0.081547834
157	0xbd42a651	-0.047521893
158	0xbd3a87e1	-0.04553974
159	0xbd185be9	-0.037197027
160	0x3d41e430	0.047336757
161	0x3d8e145e	0.069374785
162	0x3d7d824b	0.061891835
163	0xbcdcedb6	-0.026968818
164	0xbd9d6d22	-0.07686831
165	0x3d351c3f	0.04421639
166	0xbca893a9	-0.020578222
167	0xbbfb95cf	-0.0076777707
168	0xbd0bc903	-0.034127247
169	0xbda864c8	-0.082223475
170	0xbd9cfd07	-0.07665449
171	0x3d81cad1	0.06337512
172	0x3d8c4066	0.068482205
173	0xbd17d00c	-0.037063643
174	0x3d80d08d	0.06289778
175	0xbda4eaeb	-0.080526195
176	0x3d5c449c	0.05377637
177	0xbc9b9eda	-0.018996645
178	0xbd9f4346	-0.07776503
179	0xbb994689	-0.004677598
180	0xbcfea707	-0.031085504
181	0xbb7be2ad	-0.003843467
182	0x3da0c168	0.07849389
183	0x3d70fc2a	0.058834232
184	0xbd1ef6bf	-0.038809534
185	0x3cadcdf4	0.02121637
186	0xbd41535c	-0.04719864
187	0x3d00a60f	0.031408366
188	0x3c0e0a01	0.008669377
189	0xbd508041	-0.050903562
190	0x3d8e7d42	0.06957485
191	0x3d4d18bf	0.050072428
192	0x3d9409c4	0.07228425
193	0xbd34fe8a	-0.04418806
194	0x3c4b0d84	0.012393359
195	0x3d1685f9	0.03674886
196	0xbda2b02b	-0.079437576
197	0xbc5fb545	-0.013654058
198	0xbd18e9d2	-0.037332363
199	0x3dafc74a	0.08582933
200	0x3d3c57a2	0.04598201
201	0xbd1516c8	-0.03639868
202	0x3d8cc6ca	0.068738535
203	0x3d99bfe6	0.07507305
204	0x3da8d161	0.08243061
205	0x3cb83d21	0.022490086
206	0xba4eaf74	-0.0007884421
207	0xbd724a5a	-0.05915294
208	0x3d886d3e	0.06661461
209	0xbdb26d3f	-0.08712243
210	0x3da6afd9	0.08139009
211	0xbd57c6fb	-0.052679997
212	0x3d893439	0.06699414
213	0x3d8ee469	0.069771595
214	0x3dadf3e3	0.08493783
215	0x3d710953	0.058846783
216	0x3d679232	0.056535907
217	0x3d377e93	0.044798445
218	0xbd783b56	-0.060603462
219	0xbcba930c	-0.022775196
220	0x3d71cba9	0.059032116
221	0x3c9151a8	0.017739132
222	0xbd8c396e	-0.06846891
223	0xbd7a22b8	-0.061068267
224	0x3d34089a	0.043953516
225	0x3d403b45	0.046931524
226	0x3d828c95	0.0637447
227	0x3c73fef3	0.014892328
228	0x3c917a8d	0.017758632
229	0x3cdc6e6c	0.026908122
230	0xbd465d8b	-0.048429053
231	0x3da28f0e	0.07937442
232	0x3d89f46e	0.067360744
233	0x3d941929	0.072313614
234	0xbd02a4e8	-0.031895548
235	0x3d85f02e	0.06539951
236	0x3d4a3b32	0.04937286
237	0x3d8f0225	0.06982831
238	0x3d199b1e	0.037501447
239	0x3b0d63ee	0.0021574455
240	0xbb2a3da1	-0.0025976675
241	0x3db06f20	0.086149454
242	0xbd203f13	-0.039122652
243	0x3d5ee500	0.05441761
244	0x3d873ec7	0.06603771
245	0xbcd621cc	-0.026139162
246	0xbd799c7a	-0.060940243
247	0xbda9ff44	-0.08300641
248	0xbdb56c8c	-0.08858594
249	0xbda7b0a0	-0.081879854
250	0x3c5bdeea	0.013419846
251	0xbd4ea805	-0.050453205
252	0xbdb2f6d4	-0.08738485
253	0xbda16289	-0.07880122
254	0xbd6eadd4	-0.058271244
255	0x3d2bf6f9	0.04198358

decoder.weight f4 [128, 128]
0	0xbd2f266a	-0.042761244
1	0xbcf7c361	-0.030244531
2	0xbd1f658c	-0.038915202
3	0xbdb3b062	-0.08773877
4	0xbb47ca10	-0.003048543
5	0x3d58894e	0.05286532
6	0x3d355bb1	0.044276897
7	0xbd957631	-0.07297934
8	0x3c9d52e9	0.019204574
9	0xbdb67d04	-0.089105636
10	0xbd35a590	-0.044347346
11	0x3cac3b0c	0.02102425
12	0xbd522077	-0.051300492
13	0xbce22364	-0.027604766
14	0xbd42c5a2	-0.04755176
15	0xbc8eb8fb	-0.01742219
16	0xbc646760	-0.013940662
17	0x3ceb475f	0.028720556
18	0x3d49c3c3	0.04925896
19	0x3cd5d655	0.026103178
20	0x3b4dca76	0.0031401194
21	0xbd33a998	-0.04386291
22	0x3b50a8b3	0.0031838834
23	0x3cf6271a	0.030047942
24	0x3d047e60	0.032347083
25	0xbd49b084	-0.049240604
26	0x3d5a0341	0.05322576
27	0x3d81834c	0.06323871
28	0x3bd2b470	0.006430201
29	0x3d24206e	0.04006999
30	0x3d5f8ec8	0.054579526
31	0xbd4a59b3	-0.04940195
32	0xbd900c8f	-0.07033645
33	0x3d2ed42d	0.042682815
34	0x3d6da619	0.05801973
35	0x3b8eb6da	0.0043552937
36	0xbc13ebfb	-0.00902843
37	0xbd051ed8	-0.032500118
38	0x3d85ab80	0.06526852
39	0xbd2a75cd	-0.04161625
40	0x3b7f29ea	0.0038934895
41	0xbba57520	-0.005049363
42	0x3d9f32e8	0.077733815
43	0xbda01261	-0.078160055
44	0xbd0eedd9	-0.034894798
45	0x3d0e33c8	0.03471735
46	0xb9c8895e	-0.0003824932
47	0x3cac8b2c	0.021062456
48	0x3da73b1d	0.08165572
49	0xbd6ef620	-0.05834019
50	0x3a824c59	0.0009940966
51	0x3d311a1e	0.043237798
52	0x3c556093	0.013023513
53	0xbb7e04be	-0.003876015
54	0xbda49802	-0.08036806
55	0xbc8bbda3	-0.0170582
56	0x3d43d53b	0.047810774
57	0x3d3b4a59	0.0457252
58	0xbd0e8e64	-0.034803763
59	0xbc5fe657	-0.013665757
60	0x3b3be7f1	0.0028672183
61	0x3c8f803f	0.017517207
62	0x3b9f040c	0.0048527773
63	0xbcbad530	-0.022806734
64	0x3d856af8	0.06514543
65	0xbbc080e2	-0.005874739
66	0xbda0478f	-0.07826149
67	0xbbb2a504	-0.0054518003
68	0x3cb37e0e	0.021910693
69	0x3d5bc2a6	0.053652428
70	0x3d6dd95e	0.058068626
71	0xbd295c2b	-0.041347664
72	0xbda2c172	-0.07947053
73	0xba910add	-0.001106586
74	0xbd797eec	-0.060912058
75	0xbd85c4bd	-0.065316655
76	0xbcdc4e2c	-0.026892744
77	0xbc8eeb9d	-0.017446334
78	0x3db15e9b	0.08660623
79	0xbd9eaffe	-0.077484116
80	0x3d88c461	0.06678081
81	0x3d8f5818	0.069992244
82	0xbd363c00	-0.044490814
83	0x3dafbe9a	0.08581276
84	0x3db022f8	0.0860042
85	0x3d46289a	0.048378564
86	0x3d0cfb83	0.034419548
87	0xbd9b9cc7	-0.07598262
88	0xbd531cbe	-0.051541083
89	0xbd9ff254	-0.07809892
90	0x3d70a06c	0.05874674
91	0xbc99bb87	-0.018766178
92	0x3d1f9346	0.03895881
93	0x3d030acb	0.031992715
94	0xbda2ef79	-0.07955832
95	0x3d4c7c40	0.04992318
96	0x3d82c2ce	0.06384812
97	0xbd13aa50	-0.036051095
98	0xbd4e4fc8	-0.050369054
99	0x3ce52b41	0.027974727
100	0xbd5eebe3	-0.054424178
101	0xbd292953	-0.041299175
102	0x3d13988a	0.036034144
103	0xbc74f726	-0.014951503
104	0xbd7171a9	-0.058946285
105	0x3d81a215	0.06329743
106	0x3d51fcb8	0.051266402
107	0xbd2f9b43	-0.04287268
108	0x3d0cae9b	0.034346204
109	0xbd7573b8	-0.05992481
110	0x3d0ee046	0.034881853
111	0xbbbae204	-0.0057032127
112	0x3d1628c5	0.036659975
113	0x3a85e628	0.0010215687
114	0xbd40f371	-0.047107164
115	0xbd145b54	-0.03621991
116	0x3d6da016	0.058013998
117	0xbc44b47d	-0.012005922
118	0x3c18406f	0.009292706
119	0xbd9cd4ca	-0.07657774
120	0xbd127c3e	-0.035763018
121	0xbca82897	-0.020527167
122	0xbda4cfe2	-0.08047463
123	0xbd14b19f	-0.036302205
124	0xbd9291c7	-0.07156711
125	0x3d3ff97b	0.046868782
126	0xbd39f08c	-0.04539542
127	0xbd0f9fff	-0.035064694
128	0xbd1e9317	-0.038714495
129	0x3d0363a7	0.032077458
130	0x3aaa5383	0.0012994859
131	0x3c50ebca	0.012751529
132	0x3ca56058	0.020187542
133	0xbd97b343	-0.07407238
134	0xbd94b59b	-0.07261201
135	0x3d3cb9d2	0.04607565
136	0xba0a9b47	-0.00052874204
137	0x3d151c13	0.036403727
138	0xbd17898c	-0.03699641
139	0x3d246a6c	0.040140554
140	0xbd75601d	-0.059906114
141	0x3d9d6e80	0.07687092
142	0x3d86fd41	0.06591273
143	0x3cd44cb6	0.025915485
144	0xbcec42c4	-0.02884043
145	0xbd37bc9f	-0.044857617
146	0xbcdcf889	-0.02697398
147	0xbd96f31f	-0.073705904
148	0xbca2d638	-0.019877538
149	0xbc1df999	-0.009642028
150	0x3d90c2cf	0.07068407
151	0x3d8e2579	0.06940741
152	0xbd330aab	-0.043711346
153	0xbda16b11	-0.078817494
154	0x3c934aa0	0.01797992
155	0x3da11c63	0.078667425
156	0x3d3354a8	0.043781906
157	0xbd9059ad	-0.07048354
158	0xbcc05000	-0.023475647
159	0xbd25267a	-0.040319897
160	0xbdb08f7f	-0.0862112
161	0xbc0e0476	-0.008668056
162	0xbd15f854	-0.036613777
163	0x3d1c7589	0.038198028
164	0x3cd7c3a1	0.0263384
165	0x3c5ce6ba	0.013482744
166	0x3da80dd1	0.0820576
167	0x3a07249d	0.0005155297
168	0x3da3e54b	0.080027185
169	0xbd63fb9d	-0.05565988
170	0x3da74e65	0.081692494
171	0xbaaf5c48	-0.0013378942
172	0xbc91f93f	-0.017819045
173	0x3da9ffa6	0.08300714
174	0xbd804200	-0.062625885
175	0xbc6e9c9d	-0.014563707
176	0xbda94b61	-0.082663305
177	0x3dacb847	0.084335856
178	0xbd5076ac	-0.050894424
179	0xbda76393	-0.08173289
180	0x3d0e3874	0.034721807
181	0xbd7a126b	-0.06105272
182	0x3cfb36da	0.030665804
183	0xbc53db7d	-0.012930748
184	0x3d2a630b	0.04159836
185	0x3d8fc887	0.070206694
186	0x3d95e011	0.07318128
187	0x3d9b1704	0.07572749
188	0xbca99d10	-0.020704776
189	0xbda3e364	-0.08002356
190	0x3daba60e	0.08381282
191	0x3d130b92	0.035899706
192	0xbd07b077	-0.033127274
193	0xbd8bb7a3	-0.06822135
194	0x3d48eccb	0.04905395
195	0xbd06fce2	-0.03295601
196	0x3d5e6b87	0.054301765
197	0x3da10805	0.07862858
198	0xbd93e04c	-0.072205156
199	0x3b9e8d09	0.00483859
200	0x3d162b73	0.03666253
201	0xbd9f21c0	-0.07770109
202	0xbda3ace3	-0.0799196
203	0xbb0b21ad	-0.002122979
204	0x3d9521d3	0.07281842
205	0xbd7c5f1e	-0.06161415
206	0x3d5da848	0.054115564
207	0xbd8ec27c	-0.06970689
208	0xbd37c002	-0.044860847
209	0x3ca18299	0.019715594
210	0x3c808c54	0.015691914
211	0xbc1f63f3	-0.00972842
212	0xbd159d51	-0.03652698
213	0xbdae373f	-0.08506631
214	0xba6b83fe	-0.0008984207
215	0xbc6711a3	-0.014103326
216	0xbd577428	-0.05260101
217	0xbd9bce90	-0.07607758
218	0xbda17a0b	-0.07884606
219	0x3bbce9dd	0.0057651834
220	0x3d6a04fe	0.057133667
221	0xbd8d5c72	-0.06902398
222	0x3d149fb7	0.03628513
223	0x3d9b6972	0.075884715
224	0x3d74bdfd	0.0597515
225	0xbc5b6696	-0.013391158
226	0x3d27f97c	0.04100941
227	0xbcf6ddc1	-0.030135037
228	0xbda0d66c	-0.07853398
229	0xbd431984	-0.047631755
230	0x3c823947	0.015896453
231	0x3c0a890a	0.008455524
232	0x3d5577ca	0.052116193
233	0xbd659942	-0.05605436
234	0x3c83b1f8	0.016076073
235	0xbcdaec4f	-0.026724009
236	0x3cfd05a9	0.030886488
237	0xbb6663d8	-0.0035154726
238	0xbd299b3a	-0.0414078
239	0xbcf1875c	-0.02948349
240	0xbd5cc3dd	-0.053897727
241	0x3d108ad2	0.03528864
242	0x3c8aec2e	0.016958322
243	0xbbade18c	-0.0053064283
244	0xbd3b2c70	-0.045696676
245	0x3d72fffd	0.05932616
246	0xbc0c6b52	-0.008570509
247	0xbd9677f9	-0.07347102
248	0x3bcfee90	0.0063455775
249	0xbd98a6d1	-0.07453693
250	0xbd8351dc	-0.06412098
251	0x3cd40664	0.025881954
252	0x3a32e28c	0.0006823919
253	0x3c3b0afb	0.011416192
254	0x3d95ed3b	0.07320639
255	0x3dab6e99	0.08370704
