results/scratch/12owob2t/sae_246/model.pth (torch, 525343 bytes, 2 tensors)

encoder.0.weight f4 [512, 128]
0	0xbcf346b7	-0.029696805
1	0xbd831ef9	-0.06402392
2	0x3da419dd	0.080127455
3	0xbaf039c8	-0.0018327767
4	0x3d6be5ae	0.057592086
5	0xbc6f507b	-0.01460659
6	0xbc6ac67c	-0.014329549
7	0x3d77f67d	0.060537804
8	0x3cc65b3d	0.024213428
9	0x3daf1a8f	0.085499875
10	0x3c86ac51	0.016439589
11	0x3ca546d1	0.02017537
12	0xbd5d09ae	-0.05396431
13	0xbd3f06cc	-0.04663734
14	0xbd22a152	-0.03970463
15	0xbd436379	-0.047702286
16	0xbd20c269	-0.039247904
17	0x3d87f849	0.066391535
18	0xbd4f4c2a	-0.050609745
19	0xbcb3daf8	-0.021954998
20	0x3c44d9c7	0.012014813
21	0x3d8a5571	0.06754578
22	0x3d7af999	0.06127319
23	0xbc03e0b9	-0.0080491835
24	0x3dacf98c	0.08446035
25	0xbd578ee1	-0.052626494
26	0x3b78f21e	0.003798611
27	0xba79fed2	-0.00095365674
28	0x3c649df2	0.013953673
29	0xbd613514	-0.05498226
30	0xbd985311	-0.07437719
31	0xbd6e44a7	-0.05817094
32	0x3d8fd337	0.07022708
33	0x3d3e7169	0.046494875
34	0xbd3be34e	-0.04587107
35	0x3af20183	0.0018463585
36	0x3d288e79	0.041151498
37	0x3d34f80b	0.044181865
38	0x3b957384	0.0045608897
39	0xbd765412	-0.06013877
40	0x3d13aaa5	0.03605141
41	0x3bd5a84d	0.006520307
42	0xbd503bb2	-0.05083818
43	0xbc5c0344	-0.013428513
44	0xbdb43245	-0.08798651
45	0xbd0231e9	-0.03178588
46	0xbc07a4bb	-0.008279021
47	0xbd097950	-0.03356296
48	0x3d08d11f	0.03340256
49	0x3c633d8b	0.013869653
50	0xbd1f0dac	-0.038831398
51	0x3d5dd29e	0.05415594
52	0xbc143025	-0.009044682
53	0xbd14509b	-0.036209684
54	0xbd98bfc3	-0.07458451
55	0x3c220863	0.009889695
56	0xbd45f40b	-0.04832844
57	0x3c612276	0.013741126
58	0x3c8b028a	0.016968984
59	0x3ce05062	0.02738208
60	0xbd941fbc	-0.07232615
61	0xbd0bae31	-0.03410167
62	0xbb8aa27c	-0.0042307954
63	0xbdaf9046	-0.0857244
64	0x3d974c36	0.07387583
65	0x3d7f98dd	0.06240164
66	0x3daf644a	0.085640505
67	0xbbc8fa97	-0.0061333883
68	0x3d8b438e	0.067999944
69	0x3d105517	0.035237398
70	0xbd644411	-0.055728976
71	0x3d205e28	0.039152294
72	0x3dad10d3	0.084504746
73	0xbd9b4513	-0.07581534
74	0xbd92da30	-0.07170522
75	0x3d9ac752	0.075575486
76	0xbda2210f	-0.07916462
77	0xbd3958f7	-0.04525086
78	0xbda8d7dd	-0.08244298
79	0x3d9e252c	0.07721934
80	0xbd7ceaf0	-0.06174749
81	0xbd1c0dd8	-0.03809914
82	0xbdb06adf	-0.08614134
83	0x3c3802ec	0.011231165
84	0x3c180ca3	0.009280357
85	0xbd4184b2	-0.04724569
86	0xbd7c092f	-0.061532196
87	0xbd8da4a1	-0.06916166
88	0x3cf2a382	0.029618982
89	0xbb7eef7b	-0.0038900066
90	0x3db25cb1	0.08709086
91	0xbccc6a74	-0.024953105
92	0xbcda8d0d	-0.026678586
93	0x3c878818	0.016544387
94	0xbd01d3a4	-0.031695977
95	0x3d65ebef	0.056133207
96	0xbc604d0c	-0.013690244
97	0xbcdb0bfa	-0.02673911
98	0xbd480f20	-0.04884255
99	0x3c11db4e	0.008902384
100	0x3d8a0cfb	0.06740757
101	0x3c05583e	0.008138714
102	0xbd01a625	-0.03165259
103	0x3d15eb64	0.03660144
104	0x3c26bd90	0.010177031
105	0x3da36a8c	0.079793066
106	0x3d735d66	0.059415244
107	0xbd80b916	-0.06285302
108	0xbd7f61d2	-0.062349148
109	0xbd57137a	-0.05250881
110	0xbd516807	-0.0511246
111	0x3caf5dca	0.021407027
112	0xbd0152c8	-0.031573087
113	0x3d52f504	0.051503196
114	0x3da6d34b	0.0814577
115	0xbd8cfbc0	-0.06883955
116	0xbd8dca51	-0.069233544
117	0xbda116d5	-0.07865683
118	0x3d4e834a	0.050418176
119	0x3d115269	0.035478983
120	0xbc6f1aa7	-0.014593757
121	0xbd9b28d1	-0.075761445
122	0xbcada0c7	-0.021194829
123	0xbd003bb0	-0.031306922
124	0xbd700bbe	-0.05860495
125	0x3d4fd939	0.05074427
126	0x3cc682f8	0.024232373
127	0xbc8b8528	-0.017031267
128	0xbdad4f0e	-0.08462344
129	0x3d4f0a56	0.050546966
130	0x3d4f25bd	0.0505731
131	0x3d0e5df1	0.03475756
132	0x3d47ba8c	0.04876189
133	0xbd6184b2	-0.05505819
134	0x3d3a9f34	0.045561984
135	0x3d888e97	0.06667822
136	0xbdae0d44	-0.08498624
137	0x3be80cd6	0.0070816083
138	0x3c77c117	0.01512172
139	0xbd78e0af	-0.06076115
140	0xbda2ba7c	-0.07945725
141	0xbcd85ddc	-0.026411943
142	0xbcde38d1	-0.027126702
143	0xbd9fff67	-0.07812386
144	0xbcf331e1	-0.02968687
145	0xbb947f08	-0.004531745
146	0x3b5494e2	0.0032437374
147	0xbd549caf	-0.051907238
148	0x3ceb2d1a	0.02870803
149	0xbd077377	-0.0330691
150	0xbda3efa3	-0.080046915
151	0xbc8e7d13	-0.017393624
152	0x3cd68869	0.026188092
153	0x3d5157b3	0.051109027
154	0x3d185288	0.037188083
155	0x3d9234e0	0.07138991
156	0x39288e7c	0.00016074808
157	0xbc23a425	-0.009987866
158	0x3c1a614d	0.009422612
159	0xbc97c779	-0.018527733
160	0xbd42d232	-0.04756374
161	0x3da10b95	0.07863537
162	0x3d89a7a1	0.06721426
163	0x3d81dd6c	0.06341061
164	0xbd96f04b	-0.07370051
165	0x3dabe5bb	0.08393427
166	0x3d05da19	0.032678697
167	0xbc5bc997	-0.013414762
168	0x3d285716	0.041098677
169	0xbcdff448	-0.027338162
170	0xbd711f73	-0.058867883
171	0xbcc3be34	-0.023894407
172	0x3cdb4387	0.026765598
173	0xbd93e644	-0.07221654
174	0x3d482c34	0.04887028
175	0x3d3d099a	0.046151735
176	0xbdb17209	-0.086643286
177	0x3d0869cb	0.033304017
178	0x3d9a7ffc	0.07543942
179	0x3d411239	0.04713652
180	0x3d90598f	0.07048332
181	0xbd6285d6	-0.055303417
182	0x3d549d96	0.0519081
183	0xbc9f3772	-0.019435618
184	0xbd581830	-0.052757442
185	0xbd52d01d	-0.051468004
186	0xbda2a7ba	-0.079421476
187	0x3c7db1a3	0.015484246
188	0xbd5c1669	-0.05373231
189	0xbda2e709	-0.07954223
190	0x3d190957	0.037362423
191	0x3bab576d	0.005228928
192	0xbd310d3c	-0.043225512
193	0x3daf0cdf	0.08547377
194	0x3da8e550	0.08246863
195	0x3cb536d8	0.022120878
196	0x3d780274	0.060549214
197	0xbbd3db9f	-0.00646539
198	0x3cb90975	0.022587517
199	0xbc160a92	-0.009157794
200	0xbcde2bb7	-0.027120454
201	0x3bc0b3a8	0.0058807917
202	0x3d39f7b0	0.04540223
203	0xbd18c8e7	-0.03730097
204	0xba38f32a	-0.0007055277
205	0xbdabd6f1	-0.08390606
206	0x3d908dc5	0.070582904
207	0xbcd8d370	-0.026468009
208	0x3cabc7f1	0.020969363
209	0xbcc1dccc	-0.023664854
210	0x3d0acdbd	0.033887614
211	0x3c1743bb	0.009232457
212	0x3bd87c8e	0.006606645
213	0x3d602c90	0.054729998
214	0xbc36e886	-0.011163836
215	0x3d2718f7	0.040795293
216	0x3d398fa5	0.045303006
217	0x3d8643b7	0.06555884
218	0x3b91fdf4	0.0044553224
219	0x3bc3ac27	0.00597145
220	0x3d6d38f8	0.057915658
221	0x3d7722d2	0.06033594
222	0xbc0a0d60	-0.00842604
223	0xbd8921e1	-0.06695915
224	0x3ca4fe51	0.020140799
225	0x3c9fcbe5	0.019506404
226	0xbcdb966a	-0.026805121
227	0xbd9a1f55	-0.07525507
228	0x3da97233	0.08273735
229	0xbd734e54	-0.05940087
230	0xbcfc82fe	-0.03082418
231	0x3c9c50cf	0.019081501
232	0xbd92e72d	-0.071729995
233	0x3d93eb5a	0.07222624
234	0xbd7f9b32	-0.062403865
235	0x3d831dbb	0.06402155
236	0x3c2aa2b7	0.010414771
237	0xbd90a434	-0.07062569
238	0xbd72575c	-0.059165344
239	0x3db102bd	0.086431004
240	0xbc651e49	-0.013984271
241	0x3b42f6f4	0.0029749246
242	0x3d4cc220	0.04998982
243	0xbccf4058	-0.025299236
244	0xbd9bced8	-0.07607812
245	0x3db237cd	0.087020494
246	0x3d0e80fc	0.034790978
247	0x3cb7c929	0.022434788
248	0x3d258c5b	0.040417057
249	0xbd9d6450	-0.07685149
250	0xbdafed1f	-0.08590149
251	0x3d3dbc04	0.046321884
252	0xbd91fce3	-0.071283124
253	0xbd46ce02	-0.048536308
254	0xbd5989b5	-0.053109843
255	0x3bafe96c	0.005368402

decoder.weight f4 [128, 512]
0	0xbd1801ba	-0.03711102
1	0x3d1d6f4a	0.03843621
2	0x3d0e2da4	0.034711495
3	0xbccedbcf	-0.025251297
4	0x3d1033d9	0.035205696
5	0x3d2d2ea4	0.042280808
6	0x3d001590	0.031270564
7	0x3d215292	0.039385386
8	0x3ce7f11d	0.028313214
9	0xbcf50999	-0.029911803
10	0xbca3eada	-0.020009447
11	0xba11c151	-0.00055601174
12	0xbd02d962	-0.031945594
13	0x3ca3ffef	0.0200195
14	0xbcf95d5e	-0.030440029
15	0xbc6220ab	-0.013801734
16	0x3c0eb419	0.008709931
17	0x3c560adf	0.013064115
18	0xbca8458d	-0.020540977
19	0xbcd090c5	-0.025459656
20	0x3b09700b	0.0020971324
21	0xb9bcecb0	-0.000360345
22	0xbd0214c6	-0.031758092
23	0xb9375b29	-0.000174862
24	0xbc61b781	-0.013776661
25	0xbc815e8a	-0.01579215
26	0x3d29084e	0.041267686
27	0xbc197c1c	-0.009367969
28	0xbd0a8409	-0.033817325
29	0xbc21360b	-0.009839545
30	0x3c9f5536	0.019449811
31	0xbd10fe2d	-0.03539865
32	0x3ca2c0a7	0.019867254
33	0xbd28e7c1	-0.041236643
34	0xbcd7875a	-0.026309658
35	0xbc04fdff	-0.008117198
36	0xbb9ffeda	-0.0048826756
37	0xbc4c2bb8	-0.012461595
38	0x3b9659db	0.0045883483
39	0x3c0ccfa4	0.008594427
40	0x3cd3e210	0.025864631
41	0xbcc4f916	-0.024044555
42	0x3c186df4	0.009303559
43	0xbc873075	-0.016502598
44	0x3ca3b9b6	0.019986015
45	0x3bc3f5d3	0.0059802323
46	0x3ae585ec	0.0017511225
47	0x3d1c5e18	0.038175672
48	0x3cdb8c7e	0.02680039
49	0x3d2dba0b	0.042413753
50	0xbccf77b5	-0.025325635
51	0x3d046589	0.032323394
52	0xbd12acff	-0.035809513
53	0x3cb42e55	0.02199475
54	0x3c872b67	0.016500188
55	0x3d27c298	0.040957063
56	0x3b8c038d	0.004272884
57	0xbcfe362a	-0.031031687
58	0xbc64aa63	-0.013956639
59	0x3d0f5469	0.03499261
60	0x3ce1d14e	0.027565625
61	0x3cce554c	0.025187157
62	0x3d20960b	0.039205592
63	0xbc7aee00	-0.015315533
64	0xbcb6610b	-0.02226307
65	0xbcf734fc	-0.030176632
66	0x3c1ef50b	0.0097019775
67	0x3c84f8f6	0.016231995
68	0x3d1d5cb6	0.038418494
69	0xbd21f2f6	-0.039538346
70	0x3c0a55e0	0.008443326
71	0xbcc29e14	-0.023757018
72	0xbd252ba6	-0.04032483
73	0xbd018986	-0.031625293
74	0x3d22d0d7	0.039749946
75	0xbd137d18	-0.03600797
76	0x3cdb42aa	0.026765186
77	0x3d1d77c0	0.03844428
78	0x3d1c384f	0.038139638
79	0xbcdf504d	-0.02725997
80	0xbd0b4d8f	-0.034009513
81	0x3c7cc012	0.0154266525
82	0x3c5a6f65	0.013332223
83	0x3c822ab7	0.015889509
84	0xbc963e82	-0.018340353
85	0xbc48bbe1	-0.012251825
86	0xbc7e9684	-0.015538815
87	0x3d2e7ed9	0.04260144
88	0xbc9060ef	-0.017624347
89	0xbd271dfb	-0.040800076
90	0xbb761233	-0.0037547469
91	0xbcffdef5	-0.031234244
92	0x3cccb787	0.024989856
93	0xbc7f9798	-0.015600108
94	0x3d16ae90	0.03678757
95	0xba9043a8	-0.0011006491
96	0xbc37047f	-0.011170506
97	0xbd294801	-0.041328434
98	0xbd309d65	-0.043118853
99	0xbcc48000	-0.023986816
100	0xbba761be	-0.0051080873
101	0x3ced4e10	0.028967887
102	0x3c76920d	0.01504947
103	0xbc92002c	-0.017822348
104	0xbca94630	-0.02066335
105	0xbd0d1316	-0.03444203
106	0xbcd9cff1	-0.026588412
107	0xbcd3a825	-0.025837013
108	0xbd16110e	-0.03663736
109	0xbc87dd2e	-0.016584959
110	0xbc59dd01	-0.01329732
111	0x3c64d5be	0.013966976
112	0x3cd6797e	0.026180979
113	0xbc8866ef	-0.016650645
114	0xbc30418b	-0.010757814
115	0xbbe871b0	-0.0070936307
116	0x3d2a73a1	0.04161418
117	0x3d08831d	0.033328164
118	0xbd2a025e	-0.041506164
119	0xbd04ef9d	-0.032455076
120	0x3c3baa5c	0.011454191
121	0xbc27e6ae	-0.010247869
122	0xbd001506	-0.03127005
123	0x3c78a056	0.015174946
124	0x3cb3ebf6	0.0219631
125	0xbb14157f	-0.002259582
126	0xbc827895	-0.015926639
127	0x39c4bbae	0.00037523865
128	0xba63347b	-0.0008667183
129	0xbc487323	-0.012234482
130	0xbbe38ec5	-0.0069445097
131	0xbb50edd2	-0.0031880033
132	0xb7ec86f8	-2.8196242e-05
133	0x3c3578d1	0.011076168
134	0x3cb452a3	0.02201206
135	0x3c988b4c	0.01862111
136	0xbcd1f746	-0.025630604
137	0x3cd942ff	0.026521204
138	0xbd094268	-0.033510596
139	0x3cc53356	0.02407233
140	0x3cdaf288	0.026726976
141	0x3c8ba4b3	0.017046308
142	0x3cf28a3b	0.029606929
143	0x3a9ad6fe	0.001181334
144	0xbc3188b8	-0.010835819
145	0xbc2b1df9	-0.010444158
146	0xba957e08	-0.0011405358
147	0xbd1ad52e	-0.03780096
148	0xbd21f4db	-0.039540153
149	0x3b902a99	0.0043996093
150	0xbbee92e4	-0.0072806943
151	0xbd1b626a	-0.03793565
152	0xbcbf9cc5	-0.023390183
153	0x3cac672d	0.021045292
154	0x3d32daa5	0.043665547
155	0x3d303ddf	0.043027755
156	0xbd168cd2	-0.03675539
157	0xbc4d9f90	-0.01255025
158	0xbcfc825a	-0.030823875
159	0x3d094c80	0.03352022
160	0xbc8a5fb8	-0.016891345
161	0x3a71dd19	0.00092263665
162	0x3c4a4fa3	0.012348088
163	0xbcfd94bc	-0.030954711
164	0xbd05f097	-0.032700147
165	0xbcd65a9d	-0.026166255
166	0xbc9ccaf9	-0.019139754
167	0x3cacbd3e	0.021086331
168	0xbcc52533	-0.02406559
169	0x3c78b4e9	0.015179851
170	0xbbd52e06	-0.0065057306
171	0x3bb5eb99	0.005551767
172	0x3d2faa4b	0.042887013
173	0xbcba858a	-0.022768755
174	0xbb93d61f	-0.004511609
175	0x3c16a89c	0.009195473
176	0xbc80cfb4	-0.01572404
177	0x3c64442a	0.013932267
178	0xbd25e49a	-0.040501215
179	0x3bc90d8d	0.0061356486
180	0x3d023843	0.031791937
181	0xbae27536	-0.0017277363
182	0xbc7f4ba6	-0.015582001
183	0xbc167b77	-0.00918471
184	0xbb7d5e60	-0.0038660988
185	0x3cc2c73a	0.02377664
186	0x3ccfecad	0.02538141
187	0xbcb3abaf	-0.021932451
188	0x3c4d1752	0.012517767
189	0xbcbb7761	-0.022884073
190	0xbcc856f1	-0.02445552
191	0xbd2fb99d	-0.042901624
192	0x3bd039bb	0.0063545383
193	0x3c388dea	0.011264304
194	0xbcdd1fd7	-0.026992721
195	0x3cf07dcf	0.029356865
196	0xbb3efa3f	-0.0029140858
197	0x3d07cf80	0.03315687
198	0x3abe0de5	0.001449999
199	0x3d1eda35	0.038782317
200	0xbc4cda93	-0.012503284
201	0xbc8913d2	-0.016733084
202	0x3cec7b71	0.028867455
203	0xbd300524	-0.042973652
204	0xbc8be26b	-0.017075738
205	0xbc8b9bfe	-0.017042156
206	0xbc52c44c	-0.012864184
207	0x3d205cad	0.039150883
208	0xbce1c096	-0.027557652
209	0x3cb84213	0.022492444
210	0x3ca4bc44	0.020109303
211	0x3cba2ad5	0.022725502
212	0xbc204a1d	-0.009783295
213	0x3d0b04d7	0.033940163
214	0xbccf9e9c	-0.025344186
215	0xbc8020f6	-0.015640717
216	0x3d2c430b	0.042056125
217	0x3c9a0fd2	0.018806372
218	0xbceb32a1	-0.028710665
219	0xbced9eb7	-0.029006345
220	0xbd33230d	-0.0437346
221	0xbc218ac4	-0.009859744
222	0xbc71bd3c	-0.01475459
223	0xbb31d6fb	-0.0027136195
224	0x3c2b2741	0.010446371
225	0x3c710c4d	0.014712405
226	0x3c2a6dc5	0.010402148
227	0xbd132110	-0.035920203
228	0xbc1b8cc3	-0.009494009
229	0xbc290f8f	-0.010318651
230	0xbd0f4850	-0.034981072
231	0x3d2d89e8	0.042367846
232	0x3b3fecd0	0.0029285438
233	0x3ce604f9	0.028078543
234	0xbd2cbe1d	-0.042173494
235	0xbbdaf2df	-0.0066817845
236	0xbd09f64c	-0.033682153
237	0xbb91bc0f	-0.004447467
238	0x3b2ecc32	0.0026672003
239	0xbd253a90	-0.040339053
240	0xbceb5957	-0.028729124
241	0x3c523f65	0.012832497
242	0x3d2ca424	0.042148724
243	0xbce367de	-0.027759489
244	0x3c290ec7	0.010318465
245	0x3c28a5a4	0.010293398
246	0xbd22c1f2	-0.039735742
247	0xbc1d93e9	-0.009617784
248	0xba10dd46	-0.00055261364
249	0xbcf4da30	-0.029889196
250	0xbd1308b7	-0.035896983
251	0x3ca94da5	0.020666907
252	0xbb8fe2bd	-0.004391043
253	0x3ce253ca	0.027627844
254	0x3c91c757	0.017795248
255	0x3d005f57	0.031340923
