results/scratch/12owob2t/sae_283/model.pth (torch, 132127 bytes, 2 tensors)

encoder.0.weight f4 [128, 128]
-0.04624777 -0.0066583646 0.06700178 -0.052760426 -0.046499465 -0.050325986 -0.07269594 -0.04104389
-0.027235985 0.08741266 0.07224195 0.0279042 -0.07805619 -0.047943965 -0.04761001 0.011995495
0.060637392 0.04611797 0.03724275 -0.043041423 0.046715587 -0.027077585 0.086713694 0.016643418
0.06253908 -0.086612344 0.011586932 0.052233733 0.062208124 -0.08374752 -0.032182176 -0.03069843
0.0065920586 -0.00047843595 0.010711248 -0.005624123 0.02832633 0.0683157 -0.07682907 -0.04678047
0.03318006 0.058600724 0.07113603 0.08740494 0.019237982 -0.0775478 0.073605716 0.0353291
0.02770954 0.07941688 0.08519111 0.008000482 0.0175421 -0.08597121 0.005940749 0.06422332
-0.0040237727 0.0066074496 -0.066309534 0.07282959 0.061816417 -0.020804679 -0.008052191 -0.005436874
-0.08579587 0.04680349 0.029967131 -0.034171462 -0.00032249375 0.011065363 0.066233695 -0.013892573
-0.03360778 0.033816967 -0.037369348 0.025504073 -0.057605237 -0.0740783 0.019241331 0.045496624
-0.02631675 0.080254905 0.05772064 -0.07687839 -0.033132114 -0.04301135 -0.07732123 0.0026915465
-0.016060269 -0.040094342 -0.0040323487 0.014231925 -0.0351937 0.070096284 -0.06439234 -0.04398105
0.07217373 -0.04179496 0.08599775 -0.051363856 -0.07691934 0.014415608 -0.023559598 0.055535585
0.008560838 -0.035033505 -0.0017308239 0.0042049196 -0.005919295 -0.003999074 -0.084651485 0.04062344
0.044215858 0.06245311 0.04502867 -0.026972359 -0.045703102 0.06938334 0.050827127 -0.03980428
0.029229823 -0.014494626 0.021294229 -0.08411859 0.032330684 -0.07324495 -0.056403913 0.044234753
-0.010623567 0.043590657 -0.054620385 -0.084626585 0.08829699 -0.07156652 0.06677392 -0.050773367
-0.06979258 -0.037594352 0.036415204 0.078023195 -0.019496776 -0.036052197 -0.067669086 0.0019610447
-0.044603262 -0.024312714 -0.052780584 -0.07106963 0.037986703 -0.00823198 -0.086938344 -0.08540181
-0.033524 -0.029498117 -0.08744363 -0.066609636 -0.056711033 -0.06308435 -0.0386403 0.08650487
0.07715643 0.06315978 -0.085784584 -0.033103872 0.003911672 0.043860942 0.028247867 -0.0591866
0.073193364 0.003944066 -0.021846222 0.030640157 0.053078245 0.0075854748 0.04434821 0.05074455
0.03952732 -0.027498538 -0.04226505 0.017316215 -0.011564632 0.04761555 -0.05262393 0.08212216
0.08003968 -0.004565765 -0.07434345 -0.054864652 0.07412119 0.079276994 -0.08486599 0.08699602
0.07988188 -0.050559986 0.031518944 0.007962714 -0.07207031 -0.005425268 -0.076950155 0.04742756
-0.025282808 0.030912245 0.07314645 0.046944506 0.06777644 -0.07309576 0.012961297 -0.07690507
-0.073269464 0.00558152 -0.005927327 0.08141004 -0.041161627 -0.040659428 -0.0435049 0.014749668
-0.0030940697 0.014676557 -0.07125707 -0.06047741 0.032516688 0.082459204 -0.037793033 -0.04726115
0.023339963 -0.016648348 -0.08367579 0.014681129 0.025588147 -0.07597134 -0.048790954 -0.036292106
0.06373905 -0.054268014 -0.05330843 0.011501352 -0.048312746 0.07892784 -0.03342752 0.06272353
0.009387405 0.03515993 -0.061023876 -0.009708267 -0.027381228 0.008908143 0.08045962 0.0592793
-0.03122226 -0.05774754 0.048898097 -0.0049805613 -0.07912995 -0.0036494278 0.08266227 0.038961
00000000: 4d6e 3dbd 692e dabb 3b38 893d 511b 58bd
00000010: 3976 3ebd 9f22 4ebd 9ce1 94bd a31d 28bd
00000020: 001e dfbc 6905 b33d 96f3 933d 5997 e43c
00000030: ecdb 9fbd e460 44bd b702 43bd c188 443c
00000040: ea5e 783d 32e6 3c3d db8b 183d 344c 30bd
00000050: d858 3f3d d0d1 ddbc f396 b13d c757 883c
00000060: 7d14 803d d061 b1bd 1ed7 3d3c 0af3 553d
00000070: f2cd 7e3d d283 abbd 75d1 03bd 467b fbbc
00000080: 3202 d83b 96d6 fab9 3b7e 2f3c 904a b8bb
00000090: 9f0c e83c 1ae9 8b3d 8f58 9dbd e19c 3fbd
000000a0: d1e7 073d 5007 703d c4af 913d 5c01 b33d
000000b0: f998 9d3c 62d1 9ebd 98be 963d 3fb5 103d
000000c0: 1eff e23c 51a5 a23d ad78 ae3d 7414 033c
000000d0: 73b4 8f3c ac11 b0bd 9daa c23b 8487 833d
000000e0: dad9 83bb 4e83 d83b 4bcd 87bd ae27 953d
000000f0: 3633 7d3d 936e aabc 56ed 03bc ce27 b2bb
00000100: bfb5 afbd 04b5 3f3d a17d f53c 60f7 0bbd
00000110: 6114 a9b9 7f4b 353c 88a5 873d ad9d 63bc
00000120: 50a8 09bd a983 0a3d 9a10 19bd ebed d03c
00000130: 78f3 6bbd 5db6 97bd ff9f 9d3c ab5a 3a3d
00000140: 3a96 d7bc af5c a43d 7a6c 6c3d 6b72 9dbd
00000150: 8ab5 07bd ab2c 30bd 985a 9ebd a864 303b
00000160: d390 83bc f739 24bd cb21 84bb 052d 693c
00000170: 4527 10bd a48e 8f3d 22e0 83bd 7925 34bd
00000180: d2cf 933d 3131 2bbd 971f b03d e862 52bd
00000190: e387 9dbd 712f 6c3c 0f00 c1bc 4879 633d
000001a0: c242 0c3c 4b7f 0fbd d0dc e2ba 6cc9 893b
000001b0: a5f6 c1bb aa0a 83bb c25d adbd c464 263d
000001c0: b01b 353d d5ce 7f3d fc6f 383d 23f5 dcbc
000001d0: 2d33 3bbd da18 8e3d 1b30 503d d009 23bd
000001e0: 6273 ef3c de7a 6dbc 3c71 ae3c 5e46 acbd
000001f0: 2e6d 043d 7301 96bd ca07 67bd 802f 353d
00000200: 780e 2ebc 1e8c 323d a0b9 5fbd b450 adbd
00000210: 0dd5 b43d 7891 92bd c4c0 883d bcf7 4fbd
00000220: 6aef 8ebd 89fc 19bd 1c28 153d a0ca 9f3d
00000230: b4b7 9fbc 78ab 13bd 1796 8abd df84 003b
00000240: e9b1 36bd 752b c7bc 7430 58bd f48c 91bd
00000250: f297 1b3d 6ddf 06bc bb0c b2bd 25e7 aebd
00000260: 7650 09bd 09a6 f1bc a515 b3bd a26a 88bd
00000270: d449 68bd 5e32 81bd 4b45 1ebd 7729 b13d
00000280: 3104 9e3d ea59 813d d4af afbd ed97 07bd
00000290: 7c2d 803b 88a7 333d 1268 e73c a66d 72bd
000002a0: 67e6 953d 393d 813b d9f6 b2bc 1101 fb3c
000002b0: 9368 593d 938f f83b 78a6 353d 84d9 4f3d
000002c0: 66e7 213d 9d44 e1bc 1e1e 2dbd bcda 8d3c
000002d0: 9579 3dbc 8608 433d 318c 57bd aa2f a83d
000002e0: d8eb a33d 6a9c 95bb 6141 98bd c2b9 60bd
000002f0: dacc 973d fa5b a23d 38ce adbd f82a b23d
00000300: 1c99 a33d fd17 4fbd 021a 013d 0b76 023c
00000310: 9999 93bd 72c6 b1bb 0b98 9dbd 6743 423d
00000320: e41d cfbc ad3b fd3c cecd 953d e248 403d
00000330: 60ce 8a3d 3bb3 95bd 9f5b 543c 6880 9dbd
00000340: 4d0e 96bd 2fe5 b63b 063a c2bb 4fba a63d
00000350: 1899 28bd 808a 26bd 3232 32bd 97a8 713c
00000360: e0c5 4abb f175 703c 3aef 91bd 29b7 77bd
00000370: 3830 053d 5fe0 a83d decc 1abd e894 41bd
00000380: 7333 bf3c 1e62 88bc 365e abbd 1e89 703c
00000390: 3c9e d13c dd96 9bbd 06d9 47bd 08a7 14bd
000003a0: 9e89 823d 2348 5ebd f159 5abd 2b70 3c3c
000003b0: 96e3 45bd eba4 a13d 4ceb 08bd 3275 803d
000003c0: a1cd 193c dc03 103d 2cf4 79bd 6c0f 1fbc
000003d0: 994e e0bc 76f3 113c 03c8 a43d dace 723d
000003e0: d3c5 ffbc af88 6cbd 5f49 483d fa33 a3bb
000003f0: e20e a2bd 3d2b 6fbb d64a a93d 9295 1f3d

decoder.weight f4 [128, 128]
-0.013634866 0.08255229 -0.025881777 0.024416326 0.01009695 -0.059653487 0.07846795 -0.024486154
0.05229055 -0.033020686 0.010570888 0.07600558 0.0029787351 -0.05692691 0.015735071 0.024597455
0.07151191 -0.030420952 0.02116094 -0.009589123 -0.060838055 0.037079472 0.083199345 -0.06938676
0.07354157 0.022831846 0.020237496 -0.045476746 -0.03328175 -0.021788461 -0.014964709 -0.015054564
0.027571224 -0.078936 -0.06568587 0.08112167 -0.013583833 0.0337967 0.084776185 -0.032858223
0.040037286 0.08044246 0.011527415 -0.04107663 -0.069290265 0.038594242 -0.019320648 -0.07775596
-0.077868655 -0.007550193 0.004352582 0.05246601 -0.0008548146 -0.010090352 0.00092259084 0.034274895
-0.049362715 0.034950543 0.028154051 -0.059560582 0.0801399 0.0049430165 0.02250056 0.018512223
-0.038422078 0.03837519 0.004484332 -0.016434142 -0.08481654 0.08266548 -0.057708126 0.08663331
-0.031169621 -0.010966545 -0.023378585 0.01981416 -0.04637389 0.052520335 0.058925293 0.045191735
-0.0049431496 0.051634777 -0.042399522 0.012975565 -0.06996838 -0.0016447224 0.06629568 -0.055628255
0.07923957 -0.033481155 -0.060734686 0.0738817 -0.04639371 0.07510147 -0.08737141 0.081281886
-0.0734755 -0.03268075 -0.08656758 -0.04256137 -0.052434728 0.081195 0.088004775 -0.05241765
-0.043007437 -0.02039941 -0.036706712 0.023607193 -0.05958558 0.010016931 0.032702558 -0.03693497
-0.042344693 -0.03694266 0.056715745 -0.015879506 -0.08718698 0.08820521 -0.018955396 -0.046025105
0.005586822 -0.03474045 0.08035188 0.018538315 -0.034978345 -0.04933967 0.041041642 0.019088691
0.05900346 0.03431491 0.00891354 0.01455701 -0.059083514 -0.06724981 -0.072992936 0.0023481508
0.05437736 -0.06096281 0.06163022 -0.025739856 0.050080527 0.0034158563 0.0055047832 0.052235503
-0.05806945 0.010505819 -0.005106835 0.015256619 -0.050452564 -0.0071667163 0.032540824 0.07637003
0.0109913 0.063666254 0.0018338478 -0.01053705 -0.07539966 -0.00337752 0.062732026 -0.020541316
0.040539872 -0.014283981 0.057874564 -0.0418979 -0.0013885518 -0.00039065618 0.07449733 0.005767503
-0.017769663 0.002870532 0.054027207 -0.07246461 0.024169018 -0.08259492 0.046080433 0.044046983
-0.072985865 0.056212544 -0.010774266 -0.03616649 -0.0031751553 0.004531832 0.021126702 -0.033215825
-0.042575583 -0.079609215 0.08256757 0.022878136 0.074942045 0.058612846 -0.07220484 -0.027775824
-0.05067092 0.044603214 -0.031602 -0.08182381 0.060184095 0.03389456 -0.044894338 -0.073030226
0.03157277 0.068788536 0.009298992 -0.04815841 0.03686999 0.060203973 -0.085038684 0.0080752885
-0.061478578 0.0660031 -0.07722703 -0.008467143 0.061493855 -0.028997108 0.0058546825 0.03205621
-0.077176385 0.037862785 0.057081882 -0.0034136062 -0.08031546 -0.014715777 -0.08819617 -0.08744304
-0.041246988 0.043697428 -0.04468889 0.027770996 -0.026848054 0.08363315 -0.055128384 0.035842404
-0.049311683 -0.078664 0.01830751 -0.03126285 0.085654356 -0.00029704804 0.029975615 -0.047822554
-0.011890043 -0.04430458 -0.0029011213 -0.075309545 -0.068983614 -0.038645625 0.056943215 0.029743595
0.016878182 0.06775983 -0.03349231 -0.039965533 0.012340399 0.027191747 -0.028006483 0.0063374112
00000000: c664 5fbc 2d11 a93d 0506 d4bc bf04 c83c
00000010: ae6d 253c 3757 74bd ceb3 a03d 3097 c8bc
00000020: 9e2e 563d b340 07bd 8531 2d3c d0a8 9b3d
00000030: e236 433b 312c 69bd d6e6 803c 9a80 c93c
00000040: d674 923d 5c35 f9bc b559 ad3c b21b 1dbc
00000050: 5331 79bd a5e0 173d 6b64 aa3d a51a 8ebd
00000060: f69c 963d da09 bb3c 1bc9 a53c d345 3abd
00000070: 7252 08bd b77d b2bc 8a2e 75bc 6ba7 76bc
00000080: 0cdd e13c 33a9 a1bd 5086 86bd 1e23 a63d
00000090: ba8e 5ebc 696e 0a3d 239f ad3d 5896 06bd
000000a0: 23fe 233d 04bf a43d 7cdd 3c3c f83f 28bd
000000b0: 0ee8 8dbd ff14 1e3d 5646 9ebc 843e 9fbd
000000c0: 9a79 9fbd 9c67 f7bb 1ba0 8e3b 99e6 563d
000000d0: a315 60ba 0152 25bc 06da 713a d563 0c3d
000000e0: 8f30 4abd 4d28 0f3d 53a3 e63c ccf5 73bd
000000f0: 6320 a43d 07f9 a13b 1853 b83c f2a6 973c
00000100: 7860 1dbd 4e2f 1d3d 4ef1 923b e5a0 86bc
00000110: 4bb4 adbd 854c a93d 5b5f 6cbd ce6c b13d
00000120: 6f57 ffbc 06ad 33bc 7284 bfbc 4e51 a23c
00000130: 8cf2 3dbd 901f 573d a65b 713d f81a 393d
00000140: 25fa a1bb fd7e 533d 1fab 2dbd 7797 543c
00000150: 954b 8fbd ba93 d7ba 08c6 873d 74da 63bd
00000160: 5b48 a23d 8923 09bd efc4 78bd 4a4f 973d
00000170: 5507 3ebd cdce 993d c8ef b2bd 1e77 a63d
00000180: 537a 96bd 40dc 05bd 584a b1bd d554 2ebd
00000190: ccc5 56bd 9049 a63d d93b b43d e4b3 56bd
000001a0: 9128 30bd aa1c a7bc c759 16bd df63 c13c
000001b0: 0210 74bd 0e1e 243c 1ef3 053d 2049 17bd
000001c0: a171 2dbd 3051 17bd c54e 683d bd15 82bc
000001d0: 168f b2bd efa4 b43d 5948 9bbc d284 3cbd
000001e0: a911 b73b 014c 0ebd 878f a43d aadd 973c
000001f0: 7445 0fbd 6518 4abd 481b 283d e35f 9c3c
00000200: 9dad 713d cb8d 0c3d 190a 123c 8680 6e3c
00000210: 8e01 72bd 45ba 89bd 527d 95bd 6fe3 193b
00000220: cbba 5e3d 24b4 79bd f86f 7c3d 64dc d2bc
00000230: 3d21 4d3d 8fdc 5f3b 7861 b43b e5f4 553d
00000240: 3bda 6dbd 9920 2c3c 3d57 a7bb e6f6 793c
00000250: 59a7 4ebd c6d6 eabb 8749 053d e467 9c3d
00000260: db14 343c 7463 823d b95d f03a 97a3 2cbc
00000270: 236b 9abd 6259 5dbb a679 803d 4346 a8bc
00000280: 230d 263d 5c07 6abc e10d 6d3d 229d 2bbd
00000290: 1100 b6ba fcd0 ccb9 0e92 983d 52fd bc3b
000002a0: af91 91bc 891f 3c3b a24b 5d3d 5368 94bd
000002b0: 1bfe c53c 8727 a9bd d6be 3c3d 9c6a 343d
000002c0: 9d79 95bd 203f 663d 8c86 30bc 5023 14bd
000002d0: 4416 50bb c37f 943b e811 ad3c 510d 08bd
000002e0: bc63 2ebd 280a a3bd 3019 a93d ee6a bb3c
000002f0: 377b 993d 0614 703d 22e0 93bd 208a e3bc
00000300: 508c 4fbd dcb1 363d 1971 01bd 3e93 a7bd
00000310: 9983 763d 06d5 0a3d 20e3 37bd df90 95bd
00000320: 7352 013d 01e1 8c3d cd5a 183c c141 45bd
00000330: fd04 173d 7198 763d c328 aebd 374e 043c
00000340: f6d0 7bbd a22c 873d 3529 9ebd c6b9 0abc
00000350: fbe0 7b3d 588b edbc a3d8 bf3b 5f4d 033d
00000360: a70e 9ebd 0216 1b3d b1ce 693d cfb6 5fbb
00000370: 6f7c a4bd 711a 71bc 32a0 b4bd 5615 b3bd
00000380: 9af2 28bd 13fc 323d b30b 37bd 0080 e33c
00000390: 73f0 dbbc db47 ab3d 4dce 61bd 7ccf 123d
000003a0: 0cfb 49bd 971a a1bd a2f9 953c 790d 00bd
000003b0: 8d6b af3d 1dbd 9bb9 6c8f f53c 95e1 43bd
000003c0: 74ce 42bc b878 35bd bd20 3ebb e43b 9abd
000003d0: 4847 8dbd e04a 1ebd 4a3d 693d d7a8 f33c
000003e0: 1d44 8a3c aac5 8a3d 3c2f 09bd e6b2 23bd
000003f0: 632f 4a3c 3ac1 de3c da6d e5bc 0faa cf3b
