results/scratch/12owob2t/sae_14/model.pth (torch, 132127 bytes, 2 tensors)

encoder.0.weight f4 [128, 128]
000000 f0 2e 93 3c ae 12 5e 3c cd 95 0f 3d 09 32 37 3d
       0.017966717 0.013554258 0.03505497 0.04472545
000010 a4 76 98 3d b5 be ad bc 82 23 80 3a 1d 43 17 bd
       0.07444504 -0.0212091 0.0009776207 -0.03692924
000020 d7 1a be 3c 31 78 2a bc 2b 2f 96 bc ee c6 3d bc
       0.023206158 -0.010404632 -0.018333038 -0.011583073
000030 d3 e9 a6 bd 01 9c da bb e7 56 ac bc c0 9b ab bd
       -0.08150067 -0.006671429 -0.021037532 -0.08379316
000040 f7 4a 05 bd 61 51 9f bb 85 3f a7 bd a8 e7 88 3d
       -0.032542195 -0.004861996 -0.08166412 0.0668481
000050 94 5a 90 3c 81 76 52 bc 7e 3a aa 3d 98 aa 9f 3d
       0.017621316 -0.012845636 0.08311938 0.0779621
000060 ec 5c 44 bd c8 6a 8d 3d 56 38 81 bd e3 b2 02 bd
       -0.04794018 0.069051325 -0.06309573 -0.03190888
000070 9c dc 65 3d c7 77 6c 3c 91 5b b3 bd 7b 35 a0 3d
       0.056118593 0.014432854 -0.08757699 0.078227006
000080 76 a3 cd bc 5d bd 06 3c e9 e0 4f 3d 04 24 96 3d
       -0.025102358 0.008223859 0.0507516 0.07331088
000090 5b 33 ae bc 01 9e a8 3c 2b ec 8c 3d fe 5a fe bb
       -0.021264723 0.020583155 0.06880983 -0.007762312
0000a0 a9 64 69 3d 1a db 9f 3c 69 04 6e bc b8 17 a7 bd
       0.056980763 0.019513655 -0.014527419 -0.08158821
0000b0 f6 91 a0 3d dd 95 be 3a 29 7d ab bd 97 e6 0f bc
       0.0784034 0.0014540512 -0.08373482 -0.008783004
0000c0 b2 97 24 3d 96 7d 8d 3d bc fd 31 3d 75 2e a0 bd
       0.04018373 0.06908719 0.04345487 -0.07821361
0000d0 c2 29 a6 bd 53 10 fd 3b c5 af 3c 3d 2e 9f 62 3d
       -0.081134334 0.0077228933 0.046066064 0.055327587
0000e0 8d 04 cc 3c b6 5d 8e bd f0 df 84 3b 97 67 4f bc
       0.024904514 -0.06951468 0.0040550157 -0.012658975
0000f0 fa 59 d9 bc ca 7e 6c 3d 8e 5e 9d 3d df 50 54 bd
       -0.026532162 0.057738103 0.076840505 -0.051834937
000100 13 9c 68 3d 23 a0 9f bd 3f 2e 73 bc ce b3 c7 3c
       0.05678947 -0.077942155 -0.014842569 0.02437773
000110 a3 6f 8f bd dc fa 7e 3d 6a a4 1f bd f3 0c 05 bd
       -0.07003715 0.062250957 -0.038975157 -0.032483052
000120 ec ba b1 bd 7a 11 3e 3d 39 43 9c bd de 6d a3 bd
       -0.08678231 0.046403386 -0.07630009 -0.0797994
000130 e5 16 7e bd a0 2c 3f bc 57 cd 20 3d ed f7 3d bb
       -0.062033553 -0.011668354 0.039258327 -0.0028986887
000140 0d bc db 3c ca d0 b2 3d 96 cf 69 3d 89 0e 82 bd
       0.026823068 0.087312296 0.057082735 -0.063504286
000150 f6 71 a9 bd 55 8a af bb 43 80 6c bd 46 9d ab 3d
       -0.082736894 -0.0053570666 -0.057739507 0.08379607
000160 07 2d ba 3b d0 a9 45 3c 78 6f 5a 3d 2b 7a 65 3d
       0.005681637 0.012064412 0.05332896 0.05602471
000170 d9 7c a3 3b 9b b4 4d bd 1f 03 05 3d cf 77 ff ba
       0.0049892482 -0.050221067 0.03247368 -0.0019490662
000180 38 0e a4 3d 6e d7 01 3d f5 67 04 bd dd fc 4a bd
       0.080105245 0.03169959 -0.032325704 -0.049557555
000190 42 79 6e bd 56 ff e3 bb 05 59 f1 bc c6 c1 d4 bc
       -0.05822111 -0.0069579287 -0.029461393 -0.025971305
0001a0 e0 05 4e 3d d5 52 a7 3d f5 44 ae bc 8b ba 88 bd
       0.05029857 0.08170096 -0.021273116 -0.06676205
0001b0 72 2f af bd e4 2e 88 3d ae e7 b3 bc 5d 1b 7c 3a
       -0.08553971 0.06649569 -0.02196106 0.00096171146
0001c0 28 38 9d 3d 37 26 9a bd 6b 2f b4 bc 60 29 ab 3c
       0.076767266 -0.0752682 -0.021995267 0.020893753
0001d0 31 8e 8d 3b 1d 21 d8 bc 12 9a ae 3d 4f 21 3f 3d
       0.004319929 -0.026382977 0.0852548 0.046662625
0001e0 fc 5f 7f bd a1 c9 98 bd f6 6e 73 3d 25 a5 8f 3d
       -0.062347397 -0.07460333 0.059431992 0.07013921
0001f0 d9 cc 76 3d 21 c3 07 3d 81 fa a1 bd f6 44 98 3d
       0.06025395 0.033145074 -0.07909108 0.07435028
000200 94 e3 15 bc 4f 66 31 bd f3 9d f1 3c 09 18 a2 3d
       -0.009148497 -0.04331046 0.029494261 0.079147406
000210 a4 4e a6 3d 19 05 83 3d 19 b9 06 bd f5 d2 a0 3d
       0.08120468 0.06397457 -0.032891367 0.07852737
000220 9c 73 81 bd 3c 51 0f bd 99 b6 40 bd d9 a4 92 bd
       -0.06320879 -0.03498958 -0.04704914 -0.071603484
000230 5a d6 1d 3d a7 52 f8 3c 2c b7 09 bd 66 b7 bd b9
       0.0385345 0.03031285 -0.033621952 -0.00036185532
000240 14 33 bd bb 53 53 33 3d 4c a4 4b bc 27 00 d9 3c
       -0.0057739113 0.043780636 -0.012429308 0.02648933
000250 f0 1f de 3c 75 55 85 3d 3b 71 7c ba 62 fa 20 bd
       0.027114838 0.0651044 -0.000962991 -0.039301284
000260 87 c8 96 3c 97 7b 07 bd 3e f1 06 bc 02 cf 0a 3d
       0.018406166 -0.03307685 -0.008236228 0.033888824
000270 ae 71 4c 3d 32 e0 84 3d ac c0 41 3d c9 fd 19 ba
       0.0499131 0.06488074 0.047302887 -0.0005874304
000280 db 85 b3 bd dc 0d 7a 3d 63 05 ce 3c 94 f9 93 3d
       -0.08765765 0.061048374 0.025149053 0.072253376
000290 3c e7 3a bc e9 b3 13 bd 58 18 42 bb 3d f3 00 bc
       -0.01140767 -0.036060248 -0.002961656 -0.0078704925
0002a0 b5 39 56 3d 8c b5 a1 bd 96 f9 ae bc cd 05 14 3b
       0.052301127 -0.078959554 -0.021359246 0.0022586465
0002b0 92 99 66 bd b9 13 b4 bd f9 dd bc bc e5 46 85 3d
       -0.0562988 -0.08792824 -0.023055064 0.06507663
0002c0 41 e9 a5 bd 12 13 84 bd 1c 60 65 bd c1 b0 28 3d
       -0.0810113 -0.0644895 -0.05599986 0.04118419
0002d0 f5 cc 2f bc 90 5d 91 3d 88 3d 71 bd 4f 51 a9 bb
       -0.010730018 0.07097924 -0.05889657 -0.0051671634
0002e0 6b 7f 41 3d 8c 41 89 bd 76 c2 a7 3d bd 36 e8 3c
       0.047240656 -0.06701955 0.08191387 0.028346414
0002f0 26 00 8e bd c3 63 42 3c 5a 2e 2d bc c6 59 43 bd
       -0.06933622 0.011864605 -0.010570133 -0.047693036
000300 9f a5 cc bb 89 d2 a5 3b 43 9d 6d 3c be 95 a8 bb
       -0.0062453295 0.005060498 0.014502826 -0.005144804
000310 49 53 9f bd a5 1b 98 bd 86 5b 6a 3c cf 61 d4 3c
       -0.07779557 -0.07427148 0.014304047 0.025925545
000320 55 a8 74 bc 2c 5d 69 bd 97 62 39 ba 7b 8c 9d bd
       -0.014932712 -0.05697362 -0.0007071881 -0.0769281
000330 ee ab f0 3c bb 49 ac 3d 63 68 e4 bb 0f 03 cc 3c
       0.029378857 0.084125005 -0.0069704517 0.024903802
000340 76 48 ba 3c bf b9 6b 3a 30 d0 c8 3b 07 45 9a 3d
       0.02273963 0.0008992217 0.0061283335 0.07532697
000350 67 c6 92 3b 90 da a9 bd b9 15 b2 bd 00 df e2 bc
       0.004479218 -0.082936406 -0.086955495 -0.027694225
000360 54 be 4b bd de 47 9f 3c c0 f8 68 3d 64 db 85 3d
       -0.049742058 0.019443449 0.05687785 0.06535986
000370 72 45 ef bc 0c e4 87 bd 5a 0d 71 bd 57 a5 0e 3d
       -0.029207919 -0.06635293 -0.058850624 0.03482565
000380 1f 14 83 bd 83 71 b4 bd e7 24 78 ba 80 57 8f bd
       -0.06400322 -0.08810713 -0.0009465948 -0.06999111
000390 a7 bf 5e 3b 1d ad 6c 3d 9e d0 a4 3d 51 c3 ff 3c
       0.0033988745 0.05778228 0.08047603 0.031221064
0003a0 8a c3 dd bc ea 7f 7f 3d 65 b3 96 3d 3f fa 9a bd
       -0.02707078 0.062377848 0.073584355 -0.07567262
0003b0 82 ad 8c bd c9 50 70 3c c8 cd 48 3d e0 5a 68 bd
       -0.068690315 0.014667698 0.049024373 -0.05672729
0003c0 fe a8 25 bb e3 9e 05 3c e0 d1 59 3d 2b 20 66 3d
       -0.002527773 0.008155557 0.053178668 0.05618302
0003d0 bb 90 80 3d 5b 15 ad bb 58 e7 89 3d d2 a8 07 3d
       0.06277605 -0.005282087 0.067335784 0.033119984
0003e0 28 96 4c 3d 98 3e 5d 3d d4 28 e8 bc 66 17 5a bd
       0.049947888 0.054014772 -0.02833978 -0.05324497
0003f0 ff 58 a1 bd 29 ab a1 3d 7f 96 c7 3c 8e e2 22 bd
       -0.07878303 0.07893974 0.024363754 -0.03976684

decoder.weight f4 [128, 128]
000000 73 14 4c 3d d3 39 a1 3d 2c 71 40 bd 22 bf 6d 3d
       0.04982419 0.07872357 -0.04698293 0.058043607
000010 70 21 04 bd 01 e6 34 bd 25 47 89 3d 4c 98 f5 3b
       -0.03225845 -0.04416466 0.06703023 0.007494962
000020 f0 ad 65 3d e7 ca a8 bd f8 8b 95 bd 65 54 78 3c
       0.056074083 -0.082418256 -0.073020875 0.01515684
000030 37 8b 90 bc bf 01 ff bb 5e 47 84 bd b9 17 f5 bc
       -0.017644508 -0.0077821906 -0.06458925 -0.029918538
000040 0d 5b bb 3c 20 05 04 3d 00 6a b1 3d 52 88 d4 3c
       0.022870565 0.03223145 0.08662796 0.025943909
000050 77 83 25 bc 38 dd 4e bd 41 db 8c 3a c6 a0 84 bd
       -0.010102144 -0.05050394 0.0010746495 -0.064759776
000060 9a e8 84 bd 46 30 6c bd 24 fe 94 bd dc 69 b3 3d
       -0.06489678 -0.057663225 -0.07275036 0.087604254
000070 e2 8a 8b 3d d2 6d 6f bb 9d a1 84 3c 1c 0a d5 3a
       0.06813599 -0.0036533964 0.016190344 0.0016253623
000080 3b 13 18 bd d3 7b 84 3d 9d e8 0c 3c 30 01 89 bd
       -0.037127715 0.0646893 0.008600381 -0.066896796
000090 eb 90 97 bd 12 96 05 bb 56 79 92 bd f2 67 ac 3d
       -0.07400688 -0.0020383638 -0.07152049 0.084182635
0000a0 64 35 1d 3d b4 66 7f bd ad 1e b8 bc e9 6b 45 bb
       0.038380995 -0.062353805 -0.022475565 -0.0030124134
0000b0 f2 d5 53 bd a1 26 ce bb 26 94 42 bd a7 a3 a9 bd
       -0.051717706 -0.006291226 -0.047504567 -0.08283167
0000c0 91 82 5d 3d 9f bc 62 3d 59 9a f9 3c ee ae 27 3d
       0.054079596 0.055355664 0.030469107 0.04093831
0000d0 ff 28 17 3d 11 55 a2 bc ed 4c 8c 3c 25 40 42 bd
       0.03690433 -0.019815953 0.017126525 -0.047424454
0000e0 e8 6e 86 3d fa a0 22 3d db 30 b5 bd b4 4f de bc
       0.065641224 0.0397043 -0.08847209 -0.027137615
0000f0 6a c8 80 bd f8 25 26 bd a7 f2 9e 3d d5 de a0 3d
       -0.06288226 -0.040563554 0.07761126 0.07855002
000100 d6 f0 a0 3c 38 f9 96 3d bc 17 a0 bc 36 e1 b3 bd
       0.01964609 0.073717535 -0.019542567 -0.0878319
000110 89 c7 0f 3c b6 87 ff ba cd 09 15 3d f8 af 5a 3d
       0.0087756 -0.0019495401 0.0363863 0.053390473
000120 0e c6 4c bb cc c3 ad 3d 87 72 90 bd 1b cb f0 3b
       -0.003124598 0.08484611 -0.07053094 0.007348431
000130 64 bf 9b 3d 41 0d a3 3d 18 74 6b bd 61 ba b0 3c
       0.07604864 0.07961512 -0.057483763 0.021573247
000140 cd 92 7a bd 0b 12 d0 3c 6a 8c 63 bd 9d d9 80 3d
       -0.061175156 0.025399229 -0.05555383 0.062915064
000150 b1 ce 64 3d fe fc 30 3d 78 fd 0b bd 8a d6 6e 3d
       0.05586118 0.043210022 -0.034177274 0.05831007
000160 e7 fe 93 3d 27 81 7c 3d d4 41 d4 3b 1f b7 af 3d
       0.07226353 0.061646607 0.006477574 0.085798495
000170 7e 1e 63 3d 4e 1d 0b 3d 82 32 42 3d db 55 87 bd
       0.055449 0.033963494 0.04741145 -0.066081725
000180 87 f6 aa 3d af 3a 2c 3d 3b 5d ff ba 23 42 7d 3d
       0.083478026 0.042048153 -0.0019482741 0.06183065
000190 3d 89 b0 3c 7c 3d d0 bc 70 ce e6 bb cb ed 31 bc
       0.021549815 -0.025419943 -0.0070436522 -0.010859917
0001a0 45 7c 52 3d 55 a1 33 bd b1 9d bf 3c 42 cb 8a 3d
       0.051388044 -0.04385503 0.023390623 0.067770496
0001b0 4e 4c 8e 3d 7d c4 69 bc e4 c7 9e 3d 13 80 5d 3d
       0.06948148 -0.014268038 0.0775297 0.05407722
0001c0 cd bb 2b 3d fa 77 9f 3c 07 6b 2e 3d 94 41 38 bd
       0.041927148 0.019466389 0.042582538 -0.044984415
0001d0 16 25 10 bd 94 db 65 bd 13 4b 80 3c b6 e1 ad 3c
       -0.035191618 -0.05611761 0.015660798 0.021225791
0001e0 bc 0b 8a 3d 28 fe a0 3d 51 94 a4 bd 74 70 95 bd
       0.067405194 0.078609765 -0.080361016 -0.07296839
0001f0 27 c1 b2 3d 2e 54 8e 3d 11 ad 19 3c 1c 06 1b 3c
       0.08728247 0.0694965 0.009379641 0.009461906
000200 95 3d a5 bd c6 ad 0b bc 4c f1 10 3d 77 33 64 3d
       -0.080683865 -0.008525318 0.03538637 0.055713143
000210 cd 5a 7a bd 53 9b 8c 3d b9 16 c0 bc b5 fd 02 bd
       -0.06112175 0.06865563 -0.023448335 -0.031980235
000220 e0 83 1d 3b b3 10 d0 bc b4 c4 32 3c a4 06 0f 3d
       0.0024034902 -0.025398588 0.0109111555 0.034918442
000230 23 a6 d1 bc 5c d6 3b bd 03 ef 91 3d 60 f6 93 bd
       -0.025591915 -0.045858726 0.07125666 -0.07224727
000240 8c a6 09 bd 0b e1 31 3d 5c 17 31 3d 9b 88 98 3d
       -0.033606097 0.04342751 0.043235168 0.074479304
000250 12 9a 92 bd c7 d4 9e 3d 88 7b a1 bd c2 54 ae bb
       -0.07158293 0.07755428 -0.0788489 -0.0053201625
000260 97 4a 22 bd ec 34 b8 3c d3 e3 5e bc 34 f6 a9 3d
       -0.039621916 0.022486173 -0.013604122 0.08298913
000270 d1 3b 88 bd a5 6e f6 3c 1f 34 36 3d ad e0 36 bd
       -0.06652034 0.030082056 0.0444833 -0.04464786
000280 52 27 1f 3b c1 44 87 3d 92 01 88 3d 5c 02 99 bd
       0.0024284911 0.06604911 0.066409245 -0.07471153
000290 69 fd 5b 3d 20 0a 7b 3d b2 f0 e2 bb a6 41 9a bd
       0.053708468 0.061288953 -0.006925666 -0.07532053
0002a0 80 64 7c bc 30 1a 1b bd 61 6e a4 bd f0 d5 71 3d
       -0.01540482 -0.03786677 -0.080288656 0.059041917
0002b0 d9 80 4b bc 5c 70 b3 bd d7 82 66 3d f7 06 a5 bd
       -0.012420856 -0.08761665 0.056277122 -0.08057969
0002c0 26 10 24 3d da 17 70 bc 00 c8 a6 3d 15 1f 63 3d
       0.040054463 -0.014654124 0.08143616 0.055449564
0002d0 c8 62 85 bd 52 48 69 bd 27 57 48 bc 30 1d b2 bc
       -0.06512982 -0.056953736 -0.01222781 -0.021742433
0002e0 34 04 8d 3d 20 80 b0 3d f4 e0 62 bd 87 a2 6e bd
       0.06885567 0.08618188 -0.055390313 -0.058260467
0002f0 3e 28 95 bd fb 92 80 3d 78 3c 6d 3d 72 46 d8 3c
       -0.07283066 0.06278034 0.057918996 0.026400778
000300 a1 f4 ac b9 1b 92 14 bd bb 50 5f bd e2 f6 11 bd
       -0.0003298866 -0.03627215 -0.05452035 -0.035635836
000310 cb 4b 60 bc 55 88 4a bd 8a b3 72 3d fd 68 3e 3c
       -0.013689945 -0.049446423 0.059253253 0.011621711
000320 13 fc 87 bc be 39 0a 3d ce 51 95 3b 94 d1 81 3d
       -0.01659969 0.033746473 0.004556871 0.06338802
000330 25 0b a7 bd fb 55 0b 3d 20 ec 98 bd 8f e7 32 3d
       -0.081564225 0.034017544 -0.07466912 0.043677863
000340 4d 8a a1 bd 5d 9a e8 bc af 86 35 bd c4 3b ca 3c
       -0.07887707 -0.028393919 -0.044317897 0.024686702
000350 75 9f 27 bd 44 1f ab bd 22 2c d8 bc bd b7 f3 3c
       -0.040923554 -0.08355573 -0.026388232 0.0297507
000360 b6 85 98 bd 9c 4d 0d bd 15 5a 78 3c a8 3b b0 bd
       -0.07447378 -0.034497842 0.015158196 -0.086051285
000370 fe 2e 93 3d c6 14 29 bd 7a a1 a3 bd 4f 98 f2 bb
       0.071866974 -0.041279577 -0.079897836 -0.0074034105
000380 7d 34 8b bd 47 a2 10 3d 12 c7 56 bd e3 b8 80 3d
       -0.06797121 0.03531101 -0.052435942 0.06285264
000390 ba 66 55 3d c0 49 5d bd c7 5b ac bb 9e e2 a3 bb
       0.05209992 -0.05402541 -0.005259964 -0.00500138
0003a0 a5 46 97 bb be 8b b3 bd 79 b0 83 3d 7f 06 10 bd
       -0.004616576 -0.08766888 0.06430144 -0.035162445
0003b0 b6 f1 94 bd ab da 79 3c e2 83 c8 3c a5 4b af 3d
       -0.07272665 0.015249888 0.02447695 0.0855935
0003c0 51 e4 7a 3d af 63 09 bd 99 46 b2 3d 61 f4 ca 3c
       0.061252896 -0.03354233 0.08704872 0.024774732
0003d0 fc 1e c0 3c 08 41 a3 3d c4 58 35 bd a4 07 0e bb
       0.023452275 0.07971388 -0.044274107 -0.0021672035
0003e0 33 3e 18 bc 97 0b 20 bb 78 5c 19 bd e0 40 a1 3d
       -0.009292173 -0.002442097 -0.0374417 0.07873702
0003f0 60 75 b0 bd a1 f7 2e 3d df d4 b3 bd df 87 56 3d
       -0.086161375 0.042716626 -0.08780836 0.05237567
