results/scratch/12owob2t/sae_299/model.pth (torch, 263199 bytes, 2 tensors)

encoder.0.weight f4 [256, 128]
00000000: 9870 4fbd f680 a73d 32f1 86bd 9b9e 823b
00000010: 2a22 48ba 5beb 703d 26df 633d 24bd 503d
00000020: 99c0 d6bb 1f82 7f3c 2096 d13c 4ed7 c2bb
00000030: 2ef5 09bd fe86 20bd f40c 5abd ab73 643d
00000040: 64c1 c5bc ab8c 03bb c153 1dba 524a 3f3d
00000050: 1803 433d a37b 663c 3537 9b3d 7b04 993d
00000060: bd90 9fbd e996 3fbd 60ce 83bd e7a0 7f3d
00000070: 31a5 a13d c637 e5bb c0c5 213b 9123 c8bc
00000080: 883b 163c b8eb 90bc fa85 08bd 2ddc a8bd
00000090: a037 5ebd 76b1 013d 226f c13c 4896 94bd
000000a0: 471a 6bba bee7 6b3d 7819 8cbb 11fd 7a3b
000000b0: 0f18 823d 27ad 6dbd 1e2c 81bd ff7b 7d3d
000000c0: 27ba 87bc ad27 de3c 803a 80bd 8222 593d
000000d0: c3b4 773d 1097 e23c 552d 053d 6ac7 0b3a
000000e0: e7f2 51bd 437d 94bd 51a5 0c3d 31d9 9d3d
000000f0: 9f7b dabc b6c1 f23c 8609 49bd e830 41bd
00000100: 6de4 22bd b708 c1bc bf8a 73bd 72ae 1a3d
00000110: cf6a a9bc 4e54 243d eb48 c73c 1212 b33d
00000120: 67cf 323d 914c 50bd 4573 91bd 3214 513d
00000130: 2915 1fbd 8f0d 3abd 6279 463d 9905 b53d
00000140: 8b90 b23d 8d0a 863d 0ba3 5339 3e68 4bbd
00000150: 7a2f 79bd 2f37 c73c 0e19 d6bc 74b7 ffbc
00000160: 3e40 8b3d edc1 a93c 0246 9a3d 20eb 08bb
00000170: f401 e2bc 0cb3 443d 37c1 97bc c843 a3bd
00000180: 22ed b23c 2116 603d a230 8c3d 66a6 26bd
00000190: e79f 10bc 9c90 0ebd 16b2 d33b c8a1 a83d
000001a0: 0cdc 563d 1d7e af3b ef68 453d 9515 99bd
000001b0: 5896 babc 0053 8cbc e515 993d a4d6 32bc
000001c0: 4243 0e3d fa4d b03d 3d30 aebd 8f6f 673d
000001d0: 2307 a93d 4000 92bd b940 05bd 3a01 4abd
000001e0: 0f01 183c 0841 4f3d 8812 0a3d 1635 313d
000001f0: 37ec 653a f3f7 aebd bec9 1b3d 0972 913b
00000200: 87fa 76bd ee6e 82bc 7713 08bc 786a 573d
00000210: cc06 1d3d 8806 663c 8563 363d 6476 723d
00000220: da82 2e3c 16ea f5bc d3e4 8cbd b434 aabd
00000230: c833 163a a362 2ebd 9468 43bd c1f0 b23d
00000240: 2023 b8bc 7814 9fbd e4b2 b13a ae48 1abd
00000250: e58b 383d 06c1 14bd 569b 453d af09 82bd
00000260: 962c 5d3d df2e 38bc 0c6d 483d b1db 103c
00000270: 20d3 f5bc d2f9 b8b9 ba8e 16bd 1f96 95bd
00000280: 514b a0bc 679c c3bc 597c d8bb 19dd a83d
00000290: 45cd 6a3b 95eb cfbc 01d9 823d e221 033d
000002a0: 865e 5cbd 998c be3c f4c6 82bd 3984 63bd
000002b0: 7679 3dbd b659 2dbd 3776 6cbd 9d37 26bd
000002c0: 9997 ba3c 7683 96bb fa4e 0dbd d053 4bbc
000002d0: 3b64 3abd 712e 8abd e191 38bd bbc6 abbc
000002e0: ad9e b8b9 2782 60bd 81c8 babc f69b 213c
000002f0: d782 93bd 0db3 91bd 4ea3 813d fb1c 343d
00000300: 3176 b13d b827 3fbc 3a0b 593d e276 3bbc
00000310: f956 813b 74f8 153d 0412 48bd 3fe2 92bd
00000320: e660 f1ba 36de 80bd 880b 293d b4f3 bc3b
00000330: e3a0 1e3d a3b5 9abd c1b4 383d da6d 09bd
00000340: fe04 963d d138 3f3d f9a1 07bc a27b 63bd
00000350: 120b a7bd 516b 80bc 92e7 763d 8929 afbd
00000360: 2f9a 2ebd 80bc 1dbc a83d c03c be83 943c
00000370: da0b 3bbd 1091 06bd 1a87 013d 469d cfbc
00000380: 8655 30bc 5e1f 53bd 0f4c 95bd 7441 223d
00000390: 037e b3bd 7b95 43bd 4a72 f43c d9c4 233d
000003a0: 4548 fc3c 973f 13bd 026c 82bd 0e4e f13c
000003b0: 30c1 6f3d 6607 903d 8a61 88bd ebdc 863d
000003c0: 7eb4 20bd 56ac d1bb 58c9 713c 3cbb 683d
000003d0: f4ac 473c 3cab 623d 8a23 8fbc 9719 023b
000003e0: ec68 b3bd 2dd2 6bbd 0701 33bd 6f3d 803c
000003f0: 8719 b53b 0617 8f3d 6cb6 a3bd 06a1 28bc
-0.050644487 0.08178894 -0.06588973 0.0039861924 -0.00076344854 0.058818202 0.055632733 0.05096163
-0.006553721 0.015594988 0.02558428 -0.0059460765 -0.033681087 -0.03919124 -0.05323501 0.055774372
-0.024140067 -0.0020072858 -0.0006001555 0.046701737 0.047610372 0.014067563 0.07578889 0.07471558
-0.077912785 -0.04677478 -0.06435847 0.062409308 0.07892836 -0.006995174 0.0024684519 -0.024431022
0.009169467 -0.017690524 -0.033330895 -0.0824512 -0.054252267 0.03166338 0.023612563 -0.072552264
-0.0008968454 0.057594053 -0.004275497 0.0038297812 0.06352245 -0.05802646 -0.06307243 0.06188583
-0.016568257 0.027118528 -0.06261158 0.053011425 0.060475122 0.027659923 0.032513935 0.0005332144
-0.05125704 -0.07250454 0.034337346 0.077074416 -0.026670275 0.029633384 -0.049081348 -0.04716578
-0.039768625 -0.023563726 -0.05945849 0.03776402 -0.020680813 0.04011946 0.024326762 0.08743681
0.043654826 -0.05085427 -0.07102064 0.05104465 -0.03883854 -0.045423087 0.048455603 0.08838958
0.08718976 0.06544981 0.00020183266 -0.04965996 -0.060836293 0.024318306 -0.026134994 -0.031215407
0.067993626 0.020722354 0.07532884 -0.0020892099 -0.027588822 0.048022315 -0.01852475 -0.079719126
0.02184159 0.054708604 0.068452135 -0.040686034 -0.008827186 -0.03480588 0.0064604385 0.08233982
0.052455947 0.00535561 0.048195776 -0.074748196 -0.022776768 -0.017129421 0.07474879 -0.010915432
0.03473211 0.08608623 -0.085052945 0.056502875 0.08253314 -0.07128954 -0.032532427 -0.049317576
0.009277596 0.050599128 0.03370908 0.043263517 0.00087708555 -0.08543386 0.038034193 0.004438643
-0.060297515 -0.015922036 -0.008305422 0.05259177 0.03833656 0.014039643 0.044528503 0.059194937
0.010651315 -0.030018847 -0.06879582 -0.083108336 0.0005729762 -0.042574536 -0.047707155 0.087373264
-0.022477686 -0.07767576 0.0013557342 -0.03766697 0.04505529 -0.036316894 0.048243843 -0.06349503
0.0539976 -0.011241644 0.04893212 0.008841441 -0.030007899 -0.00035281345 -0.03675721 -0.07304024
-0.019567164 -0.02387829 -0.0066066203 0.08245296 0.0035827917 -0.025380889 0.063890465 0.032014735
-0.053801082 0.023260402 -0.063856035 -0.05554602 -0.046258412 -0.042321883 -0.057729926 -0.04058038
0.022777366 -0.004593308 -0.034499146 -0.012410119 -0.045505743 -0.06747139 -0.045060996 -0.020968786
-0.00035213438 -0.054811623 -0.022800686 0.009863844 -0.0720269 -0.07114229 0.06329976 0.04397295
0.08665121 -0.0116671845 0.052989222 -0.011441918 0.0039471355 0.036613896 -0.048845306 -0.07172059
-0.0018415719 -0.062923834 0.041270763 0.0057663564 0.038727652 -0.07554176 0.045094255 -0.03355203
0.07325171 0.046685044 -0.008278363 -0.055537827 -0.08156408 -0.015676172 0.060279436 -0.08552844
-0.04262751 -0.009627461 0.0234669 0.018129226 -0.0456656 -0.032853186 0.031622984 -0.025343549
-0.010762578 -0.051543586 -0.07289898 0.039613202 -0.08764269 -0.047749978 0.029839654 0.03998265
0.03079618 -0.035949316 -0.06368257 0.029456165 0.058533847 0.07032661 -0.06659229 0.065851055
-0.03923463 -0.006398718 0.014757477 0.056819186 0.012187231 0.055339083 -0.017473001 0.0019851679
-0.08760247 -0.057573486 -0.04370215 0.015654294 0.0055267247 0.06986813 -0.079937786 -0.010292297

decoder.weight f4 [128, 256]
00000000: 1cca be3a 0649 1abd 9019 79bd 0c5a 98ba
00000010: d085 043c b0b2 223d e099 eebb 622b 4cbc
00000020: 424d 213d 41c9 82bc 33a6 063d 1685 50bd
00000030: 050a 433c be5f 323d 77f2 27bc 383e f8bc
00000040: 79d8 783d da94 75bc d342 3c3d d5e8 603d
00000050: 2e09 07bd d5b6 f73c b1c9 413d 1af6 31bd
00000060: 9da9 67bd 0abe 4bbd bc32 5ebb 90c6 773d
00000070: ec49 3d3d 03f6 78bc 5221 16bd 208e 88bc
00000080: 7cd2 bc3c 488e 5f3d 2b22 05bd 8e2d 023d
00000090: 317d 82bc 3f6a c7bc 90ae 27bc 4ced 87bc
000000a0: 16a8 34bd a2ca 23bd 8bbb 503d c9f9 02bd
000000b0: 95a2 2cbd 5227 3b3d 88ce 0e3a eb59 76bd
000000c0: 0e0f 4e38 c157 be3c 13f1 3a3d aef6 82bc
000000d0: a870 7f3d 9a28 94bc 2bcb 5fbd 9bf2 353d
000000e0: 802f 6e3d c0ef d03b 39a0 c43b a8a2 153d
000000f0: 8462 723d 6057 cf3b 6fff 093d 5755 e9bc
00000100: 611a 3abb 8165 4bbd 4c6f 633d 1661 333d
00000110: 8b5b a4bb d00c 123d 2c21 2cbd a33b aabb
00000120: e867 313c 65d5 313b ac49 c4bb d00b fa3b
00000130: f4e1 ecbc d684 223d 7d41 863c fc79 03bd
00000140: dc11 f0bc 9fd4 723d 37d5 0fbd 11c3 fcbc
00000150: 20c8 d9bc 12a4 68bb 520c 5d3d c477 493d
00000160: 28eb 0ebd ba28 a33c 9432 4e3d 3c80 6abd
00000170: 9071 22bc 4d65 3bbd 2c52 363b b3df 05bd
00000180: 51de 5a3d 2af1 38bd 6884 2438 d439 9c3c
00000190: 9073 993b 32a2 5ebd dd5b 333b e2ac 24bd
000001a0: bae0 483d fea6 72bd e461 13bc 849f c43c
000001b0: 8548 1f3d b5be 903c 52db 3bbd 4740 343d
000001c0: aded 5cbd 1d00 ed3c c404 48bd 8aef 513d
000001d0: c531 3e3d 0a74 6b3c c026 9d3c d467 fe3c
000001e0: 19d4 523d 45b5 293d f483 4c3d e77e 20bc
000001f0: 0499 bbbc 6060 20bd c318 683d b947 3d3d
00000200: 8b7a 6f3d 1cc1 c2bc 4eb3 633c 1843 76bc
00000210: 2029 1fbc 7044 f83b 6d25 913c 3c85 96bc
00000220: 1a28 ab3b ae96 86bc 6fec 1fbd 81c7 ebbb
00000230: fb8c dd3c 5a33 0dbd 3e46 d0bc 2897 57bd
00000240: 7cde 193d 06ff 723d 5fe1 00bc db35 a8bc
00000250: fc8d 11bd 1b49 3c3d 1a22 a9bc dd8e 693d
00000260: 6868 0fbd a9e7 3fbc f435 d43c 5140 95bc
00000270: 6e72 02bd ecb0 783d 492c 37bd 33dc 5a3d
00000280: 8c16 c23c 5b4b d0bc a8f6 cdbc 6f52 60bd
00000290: b113 39bd 9d2e dabc b7aa e43c e9e8 1abd
000002a0: 8cab b2ba 91f2 04bc 09a6 d03c 403c 243d
000002b0: 5a5a 1a3d e7f3 a43a c515 da3c 20fc 91bb
000002c0: 4b8b 6bba 080f 3dbd a9e1 e3b9 b76a b13c
000002d0: df76 69bd 3677 0c3c 1a88 05bd 3609 63bd
000002e0: 82ab 30bd 5bc5 69bc a199 61bd 7d60 483d
000002f0: 1a8f c4bc 863d 37bd f901 84bc 66f3 93bc
00000300: e143 833c 9317 b8bc 805f 5d3a ecb4 07bd
00000310: 1033 133d b6e3 123d 4832 3d3c 6599 3ebd
00000320: 8a83 a7bb 0903 1cbc 584c e0bc 435b bdbc
00000330: 12b9 f1bc 0c2a 953c 5054 e03b 765f 15bc
00000340: 2a83 3a3d 6fe7 6dbd ed4a 353d 6039 50bd
00000350: 33aa c63c 3de9 443d 4652 6dbd d2f7 cb3c
00000360: acd2 793d e09b 4cbc d0be 493d a856 f73c
00000370: ca1d 89bb b9d7 08bd 851f 2d3d f0bc cbbb
00000380: 5ef2 6abd 18cb 91bc 4bf8 41b8 ae63 78bd
00000390: 68ed 83bc 45e8 733b db8b 31bd 3856 5abd
000003a0: 1aba 883c 7bbb c3bc 4373 163c 1870 56bd
000003b0: d63f 3f3d 3860 2bbd e19b 883c c4cd b7bc
000003c0: 3ddd 1ebd d261 5cbd b281 113c f88d 393d
000003d0: 9716 3dbd 2310 65bd 6833 67bc 8629 24bc
000003e0: cf81 003c 9bb5 17bd b157 34bd 6aa0 7dbd
000003f0: a73b 7d3d 30a1 49bd 87b9 6f3d e2a9 f43c
0.0014556083 -0.037667297 -0.060815394 -0.0011623516 0.008088544 0.03972119 -0.007281527 -0.012461515
0.03938032 -0.015965106 0.032873344 -0.05090817 0.011904244 0.043548338 -0.010250679 -0.030303106
0.06075332 -0.014989102 0.045962166 0.054909546 -0.03296774 0.030238548 0.04731149 -0.04344759
-0.05655824 -0.049741782 -0.0033904752 0.0604921 0.046213076 -0.0151953725 -0.03665287 -0.016669333
0.023049586 0.05457905 -0.03250329 0.031781726 -0.015928837 -0.024342654 -0.01023449 -0.016592644
-0.04410561 -0.039988168 0.050960105 -0.031976495 -0.042147238 0.045691796 0.00054476457 -0.060144346
4.9128248e-05 0.023235204 0.045640063 -0.015986767 0.062363297 -0.018085767 -0.054637115 0.04442082
0.05815077 0.0063762367 0.0060005453 0.036532074 0.059175983 0.0063275546 0.033690866 -0.028483076
-0.002839707 -0.04965735 0.055526063 0.04379376 -0.0050157956 0.03565675 -0.042023823 -0.0051950975
0.010827996 0.002713525 -0.0059902277 0.0076308027 -0.028916337 0.039677463 0.01638865 -0.032098755
-0.029305391 0.059284803 -0.035115447 -0.030854734 -0.026584685 -0.0035498184 0.053966828 0.049186483
-0.03489223 0.01991688 0.050341204 -0.0572512 -0.009914771 -0.045750905 0.0027819974 -0.03268404
0.053434674 -0.045151867 3.922396e-05 0.019070543 0.0046829656 -0.0543539 0.0027367987 -0.040203936
0.04904244 -0.059241287 -0.008995507 0.024001844 0.03888752 0.017669061 -0.045863457 0.044006612
-0.053937603 0.028930718 -0.04883267 0.051253833 0.046434183 0.014370928 0.019183517 0.031055368
0.051471803 0.041432638 0.049930528 -0.009795881 -0.022900112 -0.03915441 0.05666424 0.04621098
0.058466475 -0.023773722 0.01389773 -0.015030645 -0.009714395 0.0075765178 0.017718041 -0.018374078
0.0052232863 -0.016429272 -0.03904384 -0.0071954136 0.027044764 -0.0344728 -0.02542412 -0.05263439
0.037565693 0.05932524 -0.007866233 -0.020533493 -0.035535797 0.045968156 -0.020646144 0.05702101
-0.03501168 -0.011712947 0.025904633 -0.018219145 -0.03184741 0.0607156 -0.044719968 0.053432655
0.023692392 -0.025426557 -0.025142029 -0.054766115 -0.045184795 -0.026633555 0.027913434 -0.037819777
-0.0013631447 -0.008114473 0.025469797 0.04009652 0.037683822 0.0012584896 0.026621709 -0.0044551045
-0.0008985295 -0.046156913 -0.00043464944 0.02165733 -0.05699813 0.008573344 -0.0326005 -0.055428706
-0.043132313 -0.014268245 -0.055078153 0.048920143 -0.023994017 -0.044736408 -0.016114222 -0.018060397
0.016023578 -0.022472179 0.00084447116 -0.033131525 0.03593737 0.035861693 0.0115476325 -0.046533007
-0.005112116 -0.009522208 -0.027380154 -0.023114806 -0.029507194 0.018208526 0.0068459883 -0.009116998
0.045535244 -0.05808204 0.044260908 -0.050835967 0.02425108 0.048073996 -0.05793979 0.024898443
0.060991928 -0.012488335 0.04925424 0.030192688 -0.0041844593 -0.033408854 0.042266387 -0.0062175915
-0.057360046 -0.017797038 -4.6246027e-05 -0.060641937 -0.016104415 0.00372173 -0.043346267 -0.05330488
0.016690303 -0.023893109 0.009182754 -0.052352995 0.046691738 -0.04183981 0.016675891 -0.022436984
-0.038785208 -0.053804226 0.008881019 0.045301408 -0.04616412 -0.055923592 -0.014111377 -0.010019666
0.007843449 -0.037038427 -0.04402894 -0.06192056 0.061824467 -0.049225986 0.058526542 0.029866163
