results/scratch/12owob2t/sae_400/model.pth (torch, 132127 bytes, 2 tensors)

encoder.0.weight f4 [128, 128]
00000000: 80bf 8e3c 4e5e 713b aaa5 093d 6628 b4bd
00000010: d077 da3c 140e 64bd a07f 1f3d 7530 96bd
00000020: 81be ea3c 99d2 123d 2353 ca3c 47dc f3bc
00000030: 31aa dabc 6f48 143d e4e2 203d e38c f23c
00000040: da42 263d 4d60 e03b a5e4 0fbd 23ff b3bc
00000050: 1b4b 3e3d 13c8 943d 712d 6d3d 51e4 27bc
00000060: f285 aebc 312b 873c 0730 46bc f177 883d
00000070: 84e4 8a3d 7a73 9e3d edbb 72bd 2ecc 91bc
00000080: ac9a 82bd 8e23 d7bc 1d2d 6b3d 5fb4 07bd
00000090: 9e18 76bd 5585 273d 9110 a73d b7ef 4d3c
000000a0: 3e50 663b 81b2 4a3c 2e32 093c d5a6 a5bd
000000b0: 9597 633d 4aef 3d3d 9904 e7bc ae7c a7bd
000000c0: a0b3 353d 712c 92bd de11 713d dfd7 913a
000000d0: d53e 973d d6d4 fdbc f8a1 803d 5f55 3c3d
000000e0: cade 92bd 2b58 d53b 0d6d d03c 0153 de3c
000000f0: c4f5 2bbd ad8a 43bd a8b4 a6bd 1f46 a13c
00000100: d2fb 793d 0d51 6cbd 2e71 43bd 368c b63c
00000110: 066b 493d dec9 e7bb 05df 2fbb 330b 713d
00000120: 876d 7a3d 34f0 36bd 17a4 8ebd 5bff 43bd
00000130: 2505 77bd 72d6 913c 1b8c 89bd 4abd 833c
00000140: 9032 fabc 2edb 143d c78e d93c 8b27 8b3b
00000150: 30ee 4bbd 033b a63d 44c8 143d a9cd 81bc
00000160: 263f b43d c5d8 9a3d 5045 a6bd fb90 abbd
00000170: 8ced 793d dc94 a83d 4e08 53bb 61b5 aa3c
00000180: 53e0 6f3d fa66 55ba 2a57 293d 34de 773d
00000190: 308f 153c f704 61bd b5fb 623d 78f3 333c
000001a0: c605 87bc 4a8e 1fbd 32bd 843d 89bf 303d
000001b0: 1665 823d cbd4 36bd d7c8 893c 9df1 943b
000001c0: 84b8 8b3d c10b a8bd 951d c5bb 7771 3b3d
000001d0: 4ce2 c13c 3823 f63c b56f 8cbd f3d6 9cbc
000001e0: f4c3 83bd 4766 b23d 475d acbd 30ce 463d
000001f0: 8138 1c3d 3ffd 393d ea1e 78bd a78f 1cbd
00000200: 8b28 fabc 9f10 953b dcf1 633d 6752 ac3d
00000210: 81a0 7d3d 2aaf cd3c b0ea ab3d f9a4 57bd
00000220: c1f3 d33c 43bf 9a3d a432 3d3d b8b6 86bd
00000230: 27a4 bd3c 99ea 6d3d 9af0 4abd b857 a73d
00000240: ccc3 4bbc d627 07bc a1a8 8f3d 3ce4 63bd
00000250: 4600 353d 8580 833d a4a4 85bd 39c4 75bd
00000260: ad20 473d 00d1 993d 617d c6bc a3c7 48bd
00000270: b8cf 43bc 6235 99bd 187e 34bc 50c2 573d
00000280: f7ac 5bbc 0d1b adbd 1503 aebd 9b8d 9c3d
00000290: a561 a83d 3a80 263d 0bcc 8f3d 171b 763d
000002a0: a098 413d a44d a6bb 57ea 5ebc bbbb debc
000002b0: 538e bbbc 6b5f 8e3b c18a e9bc 6f73 9e3d
000002c0: b6b2 97bd 14f3 323d 9354 2d3c eee8 37bc
000002d0: 6da0 783d fd63 663c 1bd6 ac3c e880 703d
000002e0: bb64 94bd 51bc 02bc 97c1 5d3d 99c7 80bd
000002f0: d5de 89bd fc3b b43d 54c3 56bc 5cc3 4bb9
00000300: 89fd 6d3d 1202 9ebd a4e7 953d 4e92 9bbc
00000310: b1c2 a5bd 5f02 65bd aeb5 cc3c 6bb4 e33c
00000320: 2c59 29bd df8b 873d 865a afbd 8502 da3c
00000330: 5ec8 b03d 0753 69bd 1ef4 7fbd ea80 843d
00000340: 5752 ef3b 9f3e 69bd 53b0 6d3d 5aa5 6a3d
00000350: 88fa 853d 8874 413d 5aa9 88bd 6301 10bc
00000360: 2b07 77bb 6dc7 403d 0af4 49bd 3652 c9bc
00000370: 0917 85bc ecec 3b3d 122f 15bd e319 a5bc
00000380: ab70 af3d 9090 863d ff0a a43d 3929 8abc
00000390: bea1 883d a112 05bd 7a5d 493c f272 83bd
000003a0: ef5c f8bb 0146 863d f3e6 6ebd 82e9 9abc
000003b0: 14f2 6b3d c386 2dbd 34ce a8ba 270e b7bb
000003c0: f3ae 91bc 8a02 943b 34cb 2b3d 5632 7a3d
000003d0: 12a0 7cbd 9ea7 503d 5397 8f3c 09e6 d13c
000003e0: 82aa 61bc e272 84bd b89a e43c 6570 6bbd
000003f0: f15e 0c3d 222d a7bd a1cc 673d 3080 133d
0.017425299 0.0036829892 0.033605255 -0.08796768 0.02666846 -0.05567749 0.038940072 -0.07333461
0.028655292 0.035845373 0.024697846 -0.029768122 -0.026692482 0.03620189 0.03927888 0.029608196
0.0405911 0.0068474174 -0.03513016 -0.021972245 0.046458345 0.07264724 0.057904664 -0.010247306
-0.021304104 0.016500087 -0.012096412 0.06663502 0.06781867 0.07736869 -0.05926125 -0.017797556
-0.063771576 -0.026262071 0.05741607 -0.033131 -0.06008207 0.04089864 0.08157457 0.0125693595
0.0035143043 0.01237166 0.00837378 -0.08088461 0.05556448 0.046370782 -0.028200435 -0.08178078
0.044360757 -0.07137383 0.05885493 0.0011126957 0.07385031 -0.030985277 0.06280893 0.045979854
-0.071714 0.0065107546 0.025442624 0.027139189 -0.041982427 -0.047739673 -0.08139926 0.019686757
0.06103117 -0.057694484 -0.04771536 0.022283655 0.04917433 -0.007073625 -0.002683581 0.05884857
0.06113961 -0.04466267 -0.069648914 -0.047850948 -0.06030764 0.01780245 -0.06716176 0.016081471
-0.030541688 0.03634184 0.02655734 0.0042466572 -0.0497877 0.08116724 0.0363238 -0.015845137
0.08801107 0.07560877 -0.08118689 -0.08377262 0.061017558 0.08231518 -0.0032200995 0.020838441
0.05856354 -0.000814065 0.04134289 0.060514644 0.009128377 -0.054936375 0.055415828 0.01098334
-0.016482245 -0.038954057 0.06481399 0.043151412 0.06366937 -0.04463653 0.0168194 0.004545404
0.06822303 -0.08205367 -0.0060154893 0.045762505 0.023667477 0.03004609 -0.06857244 -0.019145465
-0.064338595 0.08710914 -0.08416229 0.04853648 0.038139824 0.04540753 -0.060576357 -0.038222935
-0.03053691 0.0045491005 0.055650577 0.084141545 0.061920647 0.025107939 0.083943725 -0.052647565
0.025873067 0.075560115 0.046190873 -0.065778196 0.023149563 0.058085058 -0.04954586 0.08171028
-0.012436818 -0.008249244 0.07014585 -0.055637583 0.044189714 0.064209975 -0.06525543 -0.060001586
0.048615146 0.07510567 -0.024229707 -0.049018513 -0.0119513795 -0.07480885 -0.011016391 0.052675545
-0.013407937 -0.08452425 -0.084966816 0.076441966 0.08221749 0.04064963 0.0702134 0.06008443
0.047264695 -0.0050751735 -0.013605676 -0.027189126 -0.022895014 0.004344871 -0.028508546 0.07736861
-0.07407133 0.04368885 0.010579246 -0.011224968 0.06069987 0.014061925 0.021098187 0.058716685
-0.07245775 -0.007979468 0.0541397 -0.0628807 -0.06731955 0.088005036 -0.013108093 -0.00019432366
0.058103118 -0.07715239 0.073195726 -0.018990662 -0.08093775 -0.055910464 0.024988975 0.02779599
-0.041344807 0.06618475 -0.08562188 0.02661253 0.08631967 -0.056963947 -0.062488668 0.06469901
0.007303517 -0.056944486 0.058029484 0.057286598 0.06541926 0.047230273 -0.06672926 -0.008789393
-0.0037693481 0.047065187 -0.049305 -0.024575334 -0.016246336 0.045880243 -0.036421843 -0.020153945
0.085664116 0.06570542 0.0800991 -0.01686536 0.06671475 -0.03248847 0.012290353 -0.064184085
-0.007579438 0.06556321 -0.05832572 -0.018910173 0.05760391 -0.042364847 -0.0012878836 -0.005586404
-0.017783618 0.0045169042 0.041941836 0.06108316 -0.061676092 0.050941102 0.017528212 0.025622385
-0.013773562 -0.06467225 0.027905807 -0.057480235 0.03427023 -0.08162905 0.056591634 0.03601092

decoder.weight f4 [128, 128]
00000000: 5b64 f13c 5586 56bc e3ad debc 88d3 db3c
00000010: bce6 363d 096b 58bd 5fd9 ec3c 3f2d 1cbd
00000020: 0374 10bd 5f30 8b3c 4e16 abbc d76b a3bd
00000030: 84bc 9fbb 9028 29bd ded6 7c3d b9a6 af3d
00000040: c891 853d b516 1d3d 7130 9f3d 678f b03d
00000050: 9ed0 4c3d 5116 6a3d 0dc2 a7bd a705 8a3d
00000060: a626 a9bd b294 6cbd 8fb8 c53b 82a2 e6bc
00000070: 5ee9 1e3d 880d 973d fcd9 56bd a8b3 afbc
00000080: 9969 47bd f3b1 6c3d 69a4 4abd 8666 e8bc
00000090: 5526 81bd 4e1d a93d 27a8 2bbc 74a9 8dbd
000000a0: 349d 88bc 81d0 b7bc 82d7 22bd adcf 9ebd
000000b0: 771a 603d 1c9b a23d 04e9 02bd e1bb 9a3c
000000c0: 80f3 4c3b 066b 80bd 3f55 5f3d 7380 503d
000000d0: 969a a43d 9e90 96bd fa6c 9dbc 4fe8 23bd
000000e0: acd5 adbd fedf 08b8 ea2b e63c d747 783d
000000f0: 582f fc3a 07e0 a63d 15ef 8bbc a4cd 25bd
00000100: 4634 f3bc 24a5 63bc 5e7f 8bbc 8dba 8c3c
00000110: 4246 853d 0e08 0e3b 813f 45bd 8397 4fbd
00000120: d459 643d 3fdd aebd 065b 91bd 5854 a93d
00000130: c7ff a5bd c041 2abd 5ce4 a6bd 9868 69bd
00000140: 30ae c63b c977 1dbd ec43 603d 6595 3c3d
00000150: bde5 143c acf0 94bd 09bd 87bc 4864 063b
00000160: f388 8fbc 396c cf3b 84fa 48bd 50b1 c23c
00000170: 1ba1 d7bc 7cf0 dd3b e647 9f3c b825 a0bd
00000180: 70cf 7f3d f36d f53c 66e2 2a3d 07ca 863d
00000190: 18af 183c c70b 523d e864 b4bd 9015 b2bd
000001a0: a9e7 df3c b37e dabc 406a 1dbd 8001 fc3c
000001b0: c8f2 1c3d 901f 9ebc 2e68 993d ad3b a93d
000001c0: 20a2 c8bc e2ab a33d 6001 adbd 6d50 87bd
000001d0: 34e5 d53a 5fd2 77bc 8ce3 e53c 802f 18bd
000001e0: 781f 8fbd 6355 b1bd 9be5 07bd eba2 eebc
000001f0: 480f 0cbd b826 59bc 744b 8fbc 86a0 c7bb
00000200: f557 0dbd 18f9 193d 953e 9b3a c391 d23c
00000210: 1373 713a fd9f d83c e834 163d 67c4 97bd
00000220: 1bda 663c 3b63 a0bd b7a3 03bd fc66 1e3d
00000230: 2ce7 aa3d 7f2e c93c feb9 19bd 5a58 cd3b
00000240: 59aa 7ebd 3359 a13c 7ae4 543c 442a d5bc
00000250: 74a6 ad3c 20b0 a43d 479f 0dbd d79e 903d
00000260: 4642 ac3d 2e9a ad3d 46f9 af3c ce75 b33d
00000270: 7e21 5cbc 45f9 15bd 5f1a 91bd b3f7 88bd
00000280: db11 a03d 6958 7a3d e16d 773b c61a 043d
00000290: e6fc 923d 2673 76bd 4e4c 14bc 2b51 993d
000002a0: ed63 a43d 1b01 83bd f068 61bd 295c 35bd
000002b0: fee4 b3bd 0138 84bd 6917 afbd d2b5 873c
000002c0: 0818 9c3d e8b7 80bd 5c2e 763b ee8e a23d
000002d0: 02ab 3b3d bca0 933b 54b9 af3d 8522 193b
000002e0: 72df a03c 09e1 8dbd 74ee 9d3d 9387 493d
000002f0: ecf5 ad3c 75f2 92bc 39c0 83bd 566e 12bd
00000300: a48b 843b c0a9 1ebd 50d9 8c3d 5159 8ebd
00000310: 3363 95bd 19df 8b3d 578b 3abb 79c5 493c
00000320: 2cdf a6ba b963 af3d 2898 af3d 37d7 89bc
00000330: 8168 223d 8c44 993d a252 a9bd 61f1 abba
00000340: 34bd 5abd 3c36 593b 5a42 04bd 3e09 873d
00000350: b444 ad3d 4830 afbd 2548 ff3a 1257 ffbc
00000360: 730d 9abd 10ae 7fbc 70e1 82bc 9a1a adbc
00000370: b4fc 93bd 80b4 673d cf3d 8fbd aa08 a73d
00000380: ccce 8e3b 844d 6c3b a6a7 613d c5d3 e53c
00000390: 0a26 07bd eeba c43c c576 6dbd d171 543d
000003a0: 6013 8fbd 1b42 203d 74be e7bc e97f 8b3d
000003b0: 679b 8bbd 6fcc b239 3251 efbb 5a8c acbd
000003c0: c22e acbc 7982 b2bd 7636 343d 0fe3 f63c
000003d0: d739 99bd c173 5b3d cb65 2cbd 1cf5 60bd
000003e0: 1890 803b 67fc 873d 4ff6 043d fb64 08bd
000003f0: 95d8 d63c a840 0abc dbff adbc 189c 73bc
0.029466799 -0.013093551 -0.027182525 0.026834264 0.04465364 -0.05283645 0.028912244 -0.038129088
-0.035266887 0.016990839 -0.02088466 -0.07979553 -0.0048747677 -0.04129845 0.06172835 0.08576722
0.06521946 0.038351733 0.07772911 0.08621102 0.05000364 0.05715019 -0.08191309 0.06739359
-0.08259325 -0.057758994 0.006033964 -0.028153662 0.038796775 0.07375628 -0.05245398 -0.021447971
-0.04868469 0.057786893 -0.0494732 -0.0283692 -0.063061394 0.082575426 -0.010477102 -0.06917086
-0.016676523 -0.02243829 -0.039756306 -0.07754455 0.05471274 0.07939741 -0.031960502 0.018888416
0.0031273067 -0.06270413 0.054524656 0.05090375 0.080372974 -0.07351802 -0.019217003 -0.04001647
-0.0848802 -3.2633536e-05 0.028097112 0.060615387 0.0019240184 0.081481986 -0.017081777 -0.040479317
-0.029688012 -0.013894353 -0.017028507 0.017178798 0.06507541 0.0021672281 -0.048156265 -0.050681602
0.05574973 -0.08538293 -0.070974395 0.082680404 -0.08105426 -0.04156661 -0.08149025 -0.056984514
0.0060632452 -0.038444314 0.054752275 0.04604091 0.009087977 -0.07272467 -0.016569631 0.002050655
-0.017521357 0.00633004 -0.049067035 0.02376619 -0.026321938 0.0067730527 0.019443464 -0.07819694
0.062453687 0.029959654 0.041719817 0.065815024 0.009319089 0.051280763 -0.08808309 -0.08695519
0.027332144 -0.026671743 -0.038431406 0.030762434 0.03831747 -0.01930216 0.07490574 0.082633354
-0.02449137 0.079917684 -0.08447528 -0.06607137 0.0016318918 -0.01512584 0.028062604 -0.037154675
-0.06988424 -0.08658864 -0.033177953 -0.02913042 -0.03419426 -0.01325386 -0.017492034 -0.006092134
-0.03450771 0.03759107 0.0011844212 0.02570427 0.0009210568 0.026443476 0.03667155 -0.07410508
0.014090086 -0.07831427 -0.032138553 0.038672432 0.08344874 0.024558304 -0.03753089 0.006266636
-0.062174175 0.019695854 0.012993926 -0.02602113 0.021197535 0.08041406 -0.034575727 0.07061546
0.08411078 0.08476673 0.021481168 0.08762704 -0.01343572 -0.036614675 -0.07085108 -0.0668787
0.07815906 0.06111947 0.0037754702 0.032252096 0.07177143 -0.060168408 -0.009051396 0.07486185
0.08026872 -0.06396695 -0.055031717 -0.044277344 -0.08783911 -0.064559944 -0.08549387 0.01656619
0.07621771 -0.06285077 0.0037564253 0.07937418 0.045817383 0.004505245 0.085802704 0.0023366523
0.019637797 -0.06927688 0.07711497 0.04920156 0.021235429 -0.017937878 -0.06433148 -0.035749756
0.004044967 -0.038736105 0.068773866 -0.069506295 -0.072943114 0.06829662 -0.00284644 0.012315148
-0.0012731305 0.085639425 0.085739434 -0.016826255 0.039650444 0.074837774 -0.08267714 -0.0013118201
-0.053403094 0.0033143898 -0.03228984 0.0659356 0.0846037 -0.08554131 0.0019476457 -0.031169448
-0.075220965 -0.015605465 -0.015976638 -0.021130849 -0.07225934 0.056568623 -0.06994211 0.081559494
0.004358148 0.0036056945 0.055091523 0.028055081 -0.03299526 0.024014916 -0.057974596 0.051866356
-0.06986117 0.039125543 -0.028289057 0.06811506 -0.0681675 0.0003410312 -0.0073033804 -0.084252074
-0.02101839 -0.08716292 0.04399725 0.030137567 -0.07481735 0.05357719 -0.042089265 -0.054921255
0.0039234273 0.06639939 0.03246146 -0.033299427 0.026226321 -0.008438267 -0.021240165 -0.014868759
