results/scratch/12owob2t/sae_447/model.pth (torch, 263199 bytes, 2 tensors)

encoder.0.weight f4 [256, 128]
0	0xbc62d7e2	-0.013845416
1	0x3db508b9	0.08839554
2	0x3d8989f3	0.06715765
3	0x3d6485b1	0.05579156
4	0xbd4a6c38	-0.04941961
5	0xbd919a52	-0.071095124
6	0xbcf3e7f0	-0.029773682
7	0xbda7570e	-0.08170901
8	0xbc0ec85b	-0.008714761
9	0xbc8a18ab	-0.016857466
10	0x3d357c1d	0.044307817
11	0xbd1a9865	-0.03774299
12	0xbd2eb8e8	-0.04265681
13	0xbd6c4006	-0.057678245
14	0x3d8272e7	0.06369572
15	0xbd931a68	-0.07182771
16	0xbc038b90	-0.00802888
17	0x3abfd72b	0.0014636269
18	0x3d84e9b9	0.064898916
19	0x3c56a4ff	0.013100862
20	0xbda84194	-0.08215633
21	0x3c8a9d87	0.016920818
22	0xbd9c063e	-0.07618378
23	0x3c2753d3	0.010212856
24	0x3d8738c3	0.06602623
25	0xbcff44a5	-0.031160662
26	0x3d9a67f4	0.07539359
27	0xbc99dcc1	-0.018782021
28	0xbdc26955	-0.09492747
29	0xbc9de1c7	-0.019272698
30	0x3d9dc499	0.07703514
31	0x3cd89ab2	0.026440952
32	0xbd0866cf	-0.03330117
33	0xbda15bd8	-0.07878846
34	0x3d19eead	0.037581135
35	0x3d4e524f	0.050371464
36	0xbdbee525	-0.093210496
37	0x3db601c8	0.088870585
38	0xbdaa9ce9	-0.083307095
39	0xbd1674ff	-0.03673267
40	0xbdb12887	-0.08650308
41	0x3aeced4a	0.0018076089
42	0xbdb915d6	-0.09037368
43	0x3d93fbd8	0.0722577
44	0x3d800f4c	0.06252918
45	0x3cdc3dd1	0.026884945
46	0xbd514fff	-0.05110168
47	0xba36ea05	-0.00069776207
48	0xbd5bff36	-0.053710185
49	0xbdaaefc8	-0.08346516
50	0x3c3d086d	0.011537653
51	0x3d6fc0c8	0.05853346
52	0x3c42f9a4	0.011900339
53	0x3d4f73ab	0.05064742
54	0x3d5f1140	0.05445981
55	0x3c846001	0.01615906
56	0xbd5d1e23	-0.05398382
57	0x3c5985d2	0.013276534
58	0x3caa8664	0.020816036
59	0xbdb293ea	-0.087196186
60	0xbd5fafab	-0.05461089
61	0x3d41d9e3	0.047326934
62	0xbdaed41f	-0.08536553
63	0x3c4f111a	0.012638355
64	0xbcc32329	-0.023820477
65	0x3d5d58bf	0.054039713
66	0xbd804307	-0.062627845
67	0xbcef86e6	-0.02923913
68	0x3cdaf60c	0.026728652
69	0xbd9ca31e	-0.076483
70	0x3dbe3147	0.09286743
71	0x3bca9d0d	0.0061832727
72	0x3cc5f47f	0.024164436
73	0xbb5fc93a	-0.003414704
74	0x3c3181d9	0.010834181
75	0xbda58f44	-0.080839664
76	0x3db4f33a	0.08835454
77	0xbc1cdaa7	-0.009573615
78	0x3cfd5877	0.030925972
79	0x3c50754d	0.012723279
80	0xbd87ac6e	-0.06624685
81	0xbd75008d	-0.05981498
82	0xbdab5cb3	-0.0836729
83	0x3a8024dc	0.000977661
84	0xbda34c28	-0.0797351
85	0x3d714f1b	0.05891333
86	0x3cebb1bd	0.028771276
87	0x3c527ab9	0.012846642
88	0x3d22df15	0.03976353
89	0xbdd222ac	-0.102605194
90	0x3d74a3a1	0.05972636
91	0x3d3a3cb8	0.045468062
92	0x3d1b6e8d	0.037947226
93	0x3d462db7	0.04838344
94	0xbd20047d	-0.03906678
95	0x3d72d609	0.05928615
96	0x3dac5b39	0.08415837
97	0xbcf3c761	-0.029758157
98	0x3d11874f	0.03552943
99	0x3b5fb7ba	0.003413661
100	0xbd7c8015	-0.061645586
101	0xbd939654	-0.07206407
102	0x3d814523	0.06312015
103	0x3b15bbfd	0.0022847645
104	0x3c1cbc64	0.0095664
105	0x3d3cce64	0.046095267
106	0x3d855380	0.06510067
107	0x3c5efb71	0.013609753
108	0x3db04e16	0.08608644
109	0x3d12c144	0.035828844
110	0xbd8cb2ac	-0.068700165
111	0xbd8d3844	-0.068954974
112	0xbd86c1ed	-0.06579957
113	0xbc54ac53	-0.012980538
114	0xbd80808f	-0.062745206
115	0x3cfc35ff	0.030787466
116	0x3cc08f47	0.02350582
117	0x3c494fba	0.012287075
118	0xbc54b11c	-0.012981679
119	0x3ccfe353	0.025376951
120	0xbcf6221e	-0.030045565
121	0xbced64cb	-0.028978726
122	0xbd93a135	-0.07208482
123	0x3db5b0db	0.08871623
124	0xbbcbb4b3	-0.0062166094
125	0xba8eb634	-0.0010888041
126	0x3d501cdb	0.05080877
127	0xbd63027e	-0.0554223
128	0x3da2f78d	0.07957373
129	0x3d03d4f7	0.03218552
130	0xbd9838c9	-0.07432706
131	0x3d6988e7	0.057015326
132	0xbd64e201	-0.055879597
133	0xbd668551	-0.056279484
134	0x3cea9f40	0.02864039
135	0xbdb3c611	-0.087780125
136	0xbc487481	-0.012234808
137	0xbd03b1e7	-0.032152083
138	0x3d32e18c	0.04367213
139	0xbd591bcf	-0.053005036
140	0x3c49400c	0.012283336
141	0x3d47efde	0.04881274
142	0x3d8d9062	0.069123045
143	0x3dad042c	0.08448061
144	0xbd803734	-0.06260529
145	0xbca69979	-0.020336853
146	0x3d41b05f	0.04728734
147	0x3d865b59	0.06560392
148	0xbd675711	-0.056479517
149	0xbc27a54b	-0.01023228
150	0x3d928d77	0.071558885
151	0x3b3329ed	0.0027338222
152	0x3daa9fe0	0.08331275
153	0x3d7458ff	0.059655186
154	0x3d604d7f	0.054761406
155	0xbda98b58	-0.08278531
156	0x3bca654b	0.006176626
157	0x3d6f0dd3	0.058362793
158	0x3b8ee0ac	0.004360279
159	0xbd4acb78	-0.04951045
160	0x3d526328	0.051364094
161	0x3d1201ba	0.035646178
162	0xbda9bd55	-0.08288065
163	0x3d92a698	0.071606815
164	0xbce506fe	-0.027957436
165	0xbdb25ae9	-0.08708746
166	0xbb0ab68b	-0.0021165933
167	0xbd8040a8	-0.06262332
168	0x3d76383e	0.06011223
169	0xbc91e79d	-0.017810637
170	0x3d4b14dd	0.049580444
171	0xbd900bb2	-0.07033481
172	0x3c8e6522	0.017382208
173	0x3c61e698	0.013787888
174	0xbc004738	-0.00782948
175	0x3d44b0c8	0.048020154
176	0x3c014221	0.0078893015
177	0xbd130314	-0.035891607
178	0x3ccdc2e7	0.02511735
179	0xbd1ff634	-0.039053157
180	0x3cb2b75a	0.021815944
181	0xbd9acc56	-0.07558505
182	0x3c9f4ba0	0.01944524
183	0xbd4d6e46	-0.050153993
184	0x3daebc21	0.085319765
185	0xbd9a723c	-0.0754132
186	0x3c572088	0.013130315
187	0x3c92c1f2	0.017914746
188	0x3cc946f0	0.024569958
189	0x3d286b76	0.041118108
190	0xbdad1622	-0.08451487
191	0xbca131e2	-0.019677106
192	0xbcbb86fc	-0.022891514
193	0x3b6c377e	0.0036043818
194	0x3d1c276d	0.038123537
195	0x3d9b294c	0.07576236
196	0x3bc4fccc	0.006011581
197	0xbcdab554	-0.026697792
198	0x3d34e99d	0.044168103
199	0x3d6440d2	0.05572588
200	0x3c845de7	0.016158057
201	0xbd01e9bd	-0.03171705
202	0xbbc95715	-0.006144414
203	0xbccba615	-0.024859468
204	0x3d74c4cb	0.05975799
205	0xbc070cc9	-0.008242794
206	0x3d9d087d	0.07667635
207	0x3dad4788	0.08460909
208	0x3d9ff7ac	0.078109115
209	0x3d83b6eb	0.06431373
210	0xbd1801a7	-0.03711095
211	0x3d73839c	0.059451684
212	0xbd415ca4	-0.04720749
213	0xbd1ec5b5	-0.038762767
214	0xbcce50af	-0.025184957
215	0xbd85a2b1	-0.065251715
216	0xbb16cfe7	-0.0023012103
217	0xbdabef10	-0.08395207
218	0xbd6ff8f0	-0.058587015
219	0x3c559753	0.013036567
220	0xbd4c8408	-0.049930602
221	0x3c12df1a	0.008964324
222	0x3cf3fc3d	0.029783363
223	0xbd96a4a0	-0.073556185
224	0xba332440	-0.000683371
225	0x3bbcdbc2	0.005763502
226	0x3c1cfd1a	0.0095818285
227	0xbcf785d2	-0.030215178
228	0xbd8f1bac	-0.069877
229	0xbd3268d3	-0.043557
230	0xbdb0ed22	-0.086389795
231	0xbcee3dd4	-0.029082216
232	0xbd4afb95	-0.049556334
233	0x3db75130	0.08951032
234	0x3d944d52	0.0724131
235	0x3da7f7b3	0.08201542
236	0xbd4c38fb	-0.04985903
237	0x3d8ebe57	0.06969898
238	0x3d71c692	0.059027262
239	0xbc9312c9	-0.017953293
240	0x3d749610	0.059713423
241	0x3d2e8b3b	0.04261325
242	0xbd57accc	-0.052655026
243	0xbc9c4eb8	-0.019080505
244	0x3b778ffe	0.0037775035
245	0xbc003fb0	-0.007827684
246	0xbd2f0ee0	-0.042738795
247	0xbb514acc	-0.0031935452
248	0xbd9bc4d7	-0.076059036
249	0x3d8431dd	0.06454823
250	0x3d85e058	0.06536931
251	0xbd3c4f90	-0.045974314
252	0x3ce29ca2	0.027662579
253	0xbc9c4a73	-0.019078469
254	0x3d2f6e6b	0.042829912
255	0x3d703372	0.058642812

decoder.weight f4 [128, 256]
0	0x3bb5a1d8	0.005542975
1	0x3ceda4eb	0.029009303
2	0xbcdfe6af	-0.027331678
3	0x3d76fa8e	0.06029754
4	0xbd33ede4	-0.043928042
5	0x3b944219	0.004524481
6	0xbd2523c4	-0.040317312
7	0xbd44b90c	-0.048028037
8	0xbd1e2d08	-0.038617164
9	0xbca8ade4	-0.02059073
10	0xbca5e35f	-0.02025002
11	0xbcd02736	-0.025409322
12	0x3ca378cf	0.019955067
13	0x3d8981be	0.067141995
14	0xbc89f459	-0.016840147
15	0xbce12b76	-0.027486544
16	0x3c2a0872	0.01037799
17	0xbd5187d7	-0.051154938
18	0xbce9ba2d	-0.028531158
19	0xbbd3c596	-0.006462763
20	0xbc26246d	-0.0101405205
21	0xbd02f5ce	-0.0319727
22	0xbca860de	-0.020554002
23	0x3d0ccaf1	0.034373228
24	0xbc875843	-0.016521579
25	0x3d11b516	0.035573088
26	0x3ceb86e2	0.02875084
27	0xbcfd6fc9	-0.030937092
28	0x3d11b08a	0.03556875
29	0xbc92af9e	-0.017906006
30	0xbd4c4f58	-0.049880356
31	0xbc895bcc	-0.016767405
32	0xbd2b3dac	-0.04180686
33	0x3cf624d3	0.030046856
34	0x3b2d7b40	0.0026471168
35	0xbce45da6	-0.027876686
36	0x3d8a0c0b	0.06740578
37	0x3c095705	0.0083825635
38	0xbd19f286	-0.037584804
39	0xbd3c89b4	-0.04602976
40	0xbc25e6e8	-0.010125853
41	0x3c167ab9	0.009184533
42	0xbcc667bd	-0.024219388
43	0xbd3c9040	-0.046036005
44	0xbd52185e	-0.05129277
45	0x3d2d3149	0.04228333
46	0x3d6d2f46	0.05790641
47	0xb9588c62	-0.00020651662
48	0x3cd958d2	0.02653161
49	0x3d103080	0.035202503
50	0x3cea3ee1	0.028594436
51	0xbd153543	-0.036427747
52	0x39d59d9e	0.0004074396
53	0x3c4965dd	0.0122923525
54	0x3d31619f	0.04330599
55	0x3c8a390c	0.016872905
56	0xbd0012d8	-0.03126797
57	0xbd65d89a	-0.05611477
58	0xb9da6b44	-0.0004166012
59	0xbb3425e0	-0.0027488396
60	0x3d2453c6	0.040118955
61	0xbcd6f83b	-0.026241412
62	0xbd6d4a4e	-0.05793219
63	0xbc78d938	-0.015188508
64	0xbd3b2092	-0.04568536
65	0xbd864049	-0.0655523
66	0xbd1fdbd5	-0.039028008
67	0x3d0716d6	0.032980762
68	0xbd80dadd	-0.06291745
69	0xbd825300	-0.06363487
70	0xbd8a1d46	-0.06743865
71	0x3d379eb6	0.044829093
72	0xbd47fc0c	-0.048824355
73	0xbcf2f24c	-0.029656552
74	0xbd6f14b5	-0.058369357
75	0xbd44f0c3	-0.04808117
76	0x3d59b937	0.05315515
77	0xbd0e20de	-0.034699313
78	0xbd31a88a	-0.043373622
79	0x3cf8beec	0.030364476
80	0xbd01fd20	-0.03173554
81	0xbd244277	-0.04010245
82	0x3d1d7b89	0.03844789
83	0x3d809c29	0.06279785
84	0xbb631109	-0.0034647605
85	0x3cc1ac72	0.023641799
86	0x3d53c278	0.05169913
87	0xbd20f110	-0.039292395
88	0x3d41f00a	0.04734806
89	0x3c6ba32a	0.014382163
90	0x3d034b3c	0.03205417
91	0xbb37b265	-0.0028029915
92	0x3bdfe68f	0.0068329046
93	0x3d0bbc6c	0.03411524
94	0x3d2bcd5c	0.041943893
95	0x3b3ffd5f	0.0029295308
96	0x3c17c226	0.009262597
97	0x3c5f7ae8	0.013640143
98	0x3d4450c0	0.04792857
99	0x3c096e78	0.008388154
100	0xbd292f7d	-0.041305054
101	0xba8ce7c9	-0.001075023
102	0xbd610f5b	-0.054946285
103	0xbd265cfb	-0.040616017
104	0xbc7aa665	-0.015298461
105	0x3d6479e8	0.05578032
106	0xbd16bd1d	-0.036801446
107	0xbce8ffa1	-0.028442206
108	0xbd28f114	-0.041245535
109	0x3cd54a35	0.026036361
110	0x3c06e628	0.008233584
111	0x3c73fa87	0.014891273
112	0xbd49aa36	-0.04923459
113	0x3cfd25e3	0.030901855
114	0xbd041475	-0.03224607
115	0xbd246ab3	-0.04014082
116	0x3b8805bd	0.0041510747
117	0x3bd655b0	0.0065409765
118	0x3cc20907	0.023685945
119	0x3d817b76	0.063223764
120	0xbd2af2d1	-0.041735474
121	0xbc453cf9	-0.012038463
122	0x3c72052d	0.014771742
123	0xbc8c3256	-0.017113846
124	0x3cd60065	0.026123235
125	0xbcee4f12	-0.029090438
126	0x3d8e1c2e	0.069389686
127	0xbd6e1f0b	-0.058135074
128	0xbbc9cb67	-0.0061582807
129	0x3c974708	0.018466488
130	0x3c6fe0c8	0.014640994
131	0xbd0cf141	-0.034409765
132	0x3d2f503f	0.042801138
133	0xbcb81e9e	-0.022475537
134	0x3d218906	0.039437316
135	0x3d39a25e	0.04532086
136	0xbd48a9ea	-0.048990168
137	0x3d111b03	0.03542615
138	0x3d1ad442	0.03780008
139	0xbcb8870c	-0.022525333
140	0x3d5df3e9	0.05418769
141	0x3cc1b140	0.02364409
142	0xbb976af8	-0.004620906
143	0x3cc94b1c	0.024571948
144	0xbc79d470	-0.015248403
145	0x3cb7efec	0.02245327
146	0x3d511d43	0.051053297
147	0x3cb926fb	0.022601595
148	0x3c5bcd2a	0.013415614
149	0x3b89d79e	0.004206612
150	0xbcde7dbf	-0.02715957
151	0x3be7a0c3	0.007068725
152	0xbccc07b4	-0.024906017
153	0xbd0c4805	-0.03424837
154	0xbb81e53e	-0.0039640954
155	0xbd1fe114	-0.03903301
156	0xbd822213	-0.063541554
157	0xbd63cab8	-0.05561325
158	0x3bf78ed7	0.0075548696
159	0xbc5eae18	-0.013591312
160	0x3ce6464c	0.028109692
161	0x3bffbecd	0.0078047276
162	0x3ca51514	0.020151652
163	0xbaf1078d	-0.0018389091
164	0x3cf31d5c	0.029677086
165	0xbcba5663	-0.02274627
166	0xbd0c3d3f	-0.034238096
167	0xbbe446d9	-0.0069664535
168	0xbc1dd4c0	-0.009633243
169	0x3cbc45e8	0.022982553
170	0xbd594e04	-0.053052917
171	0xbd15cbe0	-0.036571383
172	0x3b9aafe7	0.004720676
173	0x3d163c25	0.036678452
174	0xbd5c4479	-0.053776238
175	0xbd003f1b	-0.031310182
176	0x3d5e5ec3	0.05428959
177	0x3ca388e4	0.019962735
178	0xbc81a398	-0.015825078
179	0xbc6798a1	-0.014135511
180	0xbbc9f940	-0.006163746
181	0xbd274abf	-0.040842768
182	0x3cbead1a	0.0232759
183	0xbcbae515	-0.022814313
184	0x3d0f2173	0.03494401
185	0xbd3154bd	-0.043293703
186	0xbcb4632c	-0.022019945
187	0xbd447bc1	-0.047969583
188	0x3d24d256	0.040239654
189	0x3b8638f8	0.0040961467
190	0xbd2a8196	-0.04162749
191	0xbd5c975c	-0.053855285
192	0x3ce29397	0.027658267
193	0xbcc85ecf	-0.02445927
194	0x3cdf01c0	0.027222514
195	0xbd2600da	-0.040528156
196	0x3d186513	0.037205767
197	0x3d118b41	0.035533193
198	0xbd6d63a6	-0.05795636
199	0xbcbcf438	-0.023065671
200	0xbc2e1518	-0.010625146
201	0x3d1af774	0.037833646
202	0x3d4fbaea	0.050715365
203	0x3d21c45f	0.039493915
204	0x3c8df6da	0.017329622
205	0xbd29cf50	-0.041457474
206	0xbc9e2883	-0.019306427
207	0x3cc9b0a1	0.024620356
208	0xbc05cd98	-0.008166693
209	0x3d124d5a	0.0357183
210	0x3d062047	0.032745626
211	0x3d609644	0.054830804
212	0x3caadad3	0.020856297
213	0xbd449f73	-0.048003625
214	0x3d4850ef	0.04890531
215	0x3c17735f	0.009243815
216	0xbc92b9a4	-0.017910786
217	0xbcb2f6b7	-0.021846158
218	0x3bf9047e	0.0075994125
219	0x3c10a995	0.008829494
220	0x3d50ca8f	0.050974425
221	0xbd64adb1	-0.055829708
222	0xbd4b216e	-0.049592428
223	0xbcdf66c7	-0.027270688
224	0x3c62a6a5	0.013833676
225	0x3d003132	0.031296916
226	0xbd251451	-0.04030258
227	0x3d361fb2	0.04446382
228	0xbcbfab64	-0.023397155
229	0xbb835a4d	-0.0040085674
230	0xbd37d973	-0.04488511
231	0x3d773a1c	0.06035815
232	0xbd49ad7c	-0.049237713
233	0xbbd59e1d	-0.0065190927
234	0x3bdb6000	0.0066947937
235	0x3cadc954	0.021214165
236	0x3d2e7fdf	0.042602416
237	0x3c8bead2	0.017079744
238	0x3b6ed7c2	0.003644452
239	0x3d28667a	0.041113354
240	0x3d496c15	0.04917534
241	0x3d314dc6	0.04328706
242	0x3d5df9fa	0.054193474
243	0xbd268e6d	-0.04066317
244	0xbd58c8fa	-0.05292604
245	0xbd0d8c9f	-0.034557935
246	0xbd70ad51	-0.058759037
247	0x3d23c279	0.039980385
248	0x3c53074b	0.012880157
249	0x3bcad2bd	0.0061896727
250	0xbd4a6da3	-0.049420964
251	0x3cfbc597	0.030733867
252	0xbd34c35d	-0.044131625
253	0x3d238743	0.039923918
254	0xbd74a690	-0.05972916
255	0x3ccba5b4	0.024859287
