results/scratch/12owob2t/sae_26/model.pth (torch, 132127 bytes, 2 tensors)

encoder.0.weight f4 [128, 128]
00000000: 40ec 783d 6d71 8a3d 3cc8 06bd c531 82bc
00000010: 64b2 ecbc 4ad3 95bd 5525 f5bb 0918 b8bc
00000020: 4445 c13a 2e04 32bc 1725 59bd 3aca 8c3c
00000030: 69e0 8f3d 51d7 3ebc e779 013d b7f1 b23d
00000040: 448a bb3c 9747 333d 8fe3 95bd 2452 a3bc
00000050: ac37 8b3d 2dd2 33bc 9725 27bd 0e15 1bbd
00000060: 17c4 29bd e825 6ebc 28dc 09bc 2699 37bd
00000070: e122 a0bd db99 63bc 4669 79bd de0d 9b3c
00000080: 54d2 283d f3cc 3abd 6433 5d3b a83f 2b3d
00000090: c8da 45bd 3eec f9bc fa6d 92bd e8ff a8bd
000000a0: c1f0 17bc eed7 acbd 9739 513d e8ba acbd
000000b0: 2a74 a0bd d7a4 adbd 0b39 723d bcc4 89bd
000000c0: 6e5a 49bd 94b0 893d 1506 17bd 62e9 39bd
000000d0: 5105 f03c 138f 00bc f3cc 0bbc d24f 84bd
000000e0: e121 7e3d 06c3 aa3d 7cde 2e3d c216 3cbd
000000f0: ba09 3a3d b606 573d 88b3 1f3d eda9 5f3d
00000100: adf6 833d 0ae8 48bd c8e7 7a3d 5947 453d
00000110: aedd f4bc fccb e43c 3e81 a5bd 5cb7 32bd
00000120: f3a0 d2bc 16b8 83bd 276f 083d 61a3 89bd
00000130: 03b0 043d 132d f8bc e75e 88bc bbb5 9d3b
00000140: 6299 6f3d 32e6 753a 4136 85bd 4655 50bd
00000150: e361 27bc 1694 aebd 5adb 363c de4d ca3c
00000160: c9c1 f43a 93a3 9b3c c6a6 1e3d c6b0 e1bb
00000170: 4d08 4cbd 8304 b2bd f50e 61bd 0aba 8dbd
00000180: a32e aebd e76c 1c3d 3437 a53d 83a1 fc3c
00000190: e52b 43bd 463e 743c 2fdd 0abd c873 c5bc
000001a0: 91f0 12bc b922 803d fa1e 753d 9606 673d
000001b0: 0dd9 a33d 3582 45bc c2fb 85bd efe6 f3bc
000001c0: 2980 34bc b8f0 60bd d0ae 423d 896f 9c3d
000001d0: 65a0 6bbd e950 65bd feac 5f3d 5ca1 b6bc
000001e0: 7fdc 333b e334 813d f8a5 37bd afa0 923d
000001f0: 022a 79bd 9b20 313b c8fd b9ba 090e ae3c
00000200: 1ece c73b 9344 1e3d 28d9 97bd 5287 8b3d
00000210: 64c7 533d f2cd 70bd 2530 d1ba 4e24 85bd
00000220: 67e3 853d 27cc 8b3d e82d cc3c 9c3b 163d
00000230: 19a0 c4bc 024e 843c abd4 1ebc 3743 103d
00000240: a153 973d 09e5 2f3b 0b51 8abd db5b b2bd
00000250: 1a3c 7dbd da2c 933d dc04 373d ffea b4bd
00000260: 89f2 17bd e2f3 143d a0d3 643d 841c a23d
00000270: 4b1f b23d b36c 72bd 9483 71bd 3cd9 b0bc
00000280: a388 943d 1cab 88bd 0e38 0c3d b22b 213c
00000290: e2cf a2bb 6121 c7bc d722 283d 3dfe 163c
000002a0: 5f8b 98bd 8f25 3d3d 2d05 e23c d192 4e3d
000002b0: 5bfd 833d 8a96 cbbb 83bd 0fbd 5dc4 003d
000002c0: 4e9c a5bd 59f0 23bc 4db4 61bd 3645 d83c
000002d0: c646 c73c 0163 0e3d ee65 533d 0381 3abc
000002e0: 1d70 5a3c 9e06 743d ff2a 663d e894 853d
000002f0: 695a 9bbd 1e07 723d 4de9 8fbc aaf2 2ebc
00000300: 2831 923d 1432 98bd 0bc9 debb 6797 e63b
00000310: 049e 99bd 99b3 563c 33f1 aabd 1826 b4bd
00000320: 7f5c 23bc 9b46 45bd 05df 0d3d 6ed9 7b3d
00000330: 5358 eabc 90f7 793d f87e 273d 8b88 373d
00000340: d5dd a8bd 3726 a93c ffe3 d33c 017c 01bd
00000350: 68cd 72bd 52f9 b0bd 5a5e cbbc 0c2a a13c
00000360: 4727 3fbd e85d 88bd 2454 cfbc e669 893d
00000370: e78d 8bbd 313c 8f3d bb94 993d aaef 35bd
00000380: a8c1 7c3d 581c ab3d cdc2 3f3d 51ba 8bbd
00000390: 75d5 7d3c c0c3 0f3d 1e01 843d e49d a53d
000003a0: 475b 9fbd 2778 93bb 9eee 993d c90a a6bd
000003b0: 6428 9d3d ed08 503d c6d2 99bd 1929 3abc
000003c0: 8c9d c4bc 093e cebc d9d4 b33b 3bc9 48bd
000003d0: 226d 8e3d faa7 5d3d aa79 b03c 791d fa3c
000003e0: 74f7 4ebb 8929 d4bc 7bcd 3bbd b1ab 0f3c
000003f0: cd9a 2abd b454 a6bd 339f 9cbd d18e 093d
0.06077218 0.067599155 -0.032905802 -0.015892873 -0.028893657 -0.07315691 -0.007481257 -0.022472398
0.0014745374 -0.010865254 -0.053013887 0.017186273 0.07025225 -0.011648015 0.031610396 0.0873751
0.022893079 0.043769445 -0.07318794 -0.019936629 0.06797728 -0.010975403 -0.040807333 -0.037861876
-0.04144677 -0.014535405 -0.008414306 -0.044823788 -0.078191526 -0.0138916625 -0.060891412 0.01892751
0.04121621 -0.04560561 0.0033752555 0.041808754 -0.04830435 -0.030508157 -0.071498826 -0.08251935
-0.009273709 -0.08439623 0.051080313 -0.08434087 -0.078346565 -0.08478706 0.05913643 -0.06726977
-0.049158506 0.06723133 -0.036871035 -0.045388587 0.02929941 -0.007846612 -0.00853275 -0.06460537
0.06204403 0.08337979 0.042692646 -0.04592014 0.045419432 0.052496634 0.038989574 0.054605413
0.06443534 -0.049049415 0.0612562 0.048163746 -0.029890861 0.027929299 -0.080812916 -0.043631896
-0.025711512 -0.06431596 0.033309128 -0.06720615 0.03239442 -0.03029493 -0.016646815 0.0048129237
0.058495887 0.000938031 -0.06504489 -0.050862573 -0.010216209 -0.08524339 0.011160696 0.024695333
0.0018673475 0.018998897 0.038733266 -0.006887528 -0.049812604 -0.08692267 -0.054945905 -0.0692025
-0.08504989 0.038189795 0.0806717 0.030838734 -0.047649283 0.014907425 -0.033902343 -0.02410306
-0.008968488 0.06256623 0.059843995 0.056402765 0.080003835 -0.01205497 -0.065421596 -0.029773204
-0.011016884 -0.054917067 0.047529995 0.07638461 -0.05752601 -0.055985365 0.054608338 -0.022293739
0.0027444658 0.063089155 -0.044836015 0.07159554 -0.060831077 0.002702749 -0.0014190013 0.021246927
0.006097569 0.038639616 -0.07414466 0.0681292 0.051703826 -0.058790155 -0.0015959783 -0.06501065
0.06537514 0.06826048 0.024924234 0.03667794 -0.024002122 0.016150478 -0.009694259 0.03522035
0.07388998 0.0026839396 -0.06753739 -0.08708926 -0.061824895 0.07186289 0.04468237 -0.088338844
-0.037096534 0.036365397 0.055865884 0.07915595 0.08697375 -0.059185695 -0.058963373 -0.02158796
0.07252624 -0.066732615 0.034233145 0.009837078 -0.004968629 -0.024307908 0.04104885 0.009215889
-0.07448458 0.046178397 0.027590359 0.050432984 0.06444808 -0.006213014 -0.03509284 0.031437267
-0.080864534 -0.010006034 -0.05510359 0.02640019 0.02432574 0.034762386 0.05161088 -0.011383298
0.013332394 0.059576623 0.056193348 0.06522542 -0.07585604 0.05908882 -0.017567301 -0.010677973
0.07138282 -0.07431427 -0.0067988685 0.0070370915 -0.07500842 0.013104343 -0.08346786 -0.08796328
-0.009970783 -0.048163038 0.034636516 0.061486654 -0.02860657 0.06102711 0.04089257 0.044807952
-0.08245436 0.020648105 0.025865553 -0.0316124 -0.059277922 -0.08641304 -0.024825264 0.01967337
-0.046668317 -0.06658536 -0.025308676 0.06709652 -0.06814175 0.069939025 0.07499071 -0.044418015
0.061708122 0.083550155 0.046816636 -0.068226464 0.015492787 0.03509879 0.064455256 0.08086756
-0.07781082 -0.0045004073 0.07516216 -0.08107526 0.076737195 0.050789762 -0.07510905 -0.0113623375
-0.024000905 -0.025176065 0.00548802 -0.049020033 0.06954409 0.054115273 0.021542389 0.030531632
-0.00315806 -0.025898712 -0.04585026 0.008768962 -0.041651536 -0.081216246 -0.07647552 0.033583466

decoder.weight f4 [128, 128]
00000000: f562 94bd 92e2 473d f86c 383b f42c 993d
00000010: 5847 383b 5a1c a7bd 8e95 413c 08b8 ab3d
00000020: 9f73 1cbd bc74 013c 724f 21bd b638 d73c
00000030: 5ae8 3cbd 4747 e83c 6e23 4f3d 1622 1fbd
00000040: f0e3 4abd a11b 3bbd 7a9a 313b 7370 34bd
00000050: 6008 503d 75ee 89bd 2868 ed3c 7848 39bc
00000060: f35b 4bbd a30a 573d cb25 13bd 75fb eebc
00000070: abec 41ba 31f1 7abc d2b6 783c d12f 86bd
00000080: 734b 0c3d 5b5f a23d 3881 48bd fa84 b33d
00000090: 6634 b13c 99a2 acbd 36bf 15bd 2786 76bd
000000a0: 5c00 2abc 41fc 4abd 1ddc 49bd 0501 c4bc
000000b0: 7846 0b3c fc27 87bc 0c92 a4bc 288a fdbb
000000c0: 945a 76bd eb50 ee3a 54fe 9b3d c427 b3bd
000000d0: 1c76 8dbd a4f4 19bd a2b3 893d f45f 933d
000000e0: 2f09 d6bc 43d5 a4bd 4522 abbd 21d6 ae3d
000000f0: 33aa a93b 834e 1a3d e169 07bc 8e86 16bd
00000100: f598 0f3d 2632 073d d547 a0bd 0878 9f3d
00000110: 84e2 55bd 7106 21bd 6bb9 ca3c 5040 4b3d
00000120: a3d4 563c c3e8 05bd b8a2 c5bb b26c 8cbd
00000130: e201 9bbd 82f9 f5bc bb6e 563d 29f4 5ebd
00000140: 8fc3 9cbd afe0 76bd 4cd7 e73c 8a7f 7cbd
00000150: c105 95bd 22bf 20bd 9b89 1cbd 1ff8 c4bb
00000160: cda1 38bd 0347 483d 6e03 0a3d 9e23 66bd
00000170: 6ced 343c 978e 96bc 01e1 7b3d 9501 b2bb
00000180: c4e3 d73a f8a4 b43d ae55 3ebd e657 b9bc
00000190: 457e 5bbd e841 e9bc 362a b1bb b277 853d
000001a0: 4c4c 503d 3b53 7c3d 0355 a33d 9540 b4bd
000001b0: fc25 98bd d47f 1c3c 58bb 79bd 16f5 4c3d
000001c0: 3860 f5bc f857 c0bc 82db b33c 6dd8 1ebc
000001d0: b2fe 9f3d ad73 edbc 9a9d 8d3d fbb6 14bd
000001e0: 5504 a9bd cfc6 243b 68a2 e03c be9e b03d
000001f0: f2fb b33b 4cf3 5bbb 0233 66bd e638 48bd
00000200: 0293 80bb 6337 a73c 8350 523d adb7 843c
00000210: 72da 893c 0cad c03c ffed 5d3d 09dc a0bd
00000220: 1b1f 153a 6184 e93c 4b06 323d 27a1 53bb
00000230: ed96 70bc 6bab 53bc 2f34 a73d 0b0d 95bd
00000240: 3669 69bc 971a 06bc a30c 8bbd e306 2fbd
00000250: 05d1 4cbd 0a42 1d3d ac09 333d 5847 6bbd
00000260: ab97 81bd 9242 89bd 0002 97bd 9462 93bd
00000270: dba2 1fbd 3415 263d 2313 e73c 6a3f 30bd
00000280: 56bc 1dbd a2ee 833d 21c8 27bd 1bc4 19bd
00000290: c48e b3bd cf08 6a3c a126 de3c f6d7 3bbd
000002a0: 87d3 b63c 6e17 e13c 8c7d 76bd b3d3 2a3d
000002b0: 1029 473d dc59 11bd 3d67 933d 1026 5e3d
000002c0: fd08 adbc 7a87 6c3d 69ff 40bd 6860 48bd
000002d0: 76bd 313d 08fc 9b3d 122f 89bc 7ac6 13bc
000002e0: b7ac f6bc bf8a a3bd 8748 503c aaee a73d
000002f0: 752f 1fbd e2ea 533d d5ba 6d3d a620 e03c
00000300: b3ec a23c 2131 903d c304 6b3d 159c e3bc
00000310: 12fe acbd df8d 463c 0f21 b43d fe96 e7bc
00000320: 4889 7e3d 4210 a23d ced8 913d 988d 8cbd
00000330: 12b8 9b3c 93a0 933c b17e f4bc 400a 2fbd
00000340: 12a8 f03c b2b3 353c 60b6 a8bc 1d63 81bc
00000350: f3de 473d dfd6 b33d 4c03 9b3d e221 1d3d
00000360: f736 29bd 1df7 a938 4f99 653c e89a aa3d
00000370: 9cf6 71bd e8f2 bd3c 5a08 303d 7df0 413d
00000380: 9b05 953c e382 1ebd 19eb 903d 14f3 93bd
00000390: 5b4a 4ebd b5ba b43c 14b6 55bd c0e9 303d
000003a0: 38b0 6c3c 5174 f1bc a4a1 a43d d6ce 85bd
000003b0: 08f8 8dbd 008e a0bd 4395 7dbd 7642 323d
000003c0: 4747 70bd d1b6 313d 48b1 4fbc e2d6 a4bd
000003d0: bd96 91bd ccec 11bd 2250 84bd 3c8c adbd
000003e0: 3600 303d e6de 81bd c4a4 7cbd 75f9 9cbd
000003f0: ce42 b3bd f781 9fbd d846 b1bd 64c0 62bd
-0.07245437 0.04880006 0.0028141122 0.07479277 0.0028118696 -0.081597045 0.011815442 0.083847106
-0.038196202 0.007901367 -0.039382406 0.02627216 -0.046120025 0.0283543 0.050570898 -0.038850866
-0.049533784 -0.045680646 0.0027100132 -0.044052552 0.050789237 -0.06734935 0.02898033 -0.011308782
-0.049648236 0.05250038 -0.035924714 -0.029172638 -0.0007397632 -0.015316294 0.0151803065 -0.06552089
0.03425164 0.07928344 -0.048951358 0.08765598 0.02163143 -0.084294505 -0.036559306 -0.06018653
-0.010376062 -0.049556974 -0.049282182 -0.023926267 0.008500688 -0.016498558 -0.020089172 -0.007737417
-0.060144976 0.0018182074 0.076168686 -0.08747819 -0.06907293 -0.037586823 0.06723715 0.07196036
-0.026127426 -0.08048489 -0.08356146 0.085369356 0.00517776 0.03767253 -0.00826499 -0.036749415
0.03505798 0.03300681 -0.07826201 0.07786566 -0.052217975 -0.039312784 0.024746617 0.04962188
0.01311222 -0.032692682 -0.0060313605 -0.068566695 -0.075687185 -0.030026201 0.052351695 -0.054432068
-0.07654487 -0.06027287 0.028300904 -0.06164507 -0.07276488 -0.03924478 -0.03821717 -0.0060110237
-0.04507618 0.048895847 0.033694677 -0.05618631 0.011042934 -0.018378539 0.061493877 -0.0054323175
0.0016471078 0.08820528 -0.04646843 -0.022624921 -0.053587217 -0.02847381 -0.0054066433 0.06516971
0.050854012 0.061602812 0.07975199 -0.088013805 -0.0742912 0.009551961 -0.06096968 0.05003842
-0.029953107 -0.023479447 0.021955255 -0.009695155 0.07812251 -0.028985823 0.06914826 -0.036307316
-0.082527794 0.0025142913 0.027421191 0.08624028 0.0054926807 -0.0033561764 -0.05620099 -0.048882388
-0.0039237747 0.020412153 0.051346313 0.016200865 0.016827796 0.023520015 0.05418205 -0.078544684
0.0005688534 0.028505506 0.043463033 -0.00322921 -0.014684421 -0.012919287 0.0816425 -0.072778784
-0.014246276 -0.00818505 -0.0678952 -0.042731177 -0.050004024 0.038393058 0.043710396 -0.057441086
-0.063277565 -0.067021504 -0.07373428 -0.07196537 -0.03897367 0.040547565 0.028207367 -0.043029226
-0.03850969 0.06442 -0.040962342 -0.037540536 -0.08767465 0.014284327 0.02711803 -0.045860253
0.022317661 0.027476992 -0.060178325 0.0417058 0.048623145 -0.035486087 0.071974255 0.054235518
-0.02112245 0.057746388 -0.047118578 -0.048920065 0.043393575 0.076164305 -0.016746078 -0.0090194885
-0.030111654 -0.07985448 0.012712604 0.081998184 -0.038863618 0.051737674 0.058039505 0.027359318
0.019888258 0.070406206 0.057377588 -0.027784387 -0.084468976 0.012118786 0.08795368 -0.02827024
0.06214264 0.07913257 0.0712143 -0.06862944 0.01900867 0.018020904 -0.029845567 -0.042734385
0.029377017 0.011090206 -0.020594776 -0.015794331 0.048796605 0.08781218 0.07568988 0.03836239
-0.041312184 8.1045764e-05 0.014013602 0.08330327 -0.059073076 0.023187116 0.042976715 0.047348488
0.01819115 -0.038699042 0.07076091 -0.07224098 -0.05036388 0.022061685 -0.052175596 0.04319167
0.014446311 -0.02947441 0.08038643 -0.065335914 -0.06932074 -0.07839584 -0.061909925 0.043520413
-0.058661725 0.043387238 -0.0126765445 -0.08048798 -0.07108829 -0.035626218 -0.064605966 -0.08474013
0.04296895 -0.06341343 -0.06168057 -0.07664768 -0.08752976 -0.07788461 -0.086560905 -0.05535926
