results/scratch/12owob2t/sae_180/model.pth (torch, 132127 bytes, 2 tensors)

encoder.0.weight f4 [128, 128]
0	0x3d38d3ba	0.045123793
1	0x3d175d45	0.036954183
2	0x3b12643f	0.0022337583
3	0xbcf30d77	-0.029669506
4	0xbcc5ce48	-0.024146214
5	0xbcf1bfb1	-0.02951035
6	0xbd79386a	-0.060844816
7	0xbd61a01c	-0.055084333
8	0xbbe07074	-0.006849343
9	0x3c0c523d	0.008564529
10	0x3d48cc6a	0.04902307
11	0x3cdd1f20	0.02699238
12	0xbd217b9b	-0.03942452
13	0x39ca3a73	0.0003857199
14	0x3d30d038	0.043167323
15	0xbc263cd3	-0.010146338
16	0x3d533613	0.05156524
17	0x3d0d8344	0.034549013
18	0x3d4eb06d	0.05046122
19	0x3d9a04fd	0.07520483
20	0x3bacb458	0.005270522
21	0x3bb2ba7a	0.0054543586
22	0x3d6cb92f	0.057793792
23	0xbaa0e7ea	-0.0012276147
24	0xbd9637e7	-0.07334881
25	0x3cf0cf83	0.029395824
26	0xbd2f939c	-0.04286538
27	0x3a3af2cb	0.0007131516
28	0xbce6f4b4	-0.028192855
29	0xbc9530df	-0.01821178
30	0x3c835814	0.01603321
31	0xbceb2c36	-0.028707605
32	0xbd4e938a	-0.050433673
33	0xbd2081cc	-0.039186284
34	0xbd5699fa	-0.052392937
35	0xbc425cf4	-0.011862982
36	0x3bb4498e	0.0055019325
37	0xbd56a296	-0.052401148
38	0x3d577fc4	0.05261208
39	0x3d593297	0.05302676
40	0x3c307dbd	0.010772166
41	0x3d36dc4e	0.044643693
42	0xbd7d8357	-0.061892834
43	0x3d7bc426	0.06146636
44	0x3da5b881	0.08091832
45	0xbd0408f5	-0.032235105
46	0x3b4f3845	0.0031619233
47	0xbcd8cc17	-0.026464505
48	0xbd67d8f9	-0.056603406
49	0xbca71009	-0.020393388
50	0xbda25c8c	-0.07927808
51	0xbd387381	-0.045032028
52	0x3c16b0f8	0.009197466
53	0xbce0b2db	-0.027429035
54	0xbd0d8bc8	-0.034557134
55	0x3cd27b10	0.025693446
56	0x3ce86562	0.028368656
57	0x3c8713f9	0.016489016
58	0xbcb16a75	-0.021657208
59	0x3d32ff4a	0.043700494
60	0x3c9dcbc4	0.019262202
61	0x3ce3522a	0.02774914
62	0xbdaf0a6b	-0.08546909
63	0xbd7a5053	-0.06111176
64	0xbc1cc0ed	-0.009567481
65	0x3da3094b	0.07960757
66	0xbce61b04	-0.028089054
67	0x3d850381	0.06494809
68	0xbcc48f35	-0.023994068
69	0xbd0a8a26	-0.033823155
70	0x3d113eac	0.03546016
71	0xbd334488	-0.04376653
72	0x3d242c48	0.040081292
73	0xbce356ea	-0.027751405
74	0xbd3428ae	-0.043984108
75	0x3bc8b1c0	0.006124705
76	0xbb1315c8	-0.0022443403
77	0xbd33f05d	-0.0439304
78	0xbd8965b1	-0.06708849
79	0xbd94f1aa	-0.07272656
80	0xbc76e10f	-0.015068307
81	0xbc585b05	-0.0132052945
82	0xbd918e99	-0.071072765
83	0x3c91bf04	0.017791279
84	0xbd8297bc	-0.06376597
85	0x3d299109	0.041398082
86	0xbc39509c	-0.011310723
87	0x3b7c3fd7	0.00384902
88	0x3d76b95a	0.06023536
89	0x3cefd768	0.029277518
90	0x3c12990c	0.008947622
91	0xbccf3a6a	-0.025296409
92	0x3d68aaaa	0.056803383
93	0xbd129e00	-0.03579521
94	0x3ce35191	0.027748855
95	0xbd1390de	-0.036026828
96	0xba42718f	-0.0007417434
97	0x3d84c841	0.06483508
98	0x3d289e0d	0.041166354
99	0xbd1193b5	-0.035541255
100	0xbd504cd3	-0.050854515
101	0x3d8abe45	0.06774572
102	0xbcc16bcf	-0.023610977
103	0xbd03c43e	-0.032169573
104	0x3d646291	0.055758063
105	0x3c99bbaf	0.018766252
106	0x3db05062	0.08609082
107	0x3d2dcd4f	0.042432126
108	0xbcf47435	-0.029840568
109	0xbce70e05	-0.028204927
110	0xbd7b0509	-0.0612841
111	0x3da04fd1	0.07827724
112	0x3d2ac50f	0.041691836
113	0xbcd80cd2	-0.0263733
114	0xbcc85547	-0.024454726
115	0x3d0e76c6	0.03478124
116	0xbd94c2ba	-0.07263704
117	0xbcd85134	-0.026405908
118	0x3d5781e9	0.052614126
119	0xbdb22857	-0.086991005
120	0xbd17163e	-0.036886446
121	0xbcdc24a9	-0.02687295
122	0xbda4d1fa	-0.08047862
123	0xbcf853b6	-0.030313354
124	0x3db282ab	0.08716329
125	0x3d839e59	0.06426687
126	0xbd5c42d5	-0.053774673
127	0xbd9a2f8f	-0.07528602
128	0x3d474fca	0.048660077
129	0xbbbd7e9e	-0.005782916
130	0xbd7426a6	-0.05960717
131	0x3c371fab	0.011176984
132	0xbca404a0	-0.020021737
133	0x3d496e5d	0.049177516
134	0xbb081a49	-0.002076762
135	0x3dae180f	0.085006826
136	0xbd45f80e	-0.048332267
137	0xbb5a47dc	-0.0033306992
138	0x3d4027b4	0.046912864
139	0x3cf40351	0.029786738
140	0x3c8042d7	0.015656872
141	0xbd1ea446	-0.038730882
142	0x3c974b4c	0.018468522
143	0xbd965caf	-0.07341897
144	0x3b811e15	0.0039403536
145	0x3d767cbf	0.06017756
146	0xbd0287b7	-0.03186771
147	0xbd75630a	-0.059908904
148	0x3ceb4593	0.028719699
149	0x3d6edd07	0.058316257
150	0x3d288aa0	0.041147828
151	0xbdacaa2f	-0.084308974
152	0xbce64eaf	-0.028113691
153	0x3d30a80a	0.043129005
154	0xbd2dd006	-0.042434715
155	0x3ce2fb24	0.027707644
156	0xbd83eed7	-0.064420395
157	0x3bdde605	0.006771805
158	0xbcf68874	-0.030094363
159	0x3d8b89b1	0.06813372
160	0xbd5d8f2b	-0.054091614
161	0xbc29b18c	-0.010357272
162	0x3dab1b6b	0.08354839
163	0xbc1026c5	-0.008798306
164	0x3ccebcf0	0.025236577
165	0xbcf01ef7	-0.02931164
166	0x3d851635	0.06498376
167	0x3ccb7827	0.024837567
168	0x3d702533	0.058629226
169	0x3d98ee01	0.07467271
170	0x3d469a51	0.04848701
171	0x3d6b9c66	0.0575222
172	0x3cdd4782	0.027011637
173	0x3d65a8f4	0.05606933
174	0x3c97c603	0.018527037
175	0x3d5f8727	0.05457225
176	0x3d462e9a	0.048384286
177	0xbd51f640	-0.051260233
178	0xbdadc380	-0.08484554
179	0x3c1ecd91	0.009692566
180	0x3bab7f6d	0.005233696
181	0xbd36a1d9	-0.044587944
182	0xbd824b06	-0.06361966
183	0xbab7264f	-0.0013973209
184	0x3d41fdca	0.047361173
185	0xbdabe38e	-0.08393012
186	0xbc382053	-0.011238175
187	0xbd843321	-0.064550646
188	0x3d0a0b68	0.033702284
189	0x3d49eb64	0.04929675
190	0x3da538d1	0.080674775
191	0x3cc8306b	0.02443715
192	0xbd942488	-0.0723353
193	0x3dad173b	0.084516965
194	0x3bd32303	0.0064433827
195	0x3d23a79d	0.03995477
196	0x3c07bc4f	0.008284642
197	0xbb7ba30e	-0.0038396749
198	0xbda721cf	-0.08160745
199	0xbb515f88	-0.003194781
200	0xbc32f688	-0.010923035
201	0x3ccedf45	0.025252948
202	0x3d16aae7	0.03678408
203	0x3da080ef	0.07837092
204	0x3d450d53	0.04810841
205	0xbd92a617	-0.071605854
206	0xbd9cd34a	-0.07657488
207	0x3d18eb51	0.03733379
208	0x3cf64089	0.03006007
209	0x3d933c30	0.07189214
210	0xbdaaf212	-0.083469525
211	0xbd56af2f	-0.05241316
212	0xbcf08bd5	-0.029363552
213	0x3c5631ad	0.013073367
214	0xbd05a9a1	-0.032632474
215	0x3ca73ae4	0.020413823
216	0x3d47202a	0.04861466
217	0x3daf3fbb	0.085570775
218	0x3d9e5b5d	0.0773227
219	0x3d824946	0.06361632
220	0xbd9a68e3	-0.07539537
221	0xbd8b4a9d	-0.06801341
222	0xbb54771f	-0.0032419635
223	0xbd290c17	-0.041271295
224	0xbd40c7fa	-0.047065713
225	0xbc9c558a	-0.019083757
226	0x3d98d46b	0.074623905
227	0x3cd3d327	0.025857521
228	0xbda635a6	-0.081157014
229	0xbc187010	-0.0093040615
230	0x3d13f6e6	0.036124133
231	0x3cc9cfe0	0.024635255
232	0x3d670758	0.056403488
233	0xbcc1f6af	-0.023677198
234	0x3d448ab4	0.04798384
235	0xbd8d4136	-0.068972036
236	0x3d4c7b3f	0.049922224
237	0x3cac0ac4	0.021001227
238	0xbbade3c4	-0.005306693
239	0x3d196059	0.0374454
240	0x3d7d82ba	0.06189225
241	0xbd9694d8	-0.073526084
242	0x3d6a630d	0.05722337
243	0x3d6f9a80	0.058496952
244	0x3c2f9958	0.010717712
245	0xbc10f3d1	-0.008847193
246	0xbdb4780b	-0.08811959
247	0x3d60cadd	0.054880966
248	0xbcdec2a3	-0.02719242
249	0xbd491364	-0.049090758
250	0xbd41c638	-0.047308177
251	0xbb6df031	-0.0036306495
252	0x3d346128	0.044037968
253	0x3d3d68b5	0.046242435
254	0xbd03d30f	-0.032183703
255	0xbd2d206a	-0.04226724

decoder.weight f4 [128, 128]
0	0xbda200c9	-0.07910306
1	0x3d2b69c1	0.0418489
2	0xbc49640a	-0.012291918
3	0xbbf40d06	-0.0074478416
4	0xbcccb8bc	-0.024990432
5	0x3ca76f09	0.020438688
6	0x3b8b6b5b	0.004254741
7	0xbd96035c	-0.073248595
8	0xbba98f5f	-0.005174562
9	0xbd7ba3af	-0.061435398
10	0xbd87b3de	-0.06626104
11	0x3ae32e24	0.0017332477
12	0x3bfd3c8b	0.0077281645
13	0x3bbdba5e	0.005790039
14	0xbcaef3c0	-0.021356463
15	0xbdafb030	-0.08578527
16	0x3d1d3667	0.03838196
17	0xbd5c7e94	-0.05383165
18	0xbda48477	-0.08033078
19	0xbc613163	-0.013744685
20	0xbd5a1586	-0.053243183
21	0x3d38aa40	0.045084238
22	0x3d887de5	0.066646375
23	0xbd51da6f	-0.051233705
24	0xbd60f321	-0.054919366
25	0x3ca3ebec	0.020009957
26	0xbda90a60	-0.08253932
27	0x3da64a9a	0.08119698
28	0x3d368738	0.04456255
29	0x3d6dd59b	0.05806504
30	0x3d853707	0.06504636
31	0x3d012b88	0.031535655
32	0xbd651ab6	-0.055933677
33	0xbcd4772a	-0.025935728
34	0xbc4d37fa	-0.012525553
35	0x3d89f651	0.06736434
36	0x3cf8017b	0.030274143
37	0x3d03d5bc	0.032186255
38	0x3d9a69d7	0.075397186
39	0xbd894a34	-0.06703606
40	0x3d3080dc	0.04309164
41	0x3da1789a	0.07884331
42	0x3d9afe5b	0.07568046
43	0x3d22cf73	0.03974862
44	0xbd66bb6f	-0.056331094
45	0xbd8ae8dd	-0.067826964
46	0x3d95f6fb	0.073224984
47	0xbd2bfc2e	-0.041988544
48	0x3d237e22	0.03991521
49	0x3d9c32eb	0.07626899
50	0xbd03da9b	-0.0321909
51	0x3d8ece54	0.06972948
52	0xbd4673b2	-0.04845018
53	0xbd8f9370	-0.07010543
54	0xba548234	-0.000810656
55	0xbdae0c7a	-0.084984735
56	0x3cfc4269	0.030793386
57	0xbc4cd7ed	-0.012502653
58	0xbd87a1ce	-0.06622659
59	0x3d86ac71	0.06575859
60	0x3da102f4	0.078618914
61	0xbccc92ff	-0.024972437
62	0xbd8917dd	-0.06694005
63	0xbd88b62c	-0.066753715
64	0xbc1937a4	-0.009351645
65	0x3da0cf2d	0.07852016
66	0xbc939563	-0.01801557
67	0xbd05dd0e	-0.032681517
68	0xbd9983b0	-0.074958205
69	0x3d9d1256	0.07669513
70	0x3d7661ad	0.060151745
71	0x3c1f5647	0.00972516
72	0x3d57d5cc	0.052694127
73	0x3da77de7	0.08178311
74	0xbbb688b4	-0.0055704955
75	0x3d88e258	0.06683797
76	0xbcbb624f	-0.022874026
77	0xbc417d20	-0.011809617
78	0xbd195023	-0.03742994
79	0x3d1bc59d	0.038030256
80	0x3c827189	0.015923278
81	0xbce686b3	-0.028140401
82	0xbd8945a4	-0.06702736
83	0xbbbf1f10	-0.0058325604
84	0xbc8c37d0	-0.017116457
85	0xbb90bb70	-0.0044168755
86	0x3d09601b	0.03353892
87	0x3d860a75	0.06544963
88	0x3d2c3f32	0.042052455
89	0xbc8aad2d	-0.01692828
90	0x3da203dd	0.07910893
91	0xbcd93785	-0.026515732
92	0x3d1de579	0.03854892
93	0x3d4f95b8	0.050679892
94	0xbd65449d	-0.055973638
95	0x3d8b867f	0.068127625
96	0xbd1d00ad	-0.038330723
97	0x3db2d95f	0.087328665
98	0xbd8f4542	-0.06995632
99	0x3d875e00	0.06609726
100	0x3d4b491e	0.049630277
101	0xbd13d97d	-0.036096085
102	0x3d96fe5f	0.07372736
103	0xbcaff569	-0.021479325
104	0x3d9f2ec8	0.07772595
105	0x3c90993a	0.01765119
106	0xbd05dac2	-0.032679327
107	0x3d799533	0.060933303
108	0x3d47c5a3	0.048772465
109	0x3d3c2358	0.045932144
110	0x3c1f1a95	0.0097109275
111	0xbd8f38bc	-0.06993243
112	0x3d9bcc56	0.07607333
113	0xbd720b17	-0.059092607
114	0x3d8fa418	0.0701372
115	0xbcd023a9	-0.02540763
116	0xbd631e72	-0.055448957
117	0x3da8acad	0.0823606
118	0x3d2d2762	0.042273887
119	0x3d74b1a6	0.05973973
120	0x3c72820a	0.014801512
121	0x3c0b8717	0.008516095
122	0x3da6336e	0.08115278
123	0x3b13066e	0.0022434252
124	0x3d563389	0.05229524
125	0x3d1d0384	0.03833343
126	0x3d68c5ca	0.05682925
127	0x3cb93968	0.022610381
128	0xbdaaee6c	-0.083462566
129	0xbda05849	-0.07829339
130	0xbcc2dd55	-0.02378718
131	0xbc202cbb	-0.00977629
132	0xbcca4550	-0.024691254
133	0xbd50f83f	-0.051017996
134	0x3d0142d8	0.031557888
135	0xbd8ee09d	-0.06976435
136	0xbc624438	-0.01381021
137	0x3d7a4c72	0.06110806
138	0x3d52caf5	0.051463086
139	0xbb605006	-0.0034227385
140	0xbda5caf8	-0.08095354
141	0x3d8d7a6d	0.069081165
142	0x3cf51b55	0.02992026
143	0xbb35759a	-0.0027688504
144	0x3d81bb4d	0.06334553
145	0xbcafee14	-0.02147583
146	0x3d5b57c5	0.0535505
147	0xbdb4d97b	-0.088305436
148	0x3dacb821	0.08433557
149	0xbd690f41	-0.056899313
150	0xba93fc6c	-0.0011290438
151	0x3d479baa	0.048732437
152	0xbd66d5e8	-0.05635634
153	0x3c166b58	0.009180866
154	0x3d1a115d	0.037614215
155	0x3d14dc69	0.036343012
156	0xbda6fc95	-0.08153645
157	0xbd426bcc	-0.047466084
158	0x3c9caed3	0.019126331
159	0xbd0d40d0	-0.03448564
160	0x3d9de0be	0.07708882
161	0xbda7d8db	-0.08195659
162	0x3d1f2448	0.03885296
163	0xbd1bcf1f	-0.038039323
164	0xbd1f30f5	-0.03886505
165	0xb9bd93c0	-0.00036158971
166	0x3c102519	0.008797907
167	0xbd6944a5	-0.05695023
168	0x3bacf11d	0.0052777664
169	0xbce00f95	-0.02735118
170	0xbd814304	-0.0631161
171	0x3bc33552	0.005957284
172	0x3cdddc49	0.02708258
173	0x3d8732d2	0.0660149
174	0xbcdc67c3	-0.026904946
175	0x3c924ab3	0.017857885
176	0x3dadcbcf	0.08486139
177	0x3d9284ac	0.071542114
178	0x3da4d1d7	0.08047836
179	0x3d9ec30e	0.077520475
180	0xbca9114c	-0.02063813
181	0x3d72ab72	0.059245534
182	0x3db12b3a	0.08650823
183	0xbd908e48	-0.07058388
184	0x3cbe972e	0.023265447
185	0x3c88b8cd	0.016689682
186	0x3d8118bb	0.06303545
187	0x3cf1fe67	0.029540254
188	0x3ce14fcb	0.027503869
189	0xbd53be42	-0.051695116
190	0x3abbcf8a	0.0014328819
191	0x3d9d02d6	0.076665565
192	0xbd962ff3	-0.07333364
193	0xbc7cc02a	-0.015426675
194	0x3d606478	0.054783314
195	0x3d2ca8e8	0.04215327
196	0xbcaed597	-0.021342082
197	0xbca2ad35	-0.019857982
198	0x3a02a763	0.0004984049
199	0x3c35466c	0.011064153
200	0x3d3e7f4c	0.04650812
201	0xbd8db848	-0.069199145
202	0x3bafdf0f	0.005367167
203	0x3d1b4c98	0.037914842
204	0x3c5ae820	0.013361007
205	0xbae329b1	-0.0017331151
206	0x3da920d4	0.082582146
207	0x3d6cc726	0.05780711
208	0x3cd4d12b	0.025978645
209	0x3da9f108	0.08297926
210	0xbd36c758	-0.044623703
211	0xbd9dec4f	-0.07711088
212	0x3d320a50	0.043466866
213	0x3da568eb	0.08076652
214	0xbd47692f	-0.048684295
215	0xbd2847df	-0.041084167
216	0x3c20320d	0.009777558
217	0xbd08ca30	-0.033395946
218	0xbbd40f4b	-0.0064715496
219	0x3c730c1f	0.014834433
220	0xbd7308e8	-0.059334666
221	0xbd501c3e	-0.050808184
222	0x3c995b3e	0.018720265
223	0xbda1866c	-0.07886967
224	0x3d186a7d	0.03721093
225	0x3d603280	0.05473566
226	0x3c80dd90	0.01573065
227	0xbdaf9946	-0.085741565
228	0x3d89e5f9	0.06733317
229	0xbd715a08	-0.05892375
230	0xbd459cf7	-0.048245396
231	0xbd9e452c	-0.07728037
232	0xbdb3ddb7	-0.08782523
233	0xbd5efc6b	-0.054439943
234	0x3d870536	0.06592791
235	0x3d1c4403	0.0381508
236	0x3dac178c	0.08402929
237	0xbd647d5f	-0.055783626
238	0x3d456bd7	0.048198547
239	0x3da73d99	0.08166046
240	0xbd1bf054	-0.03807099
241	0x3daee4b4	0.085397154
242	0x3d9254b4	0.07145062
243	0xbc81c49c	-0.015840821
244	0x3d2e862f	0.042608436
245	0x3bdaf680	0.006682217
246	0xbba43339	-0.005010989
247	0x3d9e5d6a	0.07732661
248	0x3aba30db	0.0014205234
249	0x3dab770a	0.08372314
250	0xbd82d71d	-0.06388686
251	0x3a815c41	0.0009869413
252	0xbb4e4c4f	-0.003147859
253	0xbbfeeb0d	-0.007779485
254	0x3d8fbffd	0.07019041
255	0xbd9ccb2b	-0.07655939
