results/scratch/12owob2t/sae_495/model.pth (torch, 132127 bytes, 2 tensors)

encoder.0.weight f4 [128, 128]
-0.029640248 -0.07639848 -0.026738735 0.027431281 0.081700295 0.05555144 0.048143405 -0.013112185
-0.060685847 -0.0017218329 -0.058766983 -0.07474978 0.05677106 -0.044242237 0.08016643 -0.061714157
-0.04165124 0.05325664 -0.013764439 -0.048264448 -0.07580986 0.069838576 -0.04856033 -0.043292373
-0.042441025 0.065816976 0.0548986 -0.07048419 -0.08761883 -0.06019152 -0.07846806 0.028542103
-0.036553092 -0.081318215 -0.07149098 0.06670832 0.050535772 -0.038411934 -0.031138888 -0.034721337
-0.032469887 0.05390718 -0.037581794 -0.07972404 0.048459474 0.07909529 -0.0013744876 0.0042347247
-0.07051901 -0.06268737 0.016901532 -0.046327513 -0.07549062 -0.0040398366 0.03074214 -0.080412254
0.042669743 -0.05585927 -0.038402677 0.024949815 0.0072887116 0.015587584 -0.04529711 -0.010619251
0.003548245 -0.086073354 -0.06851593 0.017500564 -0.06418232 -0.022174058 -0.065268785 0.04201116
0.03903845 0.061174806 0.024825124 -0.03531824 -0.058949303 -0.049798105 -0.0746141 0.0078073726
-0.084167 -0.0059260204 -0.037574913 -0.019398343 -0.08236875 0.051481795 -0.03155422 0.017896997
-0.06650239 0.05805507 0.054297384 -0.017905429 0.080663875 -0.07478034 0.056922514 -0.04874953
-0.03853841 -0.0400699 -0.010543876 0.020119566 -0.026997006 -0.074184805 -0.077818975 -0.053993307
-0.040902846 -0.009425399 -0.056792777 0.029533748 0.059515767 -0.05182221 -0.0016116804 -0.060124483
-0.084215775 -0.014221557 0.04344955 -0.03947534 -0.06789948 0.05195334 0.032628786 0.034766972
0.05305619 -0.028144998 0.03137605 -0.038166817 0.029785749 -0.041589975 -0.009614431 -0.075760126
0.06302728 -0.054684743 0.03243789 0.07642588 0.06502441 -0.033858165 0.021190867 0.05205636
-0.04949691 0.055347323 0.06258472 -0.0269066 -0.034733374 -0.037388775 0.069190755 -0.07812759
0.024847431 0.060674243 0.027651092 0.039112255 0.033835057 0.03236802 0.052980084 -0.056528766
-0.011007566 -0.038551353 0.051195566 0.036948055 -0.03637976 -0.0032046777 -0.08694233 -0.053819932
0.0471811 0.009519645 0.06736834 0.051542804 -0.008176636 -0.06174882 -0.07791123 -0.029383581
-0.03557489 -0.072407365 -0.07417491 0.08097464 -0.06701806 0.08320624 -0.00854304 -0.048983455
0.058442686 0.03465206 -0.028765624 -0.027522113 -0.018927265 -0.023602614 0.057709668 -0.08539835
0.0009907038 0.06602421 -7.1997354e-05 0.044717025 0.032589417 0.035106048 0.07673678 -0.075156584
-0.002312882 -0.0014782585 0.008342663 -0.061615795 0.027849793 -0.0724625 -0.053387105 0.07263409
0.043138467 -0.04489108 -0.021410514 -0.053539835 -0.0830209 -0.06104561 -0.052259836 0.08753658
0.032642387 0.06777075 -0.043243993 -0.035925634 -0.014849767 -0.026373906 -0.0041338364 -0.06879188
0.038082562 -0.08280057 0.06061351 0.06973676 -0.06594695 0.008935416 -0.08218459 0.05058431
0.06837532 0.067812845 0.07344777 0.06735038 0.019498354 -0.03505665 -0.023453498 -0.02470347
0.026068479 0.029148402 0.05130405 0.027940651 -0.03198658 -0.017937994 -0.04246061 0.08037728
-0.057996687 -0.060066137 0.025452398 -0.06570918 0.038339764 0.049143184 0.06956938 -0.07458636
-0.0053072786 0.015117442 -0.06765134 0.00653685 0.044998355 -0.031659428 0.027555346 -0.04563684
00000000: 1bd0 f2bc ce76 9cbd 310b dbbc 91b7 e03c
00000010: 7c52 a73d e889 633d 0532 453d 7dd4 56bc
00000020: b991 78bd 20af e1ba a6b5 70bd 6a16 99bd
00000030: c588 683d 5937 35bd 4c2e a43d fcc7 7cbd
00000040: 7e9a 2abd a223 5a3d 3e84 61bc f1b0 45bd
00000050: 3342 9bbd 8707 8f3d 32e7 46bd 5853 31bd
00000060: a4d6 2dbd 0dcb 863d 5bdd 603d 045a 90bd
00000070: 8071 b3bd 628b 76bd ddb3 a0bd 21d1 e93c
00000080: b2b8 15bd 2a8a a6bd dd69 92bd 5f9e 883d
00000090: 99fe 4e3d d555 1dbd fb16 ffbc f637 0ebd
000000a0: 25ff 04bd c6cd 5c3d 5eef 19bd 5c46 a3bd
000000b0: 717d 463d b6fc a13d 2728 b4ba 72c3 8a3b
000000c0: 456c 90bd 3c62 80bd 1575 8a3c ebc1 3dbd
000000d0: d49a 9abd 9b60 84bb f1d6 fb3c 2eaf a4bd
000000e0: 78c6 2e3d b1cc 64bd 204c 1dbd 8e63 cc3c
000000f0: 25d6 ee3b 1163 7f3c 7689 39bd 5efc 2dbc
00000100: ac89 683b 3a47 b0bd 1452 8cbd 585d 8f3c
00000110: 0572 83bd 5fa6 b5bc a4ab 85bd e513 2c3d
00000120: c8e6 1f3d 6f92 7a3d 0f5e cb3c dca9 10bd
00000130: d374 71bd 19f9 4bbd 47cf 98bd fdd4 ff3b
00000140: c05f acbd 102f c2bb 27e8 19bd 46e9 9ebc
00000150: f2b0 a8bd 93de 523d ff3e 01bd b99c 923c
00000160: 6832 88bd 27cb 6d3d ef66 5e3d 68ae 92bc
00000170: 1a33 a53d 6f26 99bd 9527 693d 96ad 47bd
00000180: 74da 1dbd 5620 24bd 39c0 2cbc cad1 a43c
00000190: d328 ddbc 34ee 97bd 8e5f 9fbd 1628 5dbd
000001a0: be89 27bd fd6c 1abc 8b9f 68bd c2f0 f13c
000001b0: cec6 733d 8743 54bd 053f d3ba 1745 76bd
000001c0: 5279 acbd 8901 69bc 28f8 313d e5b0 21bd
000001d0: e20e 8bbd 07cd 543d c3a5 053d d067 0e3d
000001e0: 7351 593d 5790 e6bc 2c84 003d cf54 1cbd
000001f0: 3e01 f43c 405a 2abd d985 1dbc 2028 9bbd
00000200: 7214 813d 1cfd 5fbd 98dd 043d 2c85 9c3d
00000210: 852b 853d dcae 0abd 7898 ad3c 0d39 553d
00000220: 46bd 4abd e0b3 623d 6b2c 803d 3b6b dcbc
00000230: 9544 0ebd f924 19bd e2b3 8d3d 5c01 a0bd
00000240: d78c cb3c 8e85 783d 8b84 e23c 2c34 203d
00000250: a196 0a3d 5494 043d a501 593d b58a 67bd
00000260: 1459 34bc 06e8 1dbd 71b2 513d d856 173d
00000270: f102 15bd 9205 52bb d20e b2bd 4a72 5cbd
00000280: f840 413d 49f8 1b3c 6af8 893d 8c1e 533d
00000290: 4cf7 05bc 55ec 7cbd ec8f 9fbd d6b5 f0bc
000002a0: fab6 11bd 504a 94bd 04e9 97bd 08d6 a53d
000002b0: c440 89bd 0868 aa3d 1bf8 0bbc e0a2 48bd
000002c0: 9961 6f3d 52ef 0d3d e3a5 ebbc 0e76 e1bc
000002d0: 5a0d 9bbc 455a c1bc f960 6c3d 55e5 aebd
000002e0: 81da 813a b337 873d 49fd 96b8 3329 373d
000002f0: 7b7c 053d 5ccb 0f3d 2c28 9d3d b2eb 99bd
00000300: b993 17bb 20c2 c1ba aaaf 083c d860 7cbd
00000310: 4025 e43c 3867 94bd 70ac 5abd 2fc1 943d
00000320: f6b1 303d b6df 37bd 1a65 afbc 964c 5bbd
00000330: dd06 aabd f60a 7abd 690e 56bd 6146 b33d
00000340: 06b4 053d 64cb 8a3d 9d20 31bd c226 13bd
00000350: 704c 73bc 170e d8bc 2275 87bb c2e2 8cbd
00000360: 76fc 1b3d 5893 a9bd df45 783d 25d2 8e3d
00000370: 320f 87bd da65 123c 6550 a8bd 7e31 4f3d
00000380: 5c08 8c3d 76e1 8a3d c96b 963d ffee 893d
00000390: 03bb 9f3c 9097 0fbd 8d21 c0bc ee5e cabc
000003a0: 908d d53c a1c8 ee3c 3224 523d cbe3 e43c
000003b0: 5c04 03bd b3f2 92bc 2deb 2dbd d89c a43d
000003c0: ef8d 6dbd e907 76bd 8c81 d03c 8992 86bd
000003d0: 280a 1d3d 5d4a 493d 647a 8e3d bcc0 98bd
000003e0: aee8 adbb 26af 773c c98c 8abd 1233 d63b
000003f0: 3250 383d 51ad 01bd c0bb e13c b2ed 3abd

decoder.weight f4 [128, 128]
-0.032687318 0.030440835 -0.03259333 -0.022518996 0.0028298975 0.08592236 0.06966686 0.0091564655
0.01747774 -0.025254296 -0.051995587 -0.03493566 -0.007845135 0.043839738 -0.06825418 0.043815237
-0.07591954 -0.010227332 -0.06774968 0.06106826 0.03164766 0.0075013908 -0.016611315 0.039631784
-0.0564835 0.07738189 0.054249674 -0.05490969 0.05050971 0.0783927 0.00010124285 -0.08338992
0.035555027 -0.06039491 -0.021053778 0.012618992 0.0711341 0.03865767 -0.0027546135 -0.044287737
-0.03864135 -0.021005673 -0.07120499 -0.061184566 -0.023046846 -0.08649131 0.08260112 -0.07243524
-0.032646038 0.05198646 0.07808196 0.027390601 -0.050082445 -0.05401245 0.017010717 0.036266148
0.01942957 -0.058174092 0.040533613 0.053977754 -0.005630942 -0.050236356 0.043467365 0.07039207
0.009880132 -0.053153373 0.08592321 -0.079159014 -0.06439291 0.057622056 -0.025355069 -0.08011716
0.041725866 0.0211151 0.03160617 -0.07812781 0.034451887 -0.007270736 0.037030805 -0.0022207072
0.064103246 -0.020510295 0.011656269 0.0060132006 -0.06768748 0.063968614 -0.05618395 0.03119021
0.012407126 0.07328995 0.07915447 -0.027488345 -0.041027997 0.08267724 0.040115047 -0.059139926
-0.0473182 0.04278766 -0.024784971 0.0021221358 -0.035872355 0.0022318102 -0.00065396103 0.03668168
-0.015853113 -0.04624572 0.014945778 -0.076619804 -0.028106216 0.010902475 -0.08838149 -0.038431272
-0.007686367 -0.024785265 -0.04952323 -0.026092472 -0.020393265 0.025979612 -0.028506726 -0.04246234
0.036771927 0.009369992 -0.061852828 0.030406443 0.021013781 -0.032464065 -0.039269082 0.023049489
-0.016265824 -0.041940622 -0.0036777023 -0.08729753 -0.046442475 -0.0590085 -0.04550926 0.008757978
-0.08782847 -0.020746786 0.017993517 0.051624916 -0.014255745 -0.083392344 -0.076799795 -0.070456594
0.08164898 -0.08184574 -0.061740052 -0.012784998 -0.07641284 -0.069271244 0.0665937 -0.016305873
-0.026899898 0.023552908 0.036480602 0.012157371 -0.025121091 -0.023112433 -0.03056895 -0.0038960217
0.051036716 -0.027323797 0.086033374 -0.077318475 -0.0050664637 -0.06142407 -0.04821901 -0.060860384
-0.054333124 -0.01642035 -0.0038144584 -0.0114424825 0.077860914 -0.030625375 0.047218353 0.004511806
-0.074739456 0.07857357 0.05014968 -0.08444257 0.052252498 -0.026510226 -0.055892702 -0.025825892
0.06579022 0.011451246 0.018558964 -0.07417707 0.028190605 -0.00958689 0.067140795 -0.058657296
0.004843263 -0.057958923 0.022267181 0.07911486 -0.038274452 -0.03589637 0.07510645 0.05190261
0.009578705 -0.0839127 -0.03320032 0.03237432 -0.038962908 -0.0672404 -0.049558926 0.05966014
-0.08765648 -0.004581056 0.02781869 -0.0758706 -0.03567406 -0.0147656845 -0.056564935 0.02358134
-0.042808343 0.032350972 -0.06883397 -0.038706034 -0.05428259 -0.076092385 0.050612405 0.07501925
-0.0683289 0.050401878 -0.07726696 0.07115823 0.038104486 -0.06411909 0.047016736 -0.048316
0.050700873 -0.013436604 0.054150827 0.017616246 0.05449228 0.08503769 -0.07103932 -0.08170793
-0.010317608 0.03649379 -0.007516945 -0.0010544636 -0.031623848 -0.044894874 -0.06895345 -0.060804605
0.08599308 0.02637005 0.050487246 0.071371 -0.041979667 -0.023869865 -0.010988252 0.031338904
00000000: 23e3 05bd 0f5f f93c 9580 05bd c279 b8bc
00000010: cd75 393b 10f8 af3d 80ad 8e3d 0005 163c
00000020: 7a2d 8f3c 19e2 cebc 53f9 54bd b218 0fbd
00000030: e288 00bc 4c91 333d d9c8 8bbd 9b77 333d
00000040: b47b 9bbd 8a90 27bc 58c0 8abd b622 7a3d
00000050: faa0 013d 3ace f53b 7414 88bc f054 223d
00000060: 3e5b 67bd 657a 9e3d e834 5e3d fce8 60bd
00000070: 45e3 4e3d 5a8c a03d 5752 d438 56c8 aabd
00000080: 26a2 113d a760 77bd f978 acbc e3bf 4e3c
00000090: c1ae 913d 8157 1e3d bf86 34bb 0f67 35bd
000000a0: 6446 1ebd 1714 acbc ecd3 91bd ab9c 7abd
000000b0: bdcc bcbc 5b22 b1bd c72a a93d ed58 94bd
000000c0: dab7 05bd c1ef 543d 6fe9 9f3d 4162 e03c
000000d0: 4023 4dbd 293c 5dbd 0f5a 8b3c d08b 143d
000000e0: c32a 9f3c f547 6ebd 9306 263d c717 5d3d
000000f0: c483 b8bb a3c4 4dbd d60a 323d b829 903d
00000100: 47e0 213c 5ab7 59bd 82f8 af3d 1f1e a2bd
00000110: 6ee0 83bd 1b05 6c3d 6fb5 cfbc 7714 a4bd
00000120: bee8 2a3d 93f9 ac3c 7975 013d 7901 a0bd
00000130: 6c1d 0d3d 5b3f eebb 9dad 173d 4989 11bb
00000140: 9048 833d 3505 a8bc f0f9 3e3c 620a c53b
00000150: bc9f 8abd fa01 833d 2421 66bd 9c82 ff3c
00000160: 4247 4b3c 0b19 963d bd1b a23d 3d2f e1bc
00000170: f90c 28bd af52 a93d ad4f 243d b53c 72bd
00000180: bbd0 41bd 1d42 2f3d da09 cbbc 8813 0b3b
00000190: e4ee 12bd 9043 123b 956e 2bba 873f 163d
000001a0: 63de 81bc 276c 3dbd 23df 743c d8ea 9cbd
000001b0: 023f e6bc 4ba0 323c 5b01 b5bd 1c6a 1dbd
000001c0: ebdd fbbb 780a cbbc dfd8 4abd e1bf d5bc
000001d0: c70f a7bc 32d3 d43c f086 e9bc feec 2dbd
000001e0: 299e 163d 9884 193c 6459 7dbd ef16 f93c
000001f0: 1825 ac3c 0af9 04bd 9ed8 20bd 48d2 bc3c
00000200: e83f 85bc eec9 2bbd 9b05 71bb 0cc9 b2bd
00000210: 773a 3ebd e6b2 71bd eb67 3abd 9f7d 0f3c
00000220: 6adf b3bd 2af5 a9bc 2467 933c a674 533d
00000230: ee90 69bc 9bc9 aabd 3649 9dbd 8c4b 90bd
00000240: 9537 a73d bd9e a7bd 23e3 7cbd 2b78 51bc
00000250: 567e 9cbd 15de 8dbd 4762 883d e593 85bc
00000260: 2d5d dcbc 07f2 c03c af6c 153d b62f 473c
00000270: bfca cdbc 4956 bdbc bc6b fabc 6654 7fbb
00000280: e00b 513d 28d6 dfbc 4432 b03d 2659 9ebd
00000290: 9404 a6bb ce97 7bbd 4c81 45bd bd48 79bd
000002a0: 698c 5ebd f883 86bc fefb 79bb 4079 3bbc
000002b0: 8b75 9f3d 11e2 fabc 0868 413d c6d7 933b
000002c0: 0011 99bd 2eeb a03d c069 4d3d 3af0 acbd
000002d0: b706 563d f92b d9bc bfef 64bd d290 d3bc
000002e0: 06bd 863d 029e 3b3c f808 983c 26ea 97bd
000002f0: fcef e63c 5512 1dbc 1d81 893d a242 70bd
00000300: 3cb4 9e3b 5666 6dbd aa69 b63c f906 a23d
00000310: acc5 1cbd 1208 13bd 69d1 993d d597 543d
00000320: 00f0 1c3c 6cda abbd 0ffd 07bd ef9a 043d
00000330: 9297 1fbd 56b5 89bd 4dfe 4abd 315e 743d
00000340: 3e85 b3bd af1c 96bb 05e4 e33c 0c62 9bbd
00000350: f71e 12bd c5eb 71bc a2b0 67bd a82d c13c
00000360: cd57 2fbd 7482 043d d3f8 8cbd 388a 1ebd
00000370: 6c57 5ebd 53d6 9bbd f44e 4f3d b1a3 993d
00000380: 06f0 8bbd 3372 4e3d 243e 9ebd 68bb 913d
00000390: 7313 1c3d df50 83bd 9f94 403d ffe6 45bd
000003a0: b8ab 4f3d 3425 5cbc 42cd 5d3d f24f 903c
000003b0: 4c33 5f3d 3e28 ae3d 107d 91bd 7d56 a7bd
000003c0: 2f0b 29bc 837a 153d b450 f6bb ed35 8aba
000003d0: 0288 01bd b0e3 37bd 7737 8dbd 400e 79bd
000003e0: 241d b03d 0106 d83c b7cb 4e3d f52a 923d
000003f0: dff2 2bbd bc8a c3bc 1208 34bc 395d 003d
