results/scratch/12owob2t/sae_432/model.pth (torch, 132127 bytes, 2 tensors)

encoder.0.weight f4 [128, 128]
00000000: ee3c b43c a039 523d f9be abbd 5787 98bd
00000010: e223 9ebd c5af a23d c130 3dbc f4c9 2a3c
00000020: b0a1 13bd e30e 8d3d c964 b43d 4ebf 4dbd
00000030: efe7 313d 3c3a a5bb 8bad 8e3d 82c5 afbd
00000040: ccc9 2bbb ed3f 59bd 4139 23bd 3ab2 993d
00000050: 9cd6 8ebd 1e99 113d 43b9 c43c b682 80bd
00000060: 2c6c af3d 55a7 30bc 2ee2 5b3d ceeb 0e3d
00000070: c4c7 f0ba 5d0e 67bd 2e02 44bc 09a3 b1bc
00000080: a0b6 1e3d e047 f53c 937f 8e3d 6cb7 753d
00000090: f05a 803d 64ea 163d 1dcd 913d 0d14 61bd
000000a0: 5a95 ff3c ceb4 4ebd 6c05 b83c 2116 bebc
000000b0: 7a39 aa3c b499 a8bd 09a0 553d b966 b43c
000000c0: 62a1 c5bc 9c54 a8bd 2154 913d 4e47 a8bc
000000d0: 71d3 24bd d56f 1dbc d41e 80bd c5d6 b23d
000000e0: 205f 7cbc 0a3d 183c 2250 96bd 1333 e43b
000000f0: c4f9 99bd 0b7b 5cbd 54cc f43c b9e0 90bb
00000100: 63f2 81bc ae72 113d 7cd1 c8bb 6ef6 603d
00000110: d976 a8bb 2321 03bd 5728 7bbc b98e 283d
00000120: 1a88 4abd c79e a0bd c872 a7bd 773e 31bd
00000130: 0357 a63b 5f52 503d 9c0a 0abd 94ea 93bd
00000140: 5ea7 b5bc d104 84bd d5ea 98bd 5d17 0bbd
00000150: cde1 2fbd 2ba2 b73c fefa 08bd 61a9 aa39
00000160: 93f0 3bbd 2c24 9b3d 4091 223c b775 57bc
00000170: 7e94 ab3d 43f7 c1bc e05c 8d3d a143 223d
00000180: 4a19 95bd 7a8e 493d 8543 213d 9e31 37bd
00000190: 5b1f 74bc 7d35 b73c 2e8f fcbc a08a 443d
000001a0: ea50 a0bd 17c4 a83d 5738 80bd a725 61bc
000001b0: e123 003d 37fa a93d 8600 28bd 2ad3 82bc
000001c0: b9b9 373d 615d 51bd 1d33 923d a9de 50bd
000001d0: eaf8 393d 0966 3e3c 5c49 883d 134e e43c
000001e0: e13b 8e3d 52bb 0f3d 29ef f93c 00a5 a93d
000001f0: 02d8 a1bd e1b5 353c 70a2 5cbd 001b 223d
00000200: 6056 82bb faa3 d4bc 3f61 b13d 7d85 a9bd
00000210: ab84 99bd 3936 023d c222 993d 770e 7abc
00000220: d71b a7bd 0637 acbc 8ab4 65bc 22db 26bd
00000230: c938 513d 4821 173d bc97 a9bd 33cf 20bd
00000240: b440 92bc 6b98 58bc 2433 793b cee2 7a3d
00000250: 2b85 65bd 95c6 a8bd ce72 a5bd eb0f a83d
00000260: 9489 a63d c09e c03c 0169 90bd a8d1 57bd
00000270: 0fb2 aa3d dd4a 423c 753d 9d3c 1511 f53c
00000280: ec92 6c3d e742 b3bd 6007 5e3d 191c 16bd
00000290: 22be 5a3d e049 a9bd 3108 9d3c cc8a ca3c
000002a0: b843 c13c a420 a6ba 8408 13bc 32d2 973d
000002b0: 7ddc 8bbd 05bf a5bc 8cc7 253d cdbd a23d
000002c0: c3cb a03d dd98 9a3d 6c91 9cbd fe76 973d
000002d0: 1f16 0fbd 15af ba3c a35c a33c 81b3 223d
000002e0: 0d92 25bd 3819 9d3d c8f9 643d 9b5f c93c
000002f0: a2bc 4dba 18b8 2cbd 08eb 9bbd 9cfa e73c
00000300: e18e 853c c43b 92bd a8d6 8a3d 5b24 423c
00000310: 4200 463c ddb7 a73b 0b61 663d 3ce2 82bd
00000320: 67bc 97bd 0cf5 0e3c 1f60 90bd a6d3 7ebd
00000330: f3a3 f43b c9e7 9b3d 19b4 31bd 1791 18bd
00000340: 5ae3 113d ff70 b0bd 388f 2fbd 0abe c2bc
00000350: e810 ad3b c30e 90bd 5b02 79bc 1332 2c3d
00000360: eed8 bdbc c949 993d 1bdd a3bd 4b1f 5f3d
00000370: f1c1 7d3d 5724 b3bc 4d2e b0bd e550 4ebd
00000380: b967 38bd 522b 96bd d3a8 0a3d 9b30 2d3d
00000390: 3c86 4d3d a08f 8abd de66 44bc 2d0a 753d
000003a0: 1ad9 13bd 628d 8c3d f650 a3bd f3c7 e13c
000003b0: ec58 0a3d 01e9 e23c 039c 9c3d 9486 07bd
000003c0: 7bd6 393c 9ab8 90bc 954e 443c ff9b aabb
000003d0: ccc1 55bd 4dfb 8ebd 547c b33d 1a8c 093d
000003e0: 78bc f3bc 2273 023c fc32 9d3d df25 67bd
000003f0: c27a 43bd a7e3 703d ef4c 5e3b 964f 4d3d
0.02200171 0.051324487 -0.083860345 -0.07447689 -0.07721688 0.07943682 -0.011547268 0.010424126
-0.03604287 0.06887605 0.08808286 -0.05023127 0.04343408 -0.0050423425 0.069666944 -0.085825935
-0.002621281 -0.05303948 -0.039849523 0.07504697 -0.06974527 0.035546415 0.02401412 -0.06274931
0.08565554 -0.010782083 0.0536825 0.03489285 -0.0018370082 -0.056410182 -0.01196341 -0.021684187
0.038748384 0.0299415 0.069579266 0.059989378 0.06267345 0.036844626 0.071192004 -0.054950763
0.031199146 -0.050465398 0.022463523 -0.023203911 0.02077936 -0.082324415 0.052154575 0.022021638
-0.024124805 -0.08219263 0.070961244 -0.020541813 -0.04024071 -0.009609182 -0.0625588 0.0873237
-0.015403539 0.009291897 -0.07339503 0.0069640963 -0.07518342 -0.05382828 0.029882587 -0.0044213203
-0.01586265 0.035509758 -0.006128488 0.054922514 -0.005141121 -0.032014024 -0.015329442 0.041151736
-0.049446203 -0.078427844 -0.0817619 -0.04327246 0.0050762906 0.050859805 -0.033701524 -0.072224766
-0.022174533 -0.06446231 -0.07466666 -0.033957828 -0.04293995 0.022416195 -0.03344249 0.00032551124
-0.045883726 0.075752586 0.009922326 -0.013150624 0.08377932 -0.023677474 0.0690248 0.039615277
-0.07280214 0.049208142 0.039371032 -0.044725053 -0.014900054 0.022364372 -0.030829992 0.047983766
-0.07827933 0.08240526 -0.06260746 -0.013741887 0.031284217 0.08299678 -0.041016124 -0.015969831
0.044854853 -0.051114444 0.07138655 -0.050993595 0.0454034 0.011621007 0.06654617 0.02786926
0.06945015 0.035090752 0.030509548 0.082834244 -0.07902528 0.011090727 -0.05386585 0.03957653
-0.003977582 -0.025957096 0.08661126 -0.08277414 -0.074960075 0.031789992 0.07477333 -0.015262238
-0.08159607 -0.021022331 -0.014020095 -0.040736325 0.051079545 0.036896974 -0.08280894 -0.0392601
-0.017853118 -0.013219933 0.0038024867 0.061251454 -0.056035202 -0.082410015 -0.08078538 0.08206161
0.0813171 0.023513198 -0.07051278 -0.05269018 0.08334743 0.011858669 0.019194344 0.029915372
0.057757303 -0.08752995 0.054206252 -0.03664789 0.05340398 -0.08266044 0.019168945 0.024724387
0.023591861 -0.0012674523 -0.008974198 0.074131384 -0.06829164 -0.020232687 0.040473506 0.07946358
0.078513645 0.075486876 -0.076449245 0.07395743 -0.034933206 0.022788564 0.019941634 0.03972197
-0.040422488 0.07670826 0.055902272 0.024581721 -0.0007848238 -0.042167753 -0.07613188 0.028317742
0.016303482 -0.07140306 0.06779224 0.011849488 0.012085022 0.0051183538 0.05624489 -0.06390807
-0.07408982 0.008725416 -0.07049584 -0.062213562 0.0074658333 0.07612569 -0.043384645 -0.037247743
0.03561721 -0.08615302 -0.042861193 -0.023772258 0.0052815564 -0.070340656 -0.0151983155 0.042039942
-0.02317473 0.074847765 -0.08001157 0.054473203 0.061952535 -0.021867914 -0.08602581 -0.050370116
-0.045020793 -0.073324814 0.03385241 0.042282682 0.050176844 -0.067656755 -0.011987416 0.059824158
-0.036095716 0.06862904 -0.079744264 0.027561164 0.03377621 0.027698996 0.076469444 -0.033087328
0.01134264 -0.01766615 0.011981626 -0.0052065845 -0.052186772 -0.069815256 0.08763948 0.033580877
-0.029752955 0.00796202 0.0767574 -0.0564326 -0.047724493 0.058810856 0.0033920368 0.050124727

decoder.weight f4 [128, 128]
00000000: aca5 2cbc 145b 973c 5eeb 82bc 0e4c abbd
00000010: 74db e23c fb46 89bb adf9 953d f055 b13d
00000020: 18a7 b43d 1ed2 7dbd a7a3 6a3d 9796 2ebd
00000030: 9129 4fbd 5937 873d d026 6d3d 8985 413d
00000040: 5f5e 4b3d 4a45 81bd 115d 073c 5812 4cbd
00000050: 85c2 03bc c381 ab3d 571e 433b c86a 733c
00000060: 8b92 0fbd aaef 893d 38f1 9abd bd22 3b3d
00000070: 1f8d a7bb 1bf9 e83b e6e2 11bd 5ea0 8ebd
00000080: 57c0 033d 6217 3a3d 4ed6 a5bd 0f63 afbd
00000090: eb5c 17bd f124 15bc 6066 753c 8d37 49bd
000000a0: 1f89 51ba 6b6e b4bc bd6e 29bd 0181 363d
000000b0: 0164 37bd 994b 853d 4ab4 db3c b118 3bbd
000000c0: fcbb a4bd 4c7c 0b3d 08a8 1e3d 4400 723d
000000d0: 1a25 49bd 3484 a53d 4554 883b 81d6 92bd
000000e0: 8b05 3dbd e58a 843d 5bd3 873c 0f64 01bd
000000f0: 5a62 f63c cf5e b33d c30d 96bd 76ec 84bd
00000100: 58c8 a73d c1b1 8e3b 0cd1 963c a684 09bd
00000110: 8fea c53b edc6 a93c 88fa 513d d891 0f3d
00000120: 29b2 ab3d 0e20 073d 7be4 9fbc 91b5 893d
00000130: beba 283c 3572 993d ef1e b5bc 629f 4abd
00000140: 0b2e 313d 3829 87bd 615d 6e3d 126c b33d
00000150: cba8 99bd f5a9 923d a97f 543d 4c0d 8e3d
00000160: dc62 ee3b bea1 e1bc 3de1 5f3d 757d 7a3d
00000170: 180e 813d fa15 803c 46b1 3b3d fa79 0a3b
00000180: 43f3 9f3d 13d6 0f3d dc4e 863d ee50 74bd
00000190: 1958 75bd 4f4d 8fbd 94c9 b43c c1fe 3e3c
000001a0: 825f aebd 5f76 9cbd 3f6c eb3c 9e88 5c3d
000001b0: 09aa 95bd 4512 ec3c 818d 863d d6ac 473c
000001c0: 06bd 4c3c 2179 b83c bf8a 613d 9464 1fbd
000001d0: 0b97 88bd aa31 8dbc ba31 31bc 45af 12bd
000001e0: 9c66 3f3d e260 e53c 39dd 963d 1e31 b23d
000001f0: 7b26 9c3d 045b 0abc 4f0a 5fbd 7bee 2bbd
00000200: 2d4b 99bd 1f23 923c 717d 8ebd e183 543d
00000210: df14 9f3d 48e4 5d3d ff6c 153d 8a83 92bb
00000220: 43eb 703d 10b6 5e3d be61 a3bd 60e8 873d
00000230: 9cc8 9c3d ff9f 713d 3c8e e13c 27f4 adbd
00000240: b6ac a33c 2957 43bb 0e6a 8f3c 1eeb 00bd
00000250: 2fa3 ffbb 766e 7cba efad 9ebd 9d4c a8bd
00000260: 7e4a c53a 65ea f9bc 0da1 923d 8c45 0f3d
00000270: 19a1 193d cdd6 493d f35f 74bd 4456 a23d
00000280: acf3 10bd 88d6 4f3d 3f09 b4bd 6ec5 7fbd
00000290: c11f 443c b524 08bc 751d b03d 2a6c b13c
000002a0: 7382 9abd 9342 5d3d fc6d 1b3d c03b 95bc
000002b0: 2ae5 ef3c d6ee 92ba f3cc 87bc 5eb7 6cbd
000002c0: 0070 3b3c e336 65bc 0a48 743c 8151 25bd
000002d0: 9ea6 b33d 354b 53bd 7e26 a53d 298e 1b3d
000002e0: 1286 90bd 02d5 1d3d 79f6 30bc 2b86 abbd
000002f0: 38a5 4ebc dca9 583d 38d5 ba3c 8a62 ad3d
00000300: 2b9a 823d d241 5cbd 8489 2d3d 49f1 803d
00000310: 1bbe 94bd c6a1 75bd 1d3d f5bb 8b88 67ba
00000320: 615b 523c 345e 16bd 363d b0bd 2738 7fbd
00000330: a746 ee3c 94c1 49bd 2d8d 113d b1f3 663b
00000340: a0b2 4f3d 51ef a6bd 2b46 84bc fe60 053c
00000350: badf 393d 1f5b 033d c6ab 23bd f462 0e3d
00000360: ba6b cfbc ed67 1abd 0905 fb3c d06e 81bd
00000370: 536b 193d bccc cdbc b6ca 78bc b162 fa3c
00000380: f24c 943d c864 0c3d b4e5 d03c b843 39bb
00000390: d916 5fbd 128a 863b e249 debc 5ae4 95bd
000003a0: 1051 0c3d 37a5 683c d77c 37bd fe46 1ebd
000003b0: 1ac4 ab3d 97bd 71bd 9b2a b23d 8cbb d9bc
000003c0: d720 173d abb9 bb3c 40a6 023d 1526 9e3d
000003d0: a6e8 983d d008 993d 499e 9b3d 3a22 9fbd
000003e0: 6ccc a43d d078 133d d0d3 123d 72b9 9ebc
000003f0: 9480 9c3c 3f33 c93c 79db 993d dcdb 45bd
-0.010537546 0.018476047 -0.015981372 -0.08364116 0.027692534 -0.0041893697 0.073230125 0.086589694
0.08820933 -0.06196796 0.057284977 -0.042624082 -0.05057675 0.066023536 0.057898343 0.04724649
0.049650546 -0.06312044 0.008261935 -0.04982218 -0.008041983 0.083743595 0.0029772723 0.014857002
-0.035051864 0.067351654 -0.0756554 0.045687426 -0.0051132585 0.007109774 -0.035616778 -0.06964181
0.03216585 0.045432456 -0.08097516 -0.08563816 -0.036953848 -0.009103046 0.014978021 -0.049125243
-0.000799315 -0.022025308 -0.041365374 0.04455662 -0.044773106 0.0650856 0.026819367 -0.045677844
-0.08043668 0.034054086 0.038734466 0.059082285 -0.04910765 0.08081856 0.0041604363 -0.071698196
-0.046147864 0.064718045 0.016580274 -0.031589564 0.030076195 0.08758318 -0.073268436 -0.06490414
0.081925094 0.004354686 0.018410228 -0.03357377 0.0060399245 0.020724738 0.051264316 0.035051197
0.08383591 0.032989554 -0.019518128 0.06724084 0.010298429 0.074924864 -0.022109477 -0.049468406
0.0432568 -0.06599659 0.05819452 0.08760847 -0.07502898 0.07161323 0.05187956 0.0693613
0.0072749685 -0.027542945 0.054658163 0.0611548 0.06301516 0.01563548 0.045823358 0.0021129833
0.0781007 0.035116266 0.0655801 -0.059647493 -0.05989847 -0.06997167 0.022068776 0.011657418
-0.085143104 -0.07639765 0.02873814 0.053841226 -0.07307822 0.028817305 0.065699585 0.012187203
0.012496239 0.022518696 0.05506396 -0.03891428 -0.06669434 -0.017235596 -0.010815078 -0.03581168
0.046728715 0.028000299 0.073664136 0.087007746 0.07624527 -0.008444551 -0.05445319 -0.04197548
-0.07485042 0.017839013 -0.0695752 0.051883582 0.07767653 0.054172784 0.0364809 -0.004471247
0.058818113 0.054372847 -0.07977627 0.06636119 0.07655451 0.058990475 0.027533643 -0.08493834
0.019979816 -0.002980659 0.017506626 -0.031474225 -0.0078014354 -0.0009629497 -0.07748019 -0.08217738
0.0015052108 -0.030507276 0.07159624 0.034978434 0.03750715 0.049277116 -0.059661817 0.0792661
-0.035388634 0.050741702 -0.08790826 -0.062444143 0.011970461 -0.008309533 0.085993685 0.021658022
-0.075444125 0.05401857 0.037946686 -0.018216968 0.029284079 -0.0011210095 -0.01657722 -0.05779206
0.011440277 -0.013990137 0.014909754 -0.04036093 0.08772014 -0.051585395 0.080639824 0.03797737
-0.07056822 0.03853322 -0.010800951 -0.083752 -0.012612633 0.052896366 0.022806749 0.084660605
0.063770615 -0.05377371 0.042367473 0.062960215 -0.07262822 -0.059968732 -0.007484092 -0.0008832297
0.012839169 -0.036710933 -0.08605425 -0.06230941 0.029086424 -0.049256876 0.035535026 0.0035240466
0.05070746 -0.08151115 -0.01614674 0.0081408005 0.045379378 0.03206932 -0.039958738 0.034762338
-0.025319923 -0.037696768 0.03064205 -0.06319964 0.037455868 -0.025122039 -0.015185049 0.030564638
0.07241239 0.0342758 0.025500156 -0.0028269123 -0.05446515 0.0041058147 -0.02713484 -0.07318945
0.034256995 0.014199547 -0.04479679 -0.038641922 0.08387013 -0.059018698 0.086995326 -0.026578687
0.036896553 0.022915682 0.03189683 0.07722107 0.07466249 0.07472384 0.0759855 -0.077702
0.08046803 0.036003888 0.03584653 -0.019375537 0.01910428 0.024560569 0.07512564 -0.048305377
