results/scratch/12owob2t/sae_16/model.pth (torch, 263199 bytes, 2 tensors)

encoder.0.weight f4 [256, 128]
0.06503472 -0.06425223 -0.041681044 0.044440597 0.0821793 0.04215708 -0.05984869 0.07599906
0.03459078 -0.08276049 0.036888365 -0.057375964 -0.017834978 -0.06255239 0.08585818 0.0156976
-0.054057624 0.04805739 0.060893994 -0.057788786 0.05842941 -0.077781975 -0.0537169 -0.08075651
-0.03946629 -0.036903944 0.0006418957 0.05636946 -0.020603647 -0.0018697149 0.057665844 0.04910656
0.08143334 -0.05502328 -0.02847109 -0.06372495 -0.010346184 0.06506041 0.036785237 -0.0021375527
0.020212809 -0.0025697695 0.06467205 -0.009549878 -0.01553359 0.053672377 -0.027253205 -0.041295025
-0.02739285 -0.08042771 -0.063856296 -0.051031154 -0.074233405 0.06033825 -0.08245826 -0.07374487
0.06823404 -0.04003101 0.06869619 0.013971432 0.06806481 -0.05255597 0.0054876218 0.07825388
0.023720153 0.08329863 0.018156324 0.020204138 -0.057195004 -0.023364538 0.032072216 -0.05192829
-0.04712597 0.056575067 -0.06778894 -0.069471 0.008295446 0.052549157 0.070847094 -0.018601583
0.0087236995 0.0020217963 0.070006 -0.013242675 0.053454112 -0.013823462 -0.006874721 0.021267898
-0.05832934 0.019478748 -0.010520492 -0.052565567 0.0482107 0.05570984 -0.0018515062 -0.065185025
-0.034749463 0.07993681 0.016092237 0.057647754 -0.017467024 0.021673514 0.07105482 -0.06964894
-0.044593703 -0.0218058 -0.033089124 -0.01351678 0.020350268 -0.044593044 0.0427788 -0.001534892
-0.08653573 -0.08015411 0.014623039 -0.02006019 -0.047003064 -0.02093669 0.057410352 0.062030554
0.060124326 0.017874014 -0.034395464 -0.047211204 0.0060458677 -0.07673206 0.022831857 0.08194095
-0.06955012 0.013088954 -0.08240972 -0.035506424 -0.022268457 0.06029461 -0.08682725 -0.049487095
-0.044499226 -0.022235027 0.04463847 -0.006508683 0.051563945 0.061041918 0.048084926 -0.080474794
-0.017095422 -0.086370446 -0.0021709928 0.067232005 0.05545248 0.0005715337 0.058295526 -0.009015419
0.08350936 0.07957937 0.0023311363 -0.072811715 0.0573436 0.052912045 0.053617094 -0.009574841
0.00462989 0.007821724 0.063520394 -0.019010646 -0.040460207 0.0036961664 0.056314714 0.023032535
0.05288653 0.08091652 0.014000714 -0.04842171 0.06060633 0.03652707 -0.087027915 0.022138393
0.043350216 0.03552248 0.08646655 0.039163977 -0.030419698 0.031946164 0.012514869 0.022527752
0.043685608 0.0066734157 -0.008396393 -0.051318176 -0.05607393 0.04626028 0.056848224 0.080494456
0.029715337 -0.065094255 0.06468358 0.06569273 0.079729065 -0.07017927 -0.025172953 0.060143467
0.01986905 0.033348173 -0.08740214 -0.0065216743 -0.072692074 0.012788805 0.07077389 -0.053798947
0.04452527 0.06614347 -0.032197155 -0.014362502 -0.07358237 -0.07505563 0.035266247 -0.06951088
-0.021852504 -0.017611898 -0.006004166 -0.024153609 -0.044210665 -0.08134864 0.018109962 -0.07566643
-0.031805284 0.04823338 -0.047767676 -0.047081944 -0.041930914 0.073103316 0.06614542 0.015032401
0.044367872 0.006812123 -0.068659574 -0.008888731 0.08308136 0.06666649 -0.07008279 0.058085095
0.008079602 -0.06404984 -0.06273721 -0.04235414 0.01764273 0.0408549 0.08481567 -0.051718064
0.011754393 0.01868366 -0.08700697 0.0026895679 0.024887377 0.02186686 0.039284047 -0.030310895
00000000: ec30 853d ac96 83bd beb9 2abd 5807 363d
00000010: 9f4d a83d e7ac 2c3d e623 75bd 65a5 9b3d
00000020: 10af 0d3d 557e a9bd 4118 173d 0f03 6bbd
00000030: a91a 92bc 781b 80bd 6ad6 af3d 4198 803c
00000040: 876b 5dbd d3d7 443d fb6b 793d efb3 6cbd
00000050: ad53 6f3d 284c 9fbd 4106 5cbd ab63 a5bd
00000060: 68a7 21bd 9728 17bd e444 283a aae3 663d
00000070: fbc8 a8bc 3911 f5ba 0533 6c3d f623 493d
00000080: 86c6 a63d 1760 61bd 343c e9bc 3a82 82bd
00000090: 0a83 29bc 643e 853d 1eac 163d 2f16 0cbb
000000a0: 5595 a53c 9469 28bb c872 843d 1777 1cbc
000000b0: 9980 7ebc 91d7 5b3d 1d42 dfbc f924 29bd
000000c0: f866 e0bc 49b7 a4bd 17c7 82bd 0b06 51bd
000000d0: af07 98bd 3e25 773d e0df a8bd 8d07 97bd
000000e0: 4abe 8b3d 8ef7 23bd 97b0 8c3d 6fe8 643c
000000f0: 9065 8b3d ee44 57bd 82d1 b33b 9243 a03d
00000100: c450 c23c 7998 aa3d 92bc 943c 2683 a53c
00000110: 4f45 6abd fd66 bfbc 285e 033d c2b2 54bd
00000120: 2907 41bd 42bb 673d eed4 8abd d046 8ebd
00000130: 9fe9 073c c93d 573d 4818 913d 5962 98bc
00000140: d9ed 0e3c 1d80 043b 4e5f 8f3d cef7 58bc
00000150: b3f2 5a3d cd7b 62bc 5745 e1bb 043a ae3c
00000160: bfea 6ebd e591 9f3c 245e 2cbc fe4e 57bd
00000170: 9578 453d 0030 643d 3dae f2ba ba7f 85bd
00000180: 7455 0ebd e9b5 a33d ded3 833c 0d20 6c3d
00000190: 0117 8fbc a78c b13c 3185 913d 1aa4 8ebd
000001a0: e3a7 36bd 14a2 b2bc 7688 07bd 7c75 5dbc
000001b0: 9bb5 a63c 32a7 36bd d338 2f3d 6e2e c9ba
000001c0: a539 b1bd d727 a4bd 7995 6f3c 4555 a4bc
000001d0: 4986 40bd 6c83 abbc 1e27 6b3d c013 7e3d
000001e0: ed44 763d 866c 923c 42e2 0cbd 8960 41bd
000001f0: 6a1c c63b b325 9dbd e009 bb3c a8d0 a73d
00000200: 4b70 8ebd 0d73 563c 6dc6 a8bd 2f6f 11bd
00000210: 576c b6bc 7bf7 763d 7cd2 b1bd fbb2 4abd
00000220: d244 36bd 3b26 b6bc d4d6 363d ca46 d5bb
00000230: b734 533d 1707 7a3d b3f4 443d f8cf a4bd
00000240: b30b 8cbc fde2 b0bd 3747 0ebb efb0 893d
00000250: 2422 633d fad2 153a 4ac7 6e3d 68b5 13bc
00000260: f506 ab3d 82fa a23d fac5 183b 4f1e 95bd
00000270: 1fe1 6a3d 4dba 583d 999d 5b3d cbdf 1cbc
00000280: 55b6 973b b026 003c fb16 823d 37bc 9bbc
00000290: 9ab9 25bd 623b 723b 42aa 663d baae bc3c
000002a0: 8c9f 583d 8fb7 a53d 4063 653c d855 46bd
000002b0: 583e 783d 699d 153d b13b b2bd 935b b53c
000002c0: ff8f 313d 0580 113d 6015 b13d 686a 203d
000002d0: bb32 f9bc fbd9 023d 2a0b 4d3c 1f8c b83c
000002e0: aeef 323d abac da3b 0691 09bc 0233 52bd
000002f0: c7ad 65bd 6b7b 3d3d afd9 683d 47da a43d
00000300: 946d f33c 2350 85bd d378 843d e989 863d
00000310: fe48 a33d 26ba 8fbd 8237 cebc ff58 763d
00000320: 6bc4 a23c 1898 083d e5ff b2bd c5b3 d5bb
00000330: 95df 94bd 2388 513c e7f1 903d 495c 5cbd
00000340: 2160 363d 3a76 873d 2ae1 03bd b350 6bbc
00000350: 5bb2 96bd c4b6 99bd 5773 103d b85b 8ebd
00000360: 0604 b3bc d446 90bc 98be c4bb cadd c5bc
00000370: 3e16 35bd 1e9a a6bd 585b 943c 00f7 9abd
00000380: 4246 02bd 5d90 453d 0aa8 43bd ffd8 40bd
00000390: c0bf 2bbd 31b7 953d 4077 873d 764a 763c
000003a0: 16bb 353d 3b38 df3b 649d 8cbd 0aa2 11bc
000003b0: 8f26 aa3d 7188 883d 9187 8fbd a3ea 6d3d
000003c0: 4f60 043c 902c 83bd 5e7c 80bd 897b 2dbd
000003d0: 7d87 903c 7857 273d d7b3 ad3d 52d6 53bd
000003e0: 7f95 403c 7a0e 993c b630 b2bd 7643 303b
000003f0: 9de0 cb3c 2122 b33c 4fe8 203d 8e4e f8bc

decoder.weight f4 [128, 256]
-0.03174445 0.055171862 0.035336375 0.04569908 -0.059030812 0.059400387 0.004579051 0.045035496
-0.0024496906 -0.04294877 -0.026746465 -0.0379756 -0.037388407 0.008929578 0.029977404 0.03287608
-0.055067036 -0.0402127 0.002277319 -0.018878493 -0.0308699 -0.024540046 -0.034799777 0.010246819
-0.04889234 -0.057916414 -0.016304621 0.05529147 0.04565308 0.0239153 0.059539985 0.045170337
0.04813549 -0.020401133 -0.025415272 0.053567186 0.0379409 -0.022154013 0.051125165 0.01214744
0.04666846 -0.049914718 -0.053531397 0.007025528 0.009513041 -0.045296874 0.049214575 -0.03469072
-0.01579735 -0.020097505 0.055456426 -0.018552313 -0.0556584 0.012822174 0.01211709 0.006933282
0.032270733 -0.0066715763 0.015200238 -0.060380705 -0.01599602 -0.059370343 0.0028907352 -0.003427558
0.021324793 0.048123356 -0.04995625 -0.033127576 0.02091517 0.015293293 0.049362395 0.024107547
-0.033965528 0.0048504043 -0.039161988 -0.027100742 0.047062863 0.041677535 -0.056253545 -0.025611836
0.005591036 0.010430709 0.0063486816 -0.0061086966 0.019957213 -0.008075421 -0.006089678 -0.037736367
-0.055448726 0.03776875 0.04566567 -0.058487117 0.03317945 -0.017376127 -0.050688125 -0.019096276
-0.051985506 0.042381573 0.0604382 -0.009490144 -0.011635347 -0.007381039 -0.004049579 0.011432014
-0.016065994 0.018079517 -0.013636442 0.019793173 0.00032674553 0.023449766 0.05504676 -0.036255557
0.02059848 0.062379707 -0.0072442563 0.04588393 0.040098205 -0.014453767 0.05583613 0.046696566
-0.02853608 -0.02389533 -0.05959422 0.040793333 0.018327707 -0.040616736 -0.025185427 0.03951958
0.045757513 -0.007459111 -0.049325205 0.013259636 0.010971464 -0.031523384 0.025485503 -0.0072567747
0.012498281 0.021624627 0.0038060674 0.01228473 0.01991489 -0.023981782 -0.012983383 -0.028861132
0.0278331 0.022581942 0.030722398 0.008952506 -0.031508245 -0.055626284 -0.04392555 0.011221815
-0.0584903 -0.0009757268 -0.038169384 0.036198583 0.0049502403 0.015036683 0.058531456 0.018899705
-0.015265693 0.03944568 0.03784755 -0.054086268 -0.007939924 0.03150396 -0.044520564 0.037575506
0.005309201 -0.05412795 0.016580038 -0.06101671 -0.01232199 0.052606743 -0.058219217 0.04538927
-0.04609858 0.007392398 0.046746626 -0.015050057 -0.024552455 0.029385557 0.0046760147 -0.05291212
0.061321005 -0.034088194 -0.029325958 0.0133623835 0.043257847 0.059743218 -0.03644348 -0.031350493
-0.0015969675 0.044821028 0.055700578 -0.05492033 -0.05813457 -0.015007875 -0.025459066 -0.03913376
-0.011836102 0.012704655 0.03192568 0.035359383 -0.054454323 -0.00073255965 -0.019699086 -0.0064672017
0.048770905 -0.036520377 -0.01313138 -0.017664654 0.030309517 -0.012989479 0.045879073 0.034841828
0.057372715 -0.06177433 0.056355048 0.00056536274 -0.053990077 0.013538183 0.038758535 0.024970671
0.03815767 0.046906866 0.05776126 -0.020706968 0.028645331 -0.028804276 0.046825238 -0.032343443
0.017608142 -0.013825368 0.010040082 -0.0459572 0.028471587 0.06008318 -0.019176228 -0.0047154147
0.05854017 0.0032184385 -0.05270413 -0.01585515 0.05446052 0.008120955 0.028555762 0.05410816
-0.014996716 -0.0003406428 -0.017642593 0.046341375 0.0062258025 0.020157155 0.04175553 0.029991902
00000000: 7806 02bd e4fb 613d e0bc 103d f52e 3b3d
00000010: 4bca 71bd d24d 733d dd0b 963b 2477 383d
00000020: fd8a 20bb 0deb 2fbd 671b dbbc 4e8c 1bbd
00000030: 9624 19bd 5d4d 123c 2c93 f53c 12a9 063d
00000040: f98d 61bd 12b6 24bd 133f 153b 12a7 9abc
00000050: dfe2 fcbc 3508 c9bc 368a 0ebd 46e2 273c
00000060: 5643 48bd c339 6dbd 4591 85bc 4f79 623d
00000070: b9fe 3a3d 05ea c33c 33e0 733d 8804 393d
00000080: b829 453d 4720 a7bc b033 d0bc 4469 5b3d
00000090: eb67 1b3d 557c b5bc 9f68 513d 0e06 473c
000000a0: 6d27 3f3d 6073 4cbd bd43 5bbd 6636 e63b
000000b0: 96dc 1b3c 3789 39bd 3995 493d db17 0ebd
000000c0: 7269 81bc 86a3 a4bc 4726 633d 05fb 97bc
000000d0: 10fa 63bd 1814 523c c286 463c 9630 e33b
000000e0: 512e 043d 3d9d dabb 6b0a 793c c251 77bd
000000f0: 160a 83bc 512e 73bd 7d72 3d3b e2a0 60bb
00000100: 55b1 ae3c ff1c 453d ed9e 4cbd c8b0 07bd
00000110: 4a56 ab3c b890 7a3c 3930 4a3d 317d c53c
00000120: 701f 0bbd 24f0 9e3b 5268 20bd 6002 debc
00000130: fdc4 403d 10b6 2a3d 1e6a 66bd eacf d1bc
00000140: 0235 b73b 91e5 2a3c 9a08 d03b 762b c8bb
00000150: 4f7d a33c c54e 04bc ec8b c7bb 7391 1abd
00000160: 341e 63bd 68b3 1a3d ed0b 3b3d 3090 6fbd
00000170: 2de7 073d 6158 8ebc 5a9e 4fbd cb6f 9cbc
00000180: c1ee 54bd 4d98 2d3d 0c8e 773d 8d7c 1bbc
00000190: 2fa2 3ebc a5dc f1bb 55b2 84bb 584d 3b3c
000001a0: d59c 83bc 7f1b 943c 626b 5fbc 4b25 a23c
000001b0: 0b4f ab39 b919 c03c b678 613d b580 14bd
000001c0: 25be a83c dd81 7f3d 3a61 edbb caf0 3b3d
000001d0: 043e 243d 7ecf 6cbc 6db4 643d e644 3f3d
000001e0: 7fc4 e9bc 24c0 c3bc 1219 74bd e916 273d
000001f0: fd23 963c bc5d 26bd ab51 cebc 48df 213d
00000200: 3b6c 3b3d 8f6b f4bb 3a09 4abd f23e 593c
00000210: a8c1 333c aa1e 01bd f9c6 d03c 3dca edbb
00000220: 97c5 4c3c 2126 b13c 376f 793b e445 493c
00000230: 8d24 a33c 7175 c4bc 41b8 54bc 2e6e ecbc
00000240: 3e02 e43c c4fd b83c 8aad fb3c 88ad 123c
00000250: ca0e 01bd 63d8 63bd 47eb 33bd b4db 373c
00000260: 8693 6fbd ebc7 7fba 8057 1cbd f744 143d
00000270: a035 a23b 6b5c 763c aebe 6f3d 8ed3 9a3c
00000280: f51c 7abc cb91 213d 0806 1b3d 9089 5dbd
00000290: 7416 02bc 4c0a 013d 325b 36bd c6e8 193d
000002a0: cef8 ad3b 45b5 5dbd dcd2 873c a8ec 79bd
000002b0: 2ce2 49bc 2b7a 573d 4677 6ebd 19ea 393d
000002c0: ddd1 3cbd ee3b f23b 6479 3f3d 8494 76bc
000002d0: 3b22 c9bc fbb9 f03c 4139 993b 61ba 58bd
000002e0: bc2b 7b3d 10a0 0bbd fe3c f0bc e6ed 5a3c
000002f0: 242f 313d 4eb5 743d c245 15bd 6069 00bd
00000300: 5651 d1ba 4196 373d 4a26 643d 24f4 60bd
00000310: 841e 6ebd 97e3 75bc 888f d0bc b94a 20bd
00000320: 36ec 41bc 2f27 503c 80c4 023d 00d5 103d
00000330: 7f0b 5fbd 3f09 40ba fa5f a1bc d2ea d3bb
00000340: 00c4 473d 6496 15bd 0025 57bc 77b5 90bc
00000350: aa4b f83c d3d1 54bc b2eb 3b3d 4eb6 0e3d
00000360: a7ff 6a3d 1407 7dbd 8dd4 663d da34 143a
00000370: b324 5dbd 41cf 5d3c 45c1 1e3d 4b8f cc3c
00000380: 384b 1c3d 6a21 403d 1297 6c3d a9a1 a9bc
00000390: 9da9 ea3c f2f6 ebbc d2cb 3f3d 8f7a 04bd
000003a0: f33e 903c cc83 62bc 287f 243c 9e3d 3cbd
000003b0: 3f3d e93c c819 763d 7717 9dbc c483 9abb
000003c0: d1c7 6f3d 70ec 523b 49e0 57bd a9e2 81bc
000003d0: ff11 5f3d c10d 053c c6ed e93c 85a0 5d3d
000003e0: c9b4 75bc 4d98 b2b9 3387 90bc 74d0 3d3d
000003f0: d101 cc3b 9e20 a53c d907 2b3d 94b1 f53c
