results/scratch/12owob2t/sae_448/model.pth (torch, 132127 bytes, 2 tensors)

encoder.0.weight f4 [128, 128]
0	0xbd80c40d	-0.06287394
1	0x3d99bf8a	0.07507236
2	0x3d41e65d	0.047338832
3	0x3ccfb04f	0.025352625
4	0x3cd5dc29	0.026105957
5	0x3d3ba136	0.04580804
6	0xbcf8c29c	-0.030366234
7	0x3c0c52a9	0.00856463
8	0xbc131bb6	-0.008978775
9	0xbd31f1b8	-0.04344341
10	0xbd098aa3	-0.03357948
11	0xbda214af	-0.07914101
12	0x3d7f8916	0.062386595
13	0xba2eceab	-0.0006668369
14	0xbd91bf66	-0.071165845
15	0x3d9f9926	0.077928826
16	0xbd4d6643	-0.050146352
17	0xbcca7fbe	-0.024719115
18	0xbc198ece	-0.009372426
19	0xbdb28254	-0.08716264
20	0xbd9b8022	-0.07592799
21	0xbd07c715	-0.033148844
22	0x3dac3466	0.08408432
23	0x3d74e9b6	0.059793197
24	0xbd94c7af	-0.07264649
25	0x3d8bdcd8	0.06829232
26	0x3d9128cc	0.070878595
27	0xbd47cb14	-0.048777655
28	0xbd2ffc6d	-0.04296534
29	0x3d395f7e	0.045257084
30	0x3b51b2a9	0.003199736
31	0xbcd3d4a3	-0.025858229
32	0x3ca223b3	0.019792413
33	0x3d822fa2	0.063567415
34	0x3dafd6b1	0.08585871
35	0x3cede584	0.029040106
36	0xbd302bd8	-0.043010563
37	0xbd9b9500	-0.07596779
38	0x3d643660	0.05571592
39	0x3d4151f3	0.047197293
40	0xbd75af29	-0.0599815
41	0xbda5421f	-0.08069252
42	0x3ce9d809	0.028545396
43	0x3d877279	0.06613631
44	0xbd103871	-0.035210077
45	0xbc87bc0b	-0.016569158
46	0xbc2786f4	-0.010225046
47	0xbd5c8671	-0.05383915
48	0x3befe77e	0.007321297
49	0xbd831af5	-0.06401626
50	0xbca869bc	-0.02055823
51	0x3d92fdc2	0.07177307
52	0xbd9e502b	-0.077301346
53	0xbd9da4ee	-0.076974735
54	0xbdabe571	-0.08393372
55	0x3d926beb	0.0714949
56	0xbbe5a0b4	-0.0070076827
57	0x3d0e7807	0.034782436
58	0x3db07043	0.08615162
59	0x3d1f4777	0.038886514
60	0xbd245297	-0.040117826
61	0x3ca25b1e	0.019818839
62	0x3d8bf0f6	0.06833069
63	0x3da74f15	0.081693806
64	0x3d2ae206	0.04171946
65	0xbda7d2c9	-0.08194501
66	0xbd00b2f2	-0.031420656
67	0xbc213c2a	-0.009841004
68	0xbd86486c	-0.06556782
69	0x3cafd873	0.021465516
70	0x3d85a67c	0.06525895
71	0xbc932558	-0.017962143
72	0x3daae328	0.08344108
73	0x3bbbdeaa	0.0057333307
74	0x3d5a274e	0.05326014
75	0x3d3ed7b2	0.04659242
76	0xbd26be72	-0.040708967
77	0x3d8210e0	0.06350875
78	0xbd2895f9	-0.04115865
79	0x3bd3c8b4	0.0064631347
80	0xbda6a758	-0.08137387
81	0xbbf38e4a	-0.0074327337
82	0xbd7211d8	-0.05909905
83	0xbd9937a2	-0.07481314
84	0x3d99ed3d	0.07515953
85	0x3cf693b0	0.03009972
86	0xbd85bc59	-0.06530065
87	0xbcec05f7	-0.028811438
88	0x3d17cb84	0.037059322
89	0x3d7438ab	0.059624355
90	0xbbb0dc0c	-0.0053973254
91	0x3d87421d	0.06604407
92	0x3daf41b3	0.08557453
93	0xbbb521ad	-0.005527696
94	0x3da27d5d	0.079340674
95	0xbc591358	-0.013249241
96	0xbcec8ea2	-0.028876606
97	0xbd8b3fce	-0.06799279
98	0x3d673fd4	0.056457356
99	0x3db46ae8	0.08809453
100	0x3dac95d4	0.08427015
101	0x3d29f2ca	0.041491307
102	0xbd60e762	-0.054908164
103	0x3d9b91fb	0.07596203
104	0xbcda393c	-0.02663862
105	0xbd08e8aa	-0.03342501
106	0xbd0ca331	-0.03433532
107	0x3bf6e18e	0.0075342124
108	0xbceaa01a	-0.028640795
109	0x3d9b2e56	0.07577197
110	0x3d8d0d4f	0.06887304
111	0xbb4848d8	-0.0030560996
112	0x3bf7f01d	0.0075664655
113	0xbb2f4768	-0.0026745442
114	0x3d4c29c6	0.049844526
115	0x3d5e6bac	0.054301903
116	0x3db4dd5e	0.08831285
117	0xbd1660f8	-0.03671357
118	0x3d8a9faf	0.067687385
119	0x3d9448bc	0.072404355
120	0x3cea155b	0.028574636
121	0xbd4afc7b	-0.04955719
122	0xbd479520	-0.0487262
123	0xbd4b67bb	-0.049659472
124	0x3bb91e79	0.0056493846
125	0x3d85ed28	0.065393746
126	0x3d56e1f2	0.052461572
127	0x3aebbdcc	0.0017985641
128	0xbd8a1cd6	-0.06743781
129	0x3c91ab8d	0.017781997
130	0x3c1c5682	0.009542109
131	0xbcdb2d36	-0.026754957
132	0xbd384e19	-0.044996355
133	0xbbd35ed1	-0.006450512
134	0x3d480ed9	0.048842285
135	0x3cc40676	0.023928862
136	0x3d377077	0.04478499
137	0x3d0ccf55	0.034377415
138	0xbda8145a	-0.08207007
139	0x3d80908a	0.06277569
140	0xbd5c6ffb	-0.05381773
141	0xbd9ae71a	-0.075636104
142	0x3d25cd9f	0.0404793
143	0x3dae5cb9	0.08513779
144	0xbcbfa547	-0.02339424
145	0x3cf74df7	0.030188544
146	0xbd030afb	-0.031992894
147	0xbd585b08	-0.05282119
148	0x3d3970dd	0.04527365
149	0x3d7a738c	0.06114535
150	0xbd483eb9	-0.048887942
151	0xbd5ed0a0	-0.05439818
152	0xbaf75f6c	-0.0018873042
153	0xbca593de	-0.02021211
154	0xbd02a13c	-0.031892046
155	0x3c6e850e	0.01455809
156	0x3c922883	0.017841583
157	0xbd904e53	-0.07046189
158	0xbb416d19	-0.002951449
159	0xbc1f4186	-0.009720212
160	0x3c73d1a4	0.014881525
161	0xbd419318	-0.04725942
162	0x3db05cdf	0.08611464
163	0xbd48a705	-0.048987407
164	0xbc4f85c5	-0.0126661705
165	0x3da14a1a	0.07875462
166	0x3da6cc1d	0.081444
167	0x3be23088	0.006902758
168	0xbd8c4621	-0.068493135
169	0xbcb546f4	-0.02212856
170	0x3c1eb26c	0.009686094
171	0xbdad3eb7	-0.084592275
172	0xbd95f565	-0.07322196
173	0x3d507318	0.050891012
174	0x3c1ae8fa	0.00945496
175	0xbd59137a	-0.05299709
176	0x3da6d4b4	0.08146039
177	0x3cb88ab0	0.022527069
178	0xbcd8833a	-0.026429761
179	0xbc79bb3f	-0.015242397
180	0xbd07b68e	-0.033133082
181	0xbcf776c2	-0.030207995
182	0xbce9436f	-0.028474538
183	0xbc0cc54c	-0.008591961
184	0xbd877c9c	-0.06615564
185	0xbd311ff3	-0.04324336
186	0xbdad8f7e	-0.084746346
187	0xbc511f0e	-0.012763752
188	0x3d9fe95a	0.0780818
189	0x3c07f558	0.008298241
190	0xbd9979e0	-0.07493949
191	0x3d323a2d	0.043512512
192	0xbda5785c	-0.08079597
193	0x3d357624	0.04430212
194	0xbd4b0766	-0.049567603
195	0x3d55e659	0.05222163
196	0xbc98b45b	-0.018640688
197	0x3d247df7	0.040159192
198	0xbd8f9536	-0.070108816
199	0x3d927032	0.07150306
200	0x3d4be37c	0.049777493
201	0x3d6afefa	0.05737207
202	0xbdaf6e1c	-0.085659236
203	0xbcd2dd6a	-0.025740344
204	0x3d9378b9	0.072007604
205	0xbd2723a9	-0.040805493
206	0x3c3263a7	0.010888017
207	0xbcaddef5	-0.021224478
208	0xbcd8a9e0	-0.02644819
209	0xbd8cb627	-0.0687068
210	0xbd983387	-0.07431703
211	0xbd6f5d82	-0.058438785
212	0xbd4814ac	-0.04884784
213	0x3d62d054	0.05537446
214	0xbca77694	-0.020442285
215	0xbc745924	-0.014913831
216	0x3d29d618	0.04146394
217	0x3b1d6c50	0.0024020858
218	0x3db4bb28	0.0882476
219	0xbbd1fe0f	-0.00640846
220	0xbbc3ab72	-0.0059713656
221	0x3d9428ff	0.07234382
222	0x3d2a3550	0.04155475
223	0xbbd610b0	-0.006532751
224	0x3c4ebec4	0.012618724
225	0xbd99ce62	-0.075100675
226	0xbbbb55ed	-0.0057170303
227	0x3c637c57	0.013884625
228	0xbd5fc1ea	-0.05462829
229	0xbd0c7d9e	-0.034299485
230	0xbc155609	-0.009114751
231	0x3b80df92	0.0039329017
232	0xbc0c0075	-0.008545031
233	0xbd4bd450	-0.049763024
234	0x3d8893c6	0.066688105
235	0xbc2a0e44	-0.010379378
236	0xbcd1e166	-0.025620174
237	0x3d923a8e	0.07140075
238	0xbda578a1	-0.08079649
239	0xbd3902cc	-0.045168683
240	0x3c75d968	0.015005447
241	0xbc395b27	-0.011313236
242	0x3c802621	0.015643181
243	0xbcc1652a	-0.02360781
244	0x3c5bbfc8	0.013412423
245	0x3d4e0f4b	0.050307553
246	0x3d4819eb	0.048852842
247	0xbda37e2e	-0.07983051
248	0x3d8e10c3	0.06936791
249	0x3b677bf7	0.0035321692
250	0xbdb37a73	-0.0876359
251	0x3d8372e4	0.06418398
252	0x3d5b7b69	0.05358449
253	0xbd930506	-0.071786925
254	0xbcf2990e	-0.029613998
255	0xbd85a4f8	-0.06525606

decoder.weight f4 [128, 128]
0	0xbc809323	-0.01569516
1	0x3d818c7f	0.06325626
2	0x3c316a38	0.010828547
3	0xbd546f37	-0.051863875
4	0x3db26478	0.08710569
5	0x3a497e06	0.00076863205
6	0xbd8fcd54	-0.07021585
7	0xbcff3a20	-0.031155646
8	0xbcd420da	-0.025894571
9	0x3c90e5ea	0.017687757
10	0xbca910ca	-0.020637888
11	0x3d3ed6c8	0.04659155
12	0x3d2501b5	0.04028483
13	0x3d361df0	0.044462144
14	0xbc972022	-0.01844794
15	0xbd2d8e6a	-0.042372145
16	0xbd9be61d	-0.0761225
17	0xbd8e03e8	-0.06934339
18	0xbd838a56	-0.0642287
19	0x3d4ad2ac	0.04951732
20	0x3d1e1687	0.038595702
21	0xbd038001	-0.032104496
22	0x3c95b627	0.018275334
23	0xbd812d7a	-0.06307502
24	0x3ce72657	0.028216524
25	0xbd85ac0c	-0.06526956
26	0x3c09a5b2	0.008401321
27	0xbdb0a112	-0.08624472
28	0xbc5524e9	-0.013009288
29	0x3d31d5be	0.04341673
30	0xbd1fc3b9	-0.039005015
31	0xbd8f0500	-0.069833755
32	0xbdb23f36	-0.08703463
33	0xbda955a8	-0.08268291
34	0xbd3b4821	-0.045723084
35	0x3d34ab4e	0.04410868
36	0xbd534b07	-0.051585224
37	0x3d3fa65f	0.046789523
38	0xbc86e96a	-0.016468722
39	0xbcbe2360	-0.023210227
40	0xbb87ba85	-0.004142108
41	0xbb845d00	-0.004039407
42	0xbc3ba39e	-0.011452584
43	0x3c6f3948	0.014601059
44	0xbc894e14	-0.016760863
45	0xbd0f27fa	-0.034950234
46	0xbd396f04	-0.04527189
47	0x3d3affef	0.045654234
48	0x3c1d03b5	0.009583403
49	0xbd810958	-0.0630061
50	0xbcc49168	-0.023995116
51	0x3c321f6a	0.0108717475
52	0xbd31fc0a	-0.043453254
53	0x3d5c5ce4	0.053799525
54	0x3d83bd34	0.06432572
55	0xbd8dca48	-0.06923348
56	0xbbe77bc8	-0.0070643164
57	0xbd15dac3	-0.03658558
58	0x3d74e17d	0.059785355
59	0xbd499d12	-0.04922206
60	0xbd9e3779	-0.07725424
61	0xbcc59069	-0.024116712
62	0x3d00a404	0.031406417
63	0x3d99e0a0	0.07513547
64	0xbc37534c	-0.011189293
65	0x3ad55ab2	0.001627764
66	0x3d2af05a	0.041733123
67	0x3d6a776f	0.057242807
68	0x3d23a6f9	0.03995416
69	0xbd352610	-0.044225752
70	0x3c149d9d	0.009070781
71	0xbd9021c0	-0.07037687
72	0xbd6185e6	-0.055059336
73	0x3d809a28	0.06279403
74	0x3d03b1db	0.032152038
75	0x3ce483ac	0.027894817
76	0x3d0da097	0.03457698
77	0x3d999069	0.07498247
78	0xbc778170	-0.015106544
79	0xbd68b2ba	-0.056811072
80	0xbd363b37	-0.044490065
81	0xbdaea6c4	-0.08527902
82	0xbd6946db	-0.05695234
83	0x3db4c62f	0.08826863
84	0x3cf58470	0.029970378
85	0x3b2f3ddc	0.0026739752
86	0x3c36d0f1	0.011158214
87	0xbd78f93c	-0.060784563
88	0xbc5bf174	-0.013424266
89	0xbc2fbb97	-0.010725877
90	0x3d7ecf76	0.06220957
91	0x3c89409f	0.016754447
92	0xbdb2d56e	-0.08732115
93	0xbd8caecb	-0.068692766
94	0x3d38df16	0.045134626
95	0xbc3c03eb	-0.0114755435
96	0xbd8384f9	-0.06421847
97	0xbd88778d	-0.066634275
98	0xbcaee1d9	-0.021347927
99	0xbd7dedd1	-0.061994378
100	0x3d7d2103	0.06179906
101	0xbd159922	-0.036522992
102	0xbb4da086	-0.0031376197
103	0x3d02304c	0.03178434
104	0x3d530785	0.051520843
105	0x3da70ed3	0.08157124
106	0xbdaf1824	-0.08549526
107	0xbd95fa13	-0.073230885
108	0xbc95e5c8	-0.018298045
109	0x3d3f5935	0.046715934
110	0xbd87a42b	-0.066231094
111	0x3d4eeaa5	0.050516743
112	0xbdaba1c1	-0.083804615
113	0x3bf22c52	0.0073905373
114	0xbd56522f	-0.05232447
115	0x3d511672	0.051046796
116	0xbdb3faa0	-0.08788037
117	0xbdabdcf6	-0.08391754
118	0xbc296380	-0.010338664
119	0x3d37fe70	0.044920385
120	0xbd862585	-0.06550125
121	0xbd26c0ff	-0.0407114
122	0xbdab604c	-0.083679765
123	0x3cfae9b6	0.03062902
124	0x3baa4d60	0.005197212
125	0xbd829e43	-0.06377842
126	0xbc885f85	-0.01664711
127	0xbc9334a9	-0.017969446
128	0x3c8f908f	0.017524986
129	0xbd2e13bc	-0.04249929
130	0xbc8a86f9	-0.016910063
131	0xbd9173ea	-0.07102187
132	0xbd772acb	-0.060343545
133	0xbcae7f56	-0.021300953
134	0x3da8594b	0.08220156
135	0xbcbe1c3d	-0.023206824
136	0xbcc86138	-0.02446042
137	0xbd44a343	-0.04800726
138	0x3d7697e0	0.060203433
139	0x3d1bbfb2	0.03802461
140	0xbda440f2	-0.080202
141	0xbd9ce398	-0.076605976
142	0x3cba06b1	0.022708269
143	0xbdb2642c	-0.087105125
144	0x3cba4aba	0.02274071
145	0xbd9da47e	-0.0769739
146	0x3d265215	0.040605623
147	0xbc02b440	-0.007977545
148	0x3c7b0ccd	0.015322876
149	0x3d27ad85	0.040936965
150	0x3d996875	0.07490627
151	0x3d94ca8a	0.07265194
152	0xbd5bf169	-0.053697024
153	0x3da8216b	0.08209499
154	0xbd091a35	-0.03347226
155	0xbd38e57f	-0.04514074
156	0xbd36759b	-0.04454575
157	0xbd8004e4	-0.06250933
158	0x3d2ebfb1	0.04266328
159	0x3cfd723d	0.030938262
160	0xbd83b4f3	-0.06430998
161	0xbb14c21e	-0.002269871
162	0x3d8d2d8a	0.068934515
163	0xbd847f39	-0.06469578
164	0x3d46191f	0.0483638
165	0x3d955cd2	0.07293095
166	0x3d807607	0.06272512
167	0x3cc5b387	0.024133457
168	0x3d3de4dc	0.046360835
169	0x3c5cff7b	0.013488646
170	0xbd6e4ccf	-0.05817872
171	0x3c102e2e	0.008800073
172	0xbcc9083a	-0.024540056
173	0x3ca801ef	0.020508735
174	0xbd36b624	-0.044607297
175	0x3d9bfb96	0.076163456
176	0x3db432c0	0.08798742
177	0x3ce70491	0.02820042
178	0x3c8f302c	0.017479025
179	0x3ad07f9a	0.0015907169
180	0xbb24b521	-0.0025132375
181	0x3d967ed8	0.07348412
182	0x3cca83cf	0.024721054
183	0x3d8d22b7	0.06891387
184	0xbce5f3cd	-0.028070355
185	0x3d5db334	0.05412598
186	0xbc6e83d2	-0.014557796
187	0x3d903875	0.07042018
188	0x3c505932	0.012716578
189	0x3d8c1b3f	0.06841134
190	0x3d697154	0.056992844
191	0x3d693073	0.05693097
192	0x3d923ce9	0.07140524
193	0xbd63581a	-0.055503942
194	0x3d8afee2	0.06786896
195	0x3d2bd49d	0.04195081
196	0xbd4948cb	-0.049141686
197	0xbd5f6bc7	-0.054546144
198	0x3c5c17ae	0.01343338
199	0xbd8c6262	-0.068547025
200	0x3ab083a8	0.0013466971
201	0xbdaf49bf	-0.08558988
202	0x3d378c3a	0.044811465
203	0xbc26bf54	-0.010177452
204	0x3d38b79f	0.04509699
205	0xbbad227b	-0.0052836514
206	0xbd9847d4	-0.07435575
207	0x3d8aa49e	0.067696795
208	0x3ca13efe	0.019683357
209	0xbd81a31f	-0.06329941
210	0xbc0a763f	-0.008451044
211	0xb9f3bc84	-0.00046489027
212	0x3da09b5a	0.07842131
213	0x3db2d7e5	0.08732585
214	0xbcf6c5cb	-0.030123612
215	0xbdb404b8	-0.087899625
216	0xbd420e54	-0.047376946
217	0x3d4bee6c	0.049787924
218	0x3d5558bb	0.052086573
219	0x3d1a2ad5	0.037638504
220	0xbd231578	-0.039815396
221	0x3db238bd	0.08702228
222	0x3d664d0a	0.056225814
223	0xbbe2ffb7	-0.0069274562
224	0x3c91d5c7	0.017802132
225	0xba45546a	-0.0007527532
226	0xbd65fe65	-0.056150813
227	0xbd948294	-0.07251468
228	0xba1b5f76	-0.00059270055
229	0xbcc1c3df	-0.023652969
230	0xbd87b49b	-0.06626245
231	0x3c804e75	0.015662411
232	0xbd553c99	-0.052059744
233	0xbd9aa413	-0.07550826
234	0xbc1490cc	-0.009067725
235	0xbbf58a85	-0.0074933195
236	0x3d285a5c	0.0411018
237	0x3d762142	0.06009031
238	0x3cdd9080	0.027046442
239	0x3d971603	0.07377245
240	0x3cae5ea8	0.02128537
241	0xbd603ceb	-0.054745596
242	0x3d36626a	0.04452745
243	0xbd6f5a5a	-0.058435775
244	0x3d430e7a	0.047621228
245	0xbd02c743	-0.031928312
246	0xbdaf1582	-0.08549024
247	0x3c6c7d1d	0.014434126
248	0x3d02ae0a	0.031904258
249	0x3d60ea20	0.05491078
250	0x3c8e761d	0.017390305
251	0xbd999fe3	-0.07501199
252	0xbd6d7321	-0.057971124
253	0xbdaa6114	-0.083192974
254	0xbd9c3f43	-0.07629254
255	0x3db019e8	0.08598691
