results/scratch/12owob2t/sae_151/model.pth (torch, 525343 bytes, 2 tensors)

encoder.0.weight f4 [512, 128]
00000000: 8cd8 0bbd e63a 2cbb 00d6 c0ba a0cf a13d
00000010: 3455 343d 1b31 a73d 917e b43d 34c0 f23b
00000020: 1c5a 013d adb3 513c c36f 21bb dbc2 893c
00000030: 6280 a1bd 10f2 51bc 8d89 ac3c 2231 a1bd
00000040: 04b9 f23c a9f1 a73d e05e 4d3d 2758 213b
00000050: 1dcf f1ba 6954 32bc 6ef9 8f3d 3311 90bd
00000060: 7f06 e4bc 1a3a a53d 8a89 9bbd 82e9 1abc
00000070: 5689 c1bc 8234 5fbd c514 91bd 0dd9 76bc
00000080: 82e3 383d 60ad 40bc 1511 b53c 365d 833d
00000090: a8b4 973d 60b4 e438 8c11 e73c d24a 583d
000000a0: 8d6a f73c 8331 893d d582 773d c30c 84bb
000000b0: d5dc f03c 4437 84bc 0b50 b43d 9c8b 8abd
000000c0: e6ce 2b3d 327a 3b3d e780 343d a442 52bc
000000d0: fa14 913d 6ca8 a03d 3413 47bd 26d4 963d
000000e0: 4737 21bc b71a ab3d b072 eeb9 a356 1f3c
000000f0: ee94 3a3d 1d80 54bd a008 49bd b966 ff3c
00000100: 9b33 4abd 93dc 8ebd 3824 2d3d 930e f93c
00000110: 8038 15bd 0024 a4bd d37d 973d fb14 4c3d
00000120: 3ee7 04bd 8c52 403d ac30 353b 4365 fc3c
00000130: 5e83 f83c 79f4 86bd 9bcd adbd e640 b23d
00000140: a5e7 993d 8dd9 303d 89ad 13bd 0076 8bbc
00000150: 0874 843d b11b 71bd 03eb 11bd cab3 48bd
00000160: e353 94bd 2c9b 60bb 5547 8e3d 7b5f 6b3a
00000170: 0996 993d a094 9c3b 5f68 f2bc 9543 d23c
00000180: 7bca 90bb de1f 94bb 0998 763d e234 51bd
00000190: 3f11 193d 47b5 873d 3b43 aabd f3ab b63c
000001a0: 6a42 0dbd acda ae3d 086e 28bd cff4 a03d
000001b0: 6e2d 983b 2f85 47bc d75e 58bd 2613 b33d
000001c0: 90cd 7fbc 3594 efbc 43a7 253b 2612 9e3d
000001d0: 8982 883d e805 aabd 37ea 95bd fe31 f03c
000001e0: aac4 5ebd 10a0 43bc e16f d5bc 7b72 683a
000001f0: fbf4 6b3d 15d3 87bd af6d 433d ffd6 883d
00000200: b43e 893d 8695 68bd 4b95 98bd 1524 0a3d
00000210: 7eac 28bd 7bfd 3fbd 1f02 8b3d ca0c 403d
00000220: 2740 dabc 386a 773d ef59 9f3d d004 b43a
00000230: 656c 73bd dabb 3f3d ca62 99ba d8d0 7d3d
00000240: 80b1 8cbd 3748 b33d 5d57 6c3d 10c6 86bd
00000250: 1026 a6bc 112d 913d 633e b4bd c959 833d
00000260: 8362 afbd 510c 213d b0b2 b33d 9509 06bd
00000270: 58ba 1a3d 4407 94bd c3e8 22bc fa3c 3f3c
00000280: 3ba2 9f3d 57ca 1d3d b84c 203d a11d 90bd
00000290: 140e dabc d2ca 993c 6140 1abc 96d5 adbc
000002a0: 35b7 a33d 9a71 873d 0f20 353d 7a06 40bc
000002b0: 158f 5ebd 0b32 50bd 2fe3 32bd 9282 6c3d
000002c0: 37a0 6cbd f637 2c3c 5e30 a3bd efca a13d
000002d0: 05ff a13d b566 29bd 7847 a83d 766a f7bc
000002e0: 202f 45bc 3dc6 af3c 6ca4 16bd f7ac 9b3d
000002f0: 79e1 46bd 36b6 a7bd f95b 11bd f0e2 aebd
00000300: ac17 623d adaa 943d 51e0 9d3d e1ea 873d
00000310: cee3 7abc 6310 a2bd fc9a 34bd 5ff9 e6bb
00000320: ff77 3abc 566c 82bd 40fc 863d e5ba 443d
00000330: 38ba 3abd e024 333c 6ade 413d 3eb4 413d
00000340: 01e7 323d 224f 01bd 24d7 8cbd 3c4b 27bd
00000350: 83e9 7abd 0c11 42bd 523c 9b3d 02ff 9b3d
00000360: e222 b4bc ebaf b1bd 3f9b ad3d bbf4 553d
00000370: 583b 2c3d b419 593d 657c b0bc e81a a43d
00000380: 7cea 103d a20a 6abc 0a2a 15bd 44dc 6dbd
00000390: 85a4 32bd 7690 5b3d ca89 aebd dddf d33c
000003a0: 1403 b6bb be5c 49bd 9fd5 94bd 2fdd e3bc
000003b0: 48be ac3d 00da 893c 7baf a2bd 0c6c 883c
000003c0: 8e82 57bc bca6 9d3d de70 ebbb ffd4 363d
000003d0: 1f6a 69bd 2ee2 ec3c a283 dfbb e42f f73c
000003e0: 0f09 de3c 2093 aa3d 33b6 52bd 3547 553d
000003f0: a1e6 7d3c dccb b2bd 7c9b 403d d734 b33c
-0.034142062 -0.0026280223 -0.0014712214 0.079009295 0.04402657 0.08163663 0.08813203 0.0074081663
0.031580076 0.012799186 -0.0024633266 0.016816547 -0.07885815 -0.01281406 0.021061683 -0.078706995
0.029629238 0.0820039 0.050139308 0.0024619193 -0.0018448565 -0.010884383 0.07029997 -0.070345305
-0.027835129 0.080677226 -0.07594593 -0.009455087 -0.023625057 -0.054493435 -0.070840396 -0.015066397
0.045138843 -0.011760086 0.022102872 0.06414263 0.07407504 0.00010905485 0.02820661 0.05280573
0.030202175 0.06698897 0.060427506 -0.0040298416 0.029402176 -0.016139634 0.088043295 -0.067649096
0.04194536 0.04577083 0.044068243 -0.012833271 0.07084079 0.07844624 -0.048602298 0.07364683
-0.009839839 0.08354705 -0.00045480346 0.009725246 0.045552187 -0.05187999 -0.04908049 0.031176912
-0.04936562 -0.06975665 0.04227087 0.030402457 -0.036430836 -0.08014679 0.07397046 0.049824696
-0.032447092 0.046953723 0.002764742 0.030810004 0.030336078 -0.06589598 -0.08486482 0.08703785
0.07514886 0.043176223 -0.036054168 -0.01702404 0.06467444 -0.0588643 -0.035624515 -0.048999585
-0.072425626 -0.0034272177 0.06947199 0.0008978766 0.0749932 0.0047784597 -0.029590784 0.025666991
-0.004418669 -0.0045204004 0.060203586 -0.051075824 0.037369963 0.06626373 -0.083136044 0.022298789
-0.034487166 0.08537802 -0.04112056 0.078591935 0.0046440875 -0.01217775 -0.05282482 0.08743887
-0.015612975 -0.029245475 0.0025276698 0.07718305 0.066655226 -0.08301908 -0.073200636 0.029320713
-0.054386772 -0.011940017 -0.026054325 0.00088671566 0.05760668 -0.066320576 0.047712024 0.06681632
0.06701413 -0.05678322 -0.074503504 0.033725817 -0.041180126 -0.046872597 0.06787514 0.046887197
-0.026641918 0.060404032 0.07780825 0.0013734344 -0.059429545 0.04681001 -0.0011702415 0.061966747
-0.06869793 0.08754008 0.057700504 -0.06580746 -0.020281821 0.07088674 -0.08800962 0.064136095
-0.085637115 0.039318386 0.08774316 -0.032723982 0.037775367 -0.07227948 -0.00994319 0.011672253
0.07794615 0.038523044 0.039135665 -0.07036901 -0.026618041 0.01877347 -0.009414763 -0.02122001
0.07993928 0.06613465 0.044220027 -0.011720294 -0.054335672 -0.050828975 -0.04367369 0.05774171
-0.05776998 0.010511389 -0.0796821 0.07900035 0.07909969 -0.041357715 0.082167566 -0.030202132
-0.012035161 0.021456832 -0.0367779 0.0760135 -0.04855487 -0.08189051 -0.035488103 -0.08539379
0.055198357 0.07259116 0.077088006 0.066365965 -0.015313102 -0.07913282 -0.044093117 -0.0070487703
-0.011381148 -0.0636832 0.065910816 0.0480298 -0.04558775 0.010934085 0.04733125 0.047291033
0.043677334 -0.031569608 -0.06876972 -0.040843233 -0.06125785 -0.04737954 0.075798646 0.07616998
-0.02198929 -0.08676132 0.084768765 0.052235346 0.042048782 0.053003028 -0.021543691 0.080129445
0.03537987 -0.014284762 -0.036417045 -0.05807139 -0.04361393 0.053604566 -0.08522375 0.025863582
-0.005554566 -0.04916071 -0.072673075 -0.02781543 0.08434731 0.016827583 -0.079436265 0.016653083
-0.013153685 0.07697818 -0.0071850857 0.044636723 -0.05698597 0.028916445 -0.006821112 0.030174203
0.027103929 0.08328843 -0.05144329 0.05206986 0.015496881 -0.08730289 0.04702328 0.021875782

decoder.weight f4 [128, 512]
00000000: 045d cf3c 131d d43c 4444 d8bc 1c19 86bc
00000010: 72fc 453b c711 123d d2a4 293d 2faa 963c
00000020: 2ac7 d8bc b806 103c c809 153d 692b d8bc
00000030: 73ec f3b8 7484 793c 0e88 823c 9707 1a3d
00000040: 4f33 b8bc c5e1 243d b59d c7bb 3cf8 04bd
00000050: 9e40 07bc 9b46 443c 6df5 30bd c0e8 a1bc
00000060: f234 083c 2d40 1fbd 0401 febc 6a52 fcbb
00000070: cb33 61bc 6045 303d c9db 09bd 2aeb 69bc
00000080: 9df9 75bc 8f02 a53c 1684 df3c 5d82 b0bc
00000090: 9d73 fa3c a72e bfbc 35b5 113d a014 313d
000000a0: 5a48 91bb de85 823b 70fc ed3c 9018 583c
000000b0: f163 6a3c 940a 093d f633 8ebb ce8c 7d3c
000000c0: 0388 d2ba 268a cc3b f4a4 9cbc 2113 443c
000000d0: bc79 0dbd 861b 1f3d d0d5 213d 2020 cf3c
000000e0: 6a1c a53c c4ff f5bc 6de3 eabc eaa0 e53c
000000f0: c7af 85bc eb2e 03bd 6768 c0bc b799 263d
00000100: efe1 1cbb 71a6 e9bc efb2 11bd cc06 e73c
00000110: 22c5 e63c 7e2f 353d 7ed2 92bc 06b2 173d
00000120: 2e87 b1bc 2521 d2bc c1e3 d6bc 179a 013d
00000130: 1668 e33b 67e5 b53c e5be fe3c bdd1 10bd
00000140: 6fec 333d 8d03 1a3d 9894 32bd 56bd 1ebd
00000150: 0bf7 90bc 7cc2 933c ac88 ea3c eb8a d3bc
00000160: 1a71 b43a 52fd 063d 8a76 fd3c cd7d 4abc
00000170: 448e 7d3a 2230 f9bc 40c2 103c 7619 833c
00000180: 87df 313d dd50 2ebd bd43 b7bc 334e 32bb
00000190: ce57 73bb 55af 323d 8d14 fe3c 3b10 1ebd
000001a0: 2ec8 1ebd fea9 28bd 3494 2bbd 275e 823c
000001b0: 6b88 c2b9 2bd5 d1bc 38f7 bcbc 49a7 92bb
000001c0: 6a47 20bd 63e2 fb3c b84c 5abc a68a b8bc
000001d0: b159 543c 34b4 183c a79f 193d 5224 0ebd
000001e0: 171e 243d 023d b93c d920 2fbc 7ff1 adbc
000001f0: 0367 9cbb 9cbd c3bc e29c f7bb 5c55 74bb
00000200: d746 c83c 8b5e fdbb 638d 593c 9426 26bd
00000210: fd9e 2abb 70a1 1d3c 00a5 a8bb 0dcf c339
00000220: 6af5 2dbd b368 03bd 77a1 b83c 73c4 47bb
00000230: ddc7 a93c 62d4 ec3c 5c12 e63c fa64 84bc
00000240: 401f b6bc 5496 c53c ad4e f9bc 5a06 0f3b
00000250: f4b7 0fbd 87f6 0b3d aed7 08bd e239 b4bc
00000260: e703 1d3d 42b2 1ebd 022d 373c 78ff 9dbc
00000270: 9dfb bdbc c355 98bc 1466 a4bb e585 093d
00000280: 5c6f 8bbc 7460 ccbc 7ab2 893b 6b90 f5bb
00000290: 096a 60bc 4c60 41bc bd24 efbc 02b4 b53c
000002a0: 094a f43c 350b 353d c7c4 8a3c 5ac1 6bba
000002b0: d995 213c 5a1a 5c3c fee7 153d 9e25 23bd
000002c0: fa38 0abd 65b7 5ebb dde5 e73c b4e9 c8bc
000002d0: a0c1 a83c 3631 26b9 3f9c de3c 3b79 14bb
000002e0: 74a8 a7bc 5f8c fd3c 46d2 9a3c 28a7 2e3d
000002f0: 4ecd 003b acfd fc3c 4136 903c 1c25 c439
00000300: 23cb 33bb 3e17 95bc 7325 6abc b5f7 963c
00000310: 6272 26bd 0de0 1bbd 9e0f 703c 0c3c 01bd
00000320: cc96 b3bc e704 823c 2e94 d53c 5da1 3abb
00000330: e836 09bd db16 bdbb a496 87bb 0404 59ba
00000340: 5f53 2abd c43f 21bd 7401 1a3c fa08 0b3b
00000350: b77b 1abd b20f 89bc 4e26 b0bb 7eab 253d
00000360: d63b 34bd a2b0 783c 1f53 1e3d 2e60 f2bc
00000370: 2b3c 853c c661 be3c 69ae 713b 4003 293d
00000380: bf46 cb3c c83b 0bbd 47b7 e43c afee d13c
00000390: de8b cdbc 29e6 e63b b519 033d 5623 c9bc
000003a0: 7451 a63b a34d 933b 6e2c b0bc 7c03 0f3d
000003b0: ee4d 263c cb2c 7dbc 1a7a ffbc eef1 2ebd
000003c0: 952f d33c 2a96 0ebd 0c8c 323d bc3a 05bd
000003d0: 3f70 343d e82a dc3c b1cc 1dbd da24 adbc
000003e0: fa1d b5bc c7b6 4bbb b8ce b63c 6788 453c
000003f0: 1f2d 66bc 0c25 4d3c 0950 1abc e49b 203d
0.025312908 0.02589277 -0.02639974 -0.016369395 0.0030210284 0.035661485 0.04141695 0.018391697
-0.026462156 0.008790664 0.03638628 -0.026387887 -0.00011631185 0.015229333 0.015934017 0.037604894
-0.022485403 0.040254373 -0.006091798 -0.032463297 -0.008255152 0.011979724 -0.043202806 -0.019764304
0.008313404 -0.038879562 -0.031006344 -0.007700254 -0.013745259 0.04303491 -0.03365687 -0.014277259
-0.015013126 0.020142822 0.027284663 -0.021546537 0.030572707 -0.023337675 0.035573203 0.04323256
-0.004433674 0.0039832434 0.029051036 0.01318945 0.014306054 0.033457354 -0.0043396903 0.015475465
-0.0016062263 0.0062420545 -0.019121625 0.011967451 -0.034539923 0.038844608 0.039510548 0.025283873
0.02015515 -0.030029185 -0.028672898 0.028030831 -0.016319169 -0.032027166 -0.023487283 0.040673938
-0.0023938378 -0.028521748 -0.035571035 0.028201483 0.028170172 0.044234745 -0.017922636 0.03703501
-0.021670904 -0.02565057 -0.026231648 0.031641092 0.0069398982 0.022204114 0.031096885 -0.035356272
0.043926653 0.037601043 -0.04359874 -0.038754784 -0.017695924 0.018037073 0.028629623 -0.025823077
0.0013766617 0.03295643 0.030940313 -0.012359095 0.00096723833 -0.03041846 0.008835375 0.016003352
0.043426063 -0.042557586 -0.022371167 -0.0027207255 -0.0037131193 0.04362424 0.031015659 -0.038589697
-0.038765125 -0.041177742 -0.041889384 0.015914036 -0.00037104203 -0.025614342 -0.023067102 -0.0044755084
-0.039130606 0.030747598 -0.013323955 -0.02252705 0.012960837 0.0093203075 0.037505772 -0.034702606
0.04006776 0.022612099 -0.010688984 -0.021233318 -0.004773022 -0.023894124 -0.0075565437 -0.0037282323
0.024447842 -0.0077322177 0.013278338 -0.040564135 -0.0026034706 0.009621009 -0.0051466227 0.00037347563
-0.042470373 -0.03208227 0.02253793 -0.0030482083 0.020725185 0.028909866 0.028084926 -0.01616143
-0.022231698 0.024119534 -0.030433023 0.0021823854 -0.03508754 0.034170654 -0.033408813 -0.022000257
0.0383338 -0.03874422 0.011180164 -0.019286856 -0.023191268 -0.018595582 -0.0050170515 0.033574957
-0.017020874 -0.024948336 0.0042021843 -0.0074940226 -0.013697156 -0.011802744 -0.029192323 0.022180561
0.029820459 0.04420014 0.016939534 -0.000899335 0.009862387 0.013434017 0.036598198 -0.039830796
-0.033745743 -0.0033983823 0.02830785 -0.0245255 0.02060014 -0.00015849326 0.027174113 -0.0022655267
-0.020466067 0.030950723 0.018899094 0.04263988 0.001965362 0.030882679 0.017603995 0.00037411682
-0.0027434311 -0.01819956 -0.014291155 0.018428663 -0.040636428 -0.03805547 0.014652161 -0.031551406
-0.021922491 0.015871478 0.026071634 -0.0028477528 -0.03349963 -0.005770547 -0.004137831 -0.00082784914
-0.041583415 -0.039367452 0.0093997605 0.0021215067 -0.03771564 -0.016731117 -0.00537566 0.04044675
-0.044002376 0.015178831 0.03865349 -0.029586878 0.016264042 0.023239981 0.0036877638 0.041262865
0.024814008 -0.03399256 0.027919425 0.025626509 -0.025091108 0.00704648 0.032006938 -0.024552982
0.005075628 0.004495339 -0.02150556 0.034915432 0.010150416 -0.015452574 -0.031186152 -0.04271119
0.025779525 -0.034811176 0.04359059 -0.032526717 0.04405236 0.026875928 -0.038525287 -0.021135736
-0.02210902 -0.0031084286 0.022315368 0.012056447 -0.014048844 0.01252104 -0.009418496 0.03921117
