results/scratch/12owob2t/sae_224/model.pth (torch, 132127 bytes, 2 tensors)

encoder.0.weight f4 [128, 128]
000000 c2 32 73 3d 39 e1 f5 ba 83 0e 80 3d ce 82 5d 3d
       0.05937458 -0.0018759138 0.06252768 0.054079823
000010 06 eb 19 3d 5a 8e 94 3d 88 40 88 bd b3 57 29 3c
       0.03757765 0.07253714 -0.06652933 0.0103358505
000020 00 be ad bd ba 32 61 bd 30 78 e4 3c bf ad 93 bb
       -0.08483505 -0.054980017 0.027889341 -0.004506796
000030 70 83 38 bd 80 67 a7 3d 56 55 a4 bd c5 8c 7a 3c
       -0.045047224 0.08174038 -0.08024089 0.015292351
000040 fd 96 79 3c 52 a7 2a bd 96 4d 84 3d 10 14 26 3d
       0.015233752 -0.041663475 0.06460111 0.040546477
000050 4d 14 84 3d 4b 8d b2 bd 32 6d d3 3b 9f f6 80 bd
       0.064491846 -0.08718356 0.006452226 -0.06297039
000060 dd c2 ab bd c0 74 d8 3c 4c 99 2e 3d 43 79 c2 3c
       -0.083867766 0.026422858 0.042626664 0.023739463
000070 c8 4d 2c bd ed ea 4e 3d 2d e1 96 bd 79 45 cd bc
       -0.042066365 0.05051701 -0.073671676 -0.025057541
000080 1a f4 eb 3c 21 9f 83 bc 8f 0f ad bd a1 bf e2 bc
       0.02880292 -0.01606709 -0.08450233 -0.027679266
000090 02 af 7d bc 3f 06 e7 bc e3 1a 95 3d f7 f0 a3 3d
       -0.01548362 -0.02820122 0.07280519 0.08004945
0000a0 d6 5b 85 bd 9d fd 89 bc 5f 37 41 bd 53 2b 5f bd
       -0.06511657 -0.016844565 -0.047171947 -0.054484677
0000b0 07 85 88 3c 57 43 2e 3d 02 7d 97 bd f9 53 83 3d
       0.016664995 0.04254469 -0.0739689 0.06412501
0000c0 ab f2 af bd 3e bf 9e 3d 02 e5 96 3d 4b b1 4e bd
       -0.08591207 0.0775132 0.073678985 -0.05046205
0000d0 b1 c8 19 3c 7c 32 5f bd 96 83 76 bc bd 83 68 3c
       0.0093862275 -0.054491505 -0.015046021 0.014191565
0000e0 54 e9 b3 3b de 90 70 3d 51 40 9f 3d 3c 6a 24 bd
       0.0054904614 0.058731906 0.07775939 -0.040140375
0000f0 cc 85 ac 3c c0 93 96 bc cd 73 45 bd d3 30 de 3c
       0.021059893 -0.018381 -0.04820614 0.02712289
000100 65 58 01 bd b0 2e 81 bd 88 15 19 3d 25 3c 22 3d
       -0.03157844 -0.06307733 0.03737405 0.03960814
000110 37 c8 4a 3d 47 b9 f5 bc bb ac a7 bc c1 8f 24 bc
       0.049507346 -0.029995574 -0.020468106 -0.010044039
000120 12 8d fa bb 16 e3 37 3d c7 12 ac 3d a7 ff 6c 3d
       -0.0076462114 0.0448943 0.08402019 0.057860997
000130 2e ba ff 3a 21 6f a1 bd ba 40 2e 3d 73 1e aa 3d
       0.0019510442 -0.07882524 0.042542197 0.08306589
000140 4c 5d 8f 3d dc 55 3a bd c3 63 95 bd 0d 7d 61 bd
       0.07000217 -0.045492038 -0.07294419 -0.0550509
000150 39 b1 61 3d 5e 17 5d bd eb 42 2d bc 96 89 11 3b
       0.055100653 -0.053977363 -0.0105750365 0.0022207252
000160 42 87 41 bd f4 80 8f 3d ff 37 9a 3d 45 03 ab 3d
       -0.047248133 0.07007018 0.07530212 0.08350233
000170 ff ed 84 bd 64 d7 8e 3c 91 2a ea 3b 7b 18 09 bd
       -0.06490707 0.01743669 0.0071461876 -0.033470612
000180 06 eb ef bb ee da 68 3d ba 9c 9a bd d5 e2 0d 3d
       -0.007321718 0.056849413 -0.075494245 0.034640152
000190 3e bb 84 3d 52 e9 a2 bd e4 a3 32 ba e1 8c 04 bd
       0.06481026 -0.079546586 -0.0006814583 -0.032360915
0001a0 9b 8b 94 bd af 34 ce bc 15 58 68 3d af fe 10 3d
       -0.0725319 -0.025171606 0.056724627 0.035399135
0001b0 fa d2 ae bd a6 3f 8e bd e2 80 1e 3d ac b9 8f bc
       -0.08536334 -0.06945734 0.03869713 -0.01754459
0001c0 0e c0 c9 bc 8a bd 51 3c 17 b3 6f bd de 84 3f 3d
       -0.024627712 0.012801537 -0.058520403 0.04675757
0001d0 de c0 38 3d 03 39 33 3d 52 f0 40 bd b9 59 37 3d
       0.045105807 0.043755542 -0.047104187 0.0447633
0001e0 57 b6 87 bc 20 87 8d bd 2b 89 24 bb 96 d1 1a 3c
       -0.016566439 -0.06910539 -0.0025106173 0.009449383
0001f0 14 65 98 3d 1f 36 94 bd 45 70 f3 3b 61 c2 e4 bc
       0.07441154 -0.07236885 0.007429155 -0.027924718
000200 2a ce db 3c 01 a0 46 bd fd 13 fe 3c cd 5f dd bc
       0.026831705 -0.048492435 0.03101539 -0.02702322
000210 1d c5 82 bd ec c4 08 bd b5 9b 92 bd d7 39 b4 3d
       -0.063852526 -0.033390924 -0.07158605 0.088000946
000220 90 6e 4c 3c 82 99 76 3d fe b4 a5 3d 67 21 92 3d
       0.012477532 0.06020499 0.08091162 0.07135277
000230 59 05 67 3c 28 5f f7 3b 33 7b 6e bc 5a 8e 97 3c
       0.014100396 0.0075491853 -0.01455574 0.018500496
000240 df 7d ab bd db 99 f5 bc 94 44 4c bc 6f f4 2d bd
       -0.083736174 -0.02998059 -0.012467522 -0.04246944
000250 2a 8e 13 3d 66 e1 33 bd 34 0b 28 3d 71 b3 bb 3a
       0.03602425 -0.04391613 0.04102631 0.0014320445
000260 e7 ea dd 3b e5 95 d5 3c a6 d5 04 3d 27 25 12 bc
       0.0067723873 0.026072452 0.032430314 -0.008919991
000270 c8 95 27 3d 1d 35 8a bd 6d a2 a7 bd d3 90 0f 3d
       0.040914327 -0.06748412 -0.08185277 0.035050225
000280 fe 38 a0 bd bf 13 3b bd 8c a8 f6 bb 88 e4 b2 3d
       -0.078233704 -0.04567313 -0.0075274166 0.08734995
000290 e7 cf 6d bc c9 1f ae bd 61 62 9b 3b ce 05 30 3d
       -0.0145149 -0.08502156 0.0047419523 0.042974286
0002a0 a7 ff 48 3d e5 83 98 bc 9c 73 53 3d 37 e5 93 3d
       0.049071934 -0.01861758 0.051623926 0.07221454
0002b0 f7 b6 9f bd 45 ec 62 bd 01 cd c4 3c 95 8a a8 3d
       -0.0779857 -0.055401105 0.024023535 0.082295574
0002c0 a0 ff 12 bd 21 d4 80 bd e8 16 9c 3d 90 0b 21 3d
       -0.035888314 -0.062904604 0.076215565 0.039317667
0002d0 c9 0c 24 bd 72 16 cf bc 0f bc fa 3c 84 76 c0 bc
       -0.040051255 -0.025279257 0.030607251 -0.023494013
0002e0 d2 c5 91 3d af 56 53 3d 3c 3e e6 bc fc 96 5c 3d
       0.07117809 0.05159634 -0.028105848 0.053854927
0002f0 c2 56 89 bd 5d 30 04 3c f7 b3 9e bd ec d3 31 3d
       -0.06706001 0.008068171 -0.07749169 0.043414995
000300 be 5e 00 3c 29 f0 a0 bd f3 e6 96 bd 50 61 a7 3d
       0.007835088 -0.07858307 -0.07368269 0.08172858
000310 60 80 2a bc a1 83 be bb 16 80 90 3d b4 0d a9 3d
       -0.010406584 -0.005814031 0.070556805 0.08254567
000320 62 fd 01 3d a6 55 a9 3d ab 4a 17 bc 31 c3 05 bc
       0.031735785 0.08268289 -0.009234111 -0.008164213
000330 e4 cb 7a 3d 71 15 af 3d 5e 39 fc bb 45 d3 4e 3d
       0.0612296 0.085490115 -0.0076972684 0.05049445
000340 21 69 91 bc 20 90 bc 3c b2 62 20 bd 5c 79 7c bd
       -0.017750325 0.023017943 -0.039156623 -0.061639175
000350 52 84 49 3d bd bf 30 bd 81 4f 72 3d d6 30 06 bd
       0.049198456 -0.043151606 0.059157852 -0.032761417
000360 ed 00 d7 3c 16 a3 c8 bc 06 e1 84 bd b4 e3 0c bd
       0.026245559 -0.024491828 -0.06488232 -0.034396842
000370 1e 28 13 3d 52 f3 6e bc 8c fd 87 bd 15 58 a8 bc
       0.03592693 -0.014584379 -0.06640157 -0.020549813
000380 c9 2b 35 3d 95 06 97 bd d1 c4 33 3d f0 61 9e bd
       0.04423121 -0.07374302 0.04388887 -0.07733524
000390 ba 17 a5 bc 04 ed 97 bc a2 37 54 bc 60 d6 ee bb
       -0.020152915 -0.018545635 -0.012952717 -0.007288739
0003a0 a1 46 b4 bd fa 4f 98 bd 79 49 4a 3d 1a 32 12 3d
       -0.08802534 -0.07437129 0.049386475 0.03569231
0003b0 33 15 6e bd e6 4f 62 bd b3 ef e9 39 6e 1e 84 3d
       -0.058125686 -0.05525198 0.00044619813 0.064511165
0003c0 8e 4f 06 3c 4b f5 f5 bb ed 8f 80 bd 49 74 2f 3d
       0.008197678 -0.007506048 -0.06277452 0.042835508
0003d0 95 bf e7 3b 72 a5 75 3d c8 48 b1 bd 14 cd 94 bc
       0.007072399 0.059972234 -0.0865646 -0.018164195
0003e0 c9 e0 a9 3d b3 e2 af bd 8e bd 27 3d 00 61 9d 3c
       0.082948275 -0.08588161 0.040952258 0.019211292
0003f0 f6 d9 91 bd 1e 5d a0 3d 4b 93 5a 3d b6 54 93 bd
       -0.07121651 0.07830261 0.053363126 -0.07193892

decoder.weight f4 [128, 128]
000000 2d 7b 98 3c 12 f6 87 3d 70 fc 09 bd dc e5 4e bd
       0.018613422 0.06638731 -0.03368801 -0.05051218
000010 a5 ea 80 3d c6 7e 10 3d 7f 4a 89 bc 35 ac 25 bd
       0.06294755 0.03527715 -0.016759155 -0.040447433
000020 c2 79 9d 3b 90 b8 5f bd 4e e4 80 bd a5 de 24 3d
       0.0048057744 -0.054619372 -0.06293546 0.040251393
000030 90 71 24 bd 2f 06 b3 3d 74 0c 14 bc 94 83 b0 3d
       -0.040147364 0.08741414 -0.009036172 0.086188465
000040 6b 68 5c bd 4a 03 d2 bc 48 90 0e 3d ef bc b7 bc
       -0.05381052 -0.025636334 0.034805566 -0.022428958
000050 81 35 9c bd 83 ea 30 bd 7f 29 06 3b 67 40 ce bc
       -0.076273926 -0.043192398 0.002047151 -0.025177194
000060 36 23 79 3d b1 8a 67 bd b5 45 29 3d 23 ac 24 bd
       0.060824595 -0.05652875 0.041326243 -0.040203225
000070 fa d8 a8 bd d3 55 f6 bc 45 d3 72 bb ed d9 7a bd
       -0.0824451 -0.030070221 -0.0037052196 -0.061242986
000080 61 52 02 3d a8 2c 62 3d ea e3 82 bd 45 25 ae bd
       0.031816844 0.05521837 -0.063911274 -0.08503202
000090 e4 3c 1e bc d4 b0 ac bb 98 2f 75 bd b5 45 af bd
       -0.009658072 -0.005270103 -0.059859842 -0.085582174
0000a0 cf 96 cf 3c 6b d0 0a bd 59 db c6 3c 57 50 a5 bc
       0.025340466 -0.03389017 0.024274515 -0.02017991
0000b0 5c 55 53 bc 18 83 87 3d 62 5a 50 3d 0c 31 10 bd
       -0.012898769 0.06616801 0.050867446 -0.035203025
0000c0 39 80 5a 3d c9 dc a9 bd 58 a0 f3 3c b4 dd b3 3d
       0.05334494 -0.082940646 0.029739544 0.08782521
0000d0 1d 82 8c bc a5 2a f1 bc f3 30 73 3d d5 bd 9b bd
       -0.017151887 -0.02943928 0.059372853 -0.07604567
0000e0 f0 70 36 bc 23 cf 8f 3d 52 1d 06 bd 61 93 f2 b9
       -0.011135325 0.0702193 -0.032742806 -0.00046267643
0000f0 60 b2 10 3d d2 d6 13 3d 51 4e 80 bd 4a fb 8d 3d
       0.03532636 0.03609354 -0.06264938 0.06932695
000100 65 94 2f bc 61 cf 99 3d fd 9c 8e 3c 22 1f 94 3d
       -0.010716532 0.075102575 0.017408842 0.072325006
000110 4e 39 4b 3d 4a a6 59 3c 78 06 ad 3b 4a 44 08 3c
       0.049615197 0.013284275 0.005280312 0.008317063
000120 2e 3c 90 3d 6d 1c 54 bc 7c df 42 3b 1c d1 fa 3c
       0.07042728 -0.01294623 0.0029735258 0.03061729
000130 7a e7 63 bd 4f 94 83 3d 3b d5 84 bd 39 f7 8b bc
       -0.055640675 0.06424772 -0.06485983 -0.017085658
000140 1e 60 80 bd 19 f6 7a 3d e9 03 9c 3d 9c 55 91 3d
       -0.06268333 0.061269853 0.07617933 0.07096407
000150 aa 50 c1 3a d7 89 1f 3d 57 63 08 3b cb f1 46 3d
       0.0014748771 0.038949814 0.0020811164 0.048570435
000160 4c 59 9b bb 18 25 88 bc f1 22 9e bd 60 bd 73 bd
       -0.0047408696 -0.01661925 -0.07721508 -0.059506774
000170 59 24 0e 3c 5e f6 80 bd 15 23 b1 bd 5a 7f 69 3d
       0.008675658 -0.06296991 -0.086492695 0.057006218
000180 52 82 85 bc b9 49 42 bc ab 89 da 3c 3d d5 a4 3b
       -0.016297493 -0.011858397 0.026676973 0.005030303
000190 c2 6c 9d bd eb 76 54 bc a3 75 87 3d 2b 1e 87 3b
       -0.076867595 -0.012967805 0.06614234 0.0041234693
0001a0 d9 50 a9 bc 10 5e 75 bc 6e c1 4a 38 8a c2 55 3c
       -0.020668434 -0.0149760395 4.83407e-05 0.01304687
0001b0 d2 3c 59 bd de 4d 2a 3d 58 36 c9 3c 20 45 6b bd
       -0.05303652 0.041578166 0.024562046 -0.05743897
0001c0 f3 b7 a6 3d 44 aa f9 3c a8 00 36 bc 08 f7 f4 bb
       0.08140554 0.030476697 -0.011108555 -0.0074757375
0001d0 90 7b 2e bc 81 8d b3 3d 20 ec ca bc ce 70 30 3b
       -0.010649577 0.08767224 -0.024770796 0.0026922706
0001e0 e6 8a e2 bc cb e8 2d 3d b5 7c ed bc 61 9f e1 bc
       -0.027654123 0.042458337 -0.028990129 -0.027541818
0001f0 18 36 43 bb cf ed 5b bd 15 b9 29 3d 96 28 9d 3d
       -0.002978688 -0.05369359 0.041436274 0.07673757
000200 5b c1 6f bd 07 bd 7b 3d c1 15 86 bd b6 5a 06 3b
       -0.058534008 0.061459567 -0.06547118 0.0020500845
000210 11 f3 27 3d 5b 9e 89 3d 44 12 10 bd 25 94 ba bc
       0.04100329 0.06719657 -0.03517367 -0.022775719
000220 0f eb ec 3a be ad a1 bc a3 d7 c1 3c 89 76 36 3a
       0.0018075424 -0.019736167 0.023662394 0.0006960412
000230 a7 6a 46 bd c3 8a ec bc 28 f8 03 3d 0a 3e 25 3b
       -0.048441555 -0.02887476 0.032219082 0.002521398
000240 28 1c a7 bd f1 14 75 3d 58 7a 8e 3d ce 76 fe 3c
       -0.08159667 0.059834424 0.06956929 0.03106251
000250 02 66 bc bc d9 53 1a bc 2e e7 62 3d ed 52 53 3d
       -0.02299786 -0.009419405 0.05539625 0.051592756
000260 9d bb 9c 3d e7 9f 65 3d c8 93 50 bd 0d 84 68 3d
       0.07652972 0.056060698 -0.050922185 0.05676656
000270 e8 91 eb 3a 52 b0 a5 3d 5a fe 9a bd ee 0f 70 3d
       0.0017972561 0.08090271 -0.07568045 0.05860894
000280 c2 2a 43 bc 52 3d 97 bd be 1e b9 3c 3b b2 84 3b
       -0.01191205 -0.07384743 0.022597667 0.004049567
000290 93 96 99 3d 47 49 b2 bc 8b da 9b 3b d5 02 4c bd
       0.07499423 -0.021763457 0.004756277 -0.04980739
0002a0 64 af c4 bc 21 cd 24 bd 56 35 e2 3c b0 5b 15 3c
       -0.024009414 -0.04023469 0.027613323 0.009116098
0002b0 81 03 a3 3d 20 99 52 3d fe d5 9e 3d 4c f0 b9 bb
       0.07959653 0.051415563 0.077556595 -0.0056743976
0002c0 77 90 46 3d 68 9c 3d 3d 1c b7 3b 3c 6d f2 3f bd
       0.048477616 0.04629174 0.011457231 -0.046862055
0002d0 ce 63 b7 3c 8c 75 9a bd f1 82 6e bd cd 61 f1 ba
       0.022386458 -0.075419515 -0.058230344 -0.0018415988
0002e0 11 2f 84 bd 95 da 55 3c 78 31 a3 3d 6e bc 65 bd
       -0.0645429 0.013052602 0.0796842 -0.056087904
0002f0 c1 5a 39 3c e2 cf 66 3c 2b 5b 86 bd df 6c c1 3c
       0.011313141 0.014087649 -0.06560358 0.023611484
000300 a4 f8 87 bd 7d f2 83 3d 88 33 95 3d cd 06 21 3d
       -0.06639221 0.06442735 0.072852194 0.039313126
000310 04 70 be bc 4c 06 ab bd 26 18 8d 3d 38 dc 70 3d
       -0.023246773 -0.083508104 0.068893716 0.058803767
000320 bb 73 52 3d 92 28 78 bd f9 37 a7 bd 79 05 28 3d
       0.0513799 -0.060585566 -0.08164973 0.041020844
000330 fe a5 11 bd 99 1f 5c bd 33 e7 1c ba e8 b2 a6 bd
       -0.035558693 -0.05374107 -0.0005985379 -0.081395924
000340 ab 90 5d bd f4 f1 8b 3d 45 03 40 3a 21 d3 7e bd
       -0.054093044 0.06833258 0.0007324706 -0.062213067
000350 8e a0 9c bd 1d 2d 5d bd 68 ae 06 3d e8 91 81 bd
       -0.07647811 -0.0539981 0.03288117 -0.063266575
000360 a9 ec 0e bc c3 95 28 bd f8 b6 74 bd 53 7b 6b 3c
       -0.008723416 -0.04115845 -0.059744805 0.0143726645
000370 03 8b b1 3c 92 e5 cb 3c 6f 0b df bc 9b 64 5b 3c
       0.021672731 0.024889741 -0.027227132 0.013390685
000380 91 4d 94 3d a2 a4 aa 3d 73 58 8a 3d 98 dc 00 bc
       0.07241357 0.083321825 0.067551516 -0.007865094
000390 48 ea c9 bc 9d ea 93 bd ce 7a 66 bd 31 1a 50 bd
       -0.024647847 -0.07222483 -0.05626946 -0.050806228
0003a0 6a fa af bd 6a d9 ee ba 9d 4d 7f bc 4f 21 cb 3c
       -0.085926846 -0.0018222753 -0.015582469 0.024796156
0003b0 8e 79 a3 bd 82 90 8f bd 49 bd 67 bc 17 07 12 bd
       -0.07982169 -0.070099846 -0.01414425 -0.035651293
0003c0 fa c1 3b 3d 4d cd ad bd 0f f3 99 bc 7b d7 5f bc
       0.045839287 -0.08486424 -0.018792657 -0.013662214
0003d0 bb ee 1a 3d 92 f7 8c bd 58 2a f2 bc 26 68 8b bd
       0.037825327 -0.06883158 -0.029561207 -0.06806974
0003e0 55 18 9d bd 9a 1d e1 3c 16 67 83 3d af 48 26 bd
       -0.076706566 0.027479935 0.064161465 -0.04059666
0003f0 6c cf 03 bc 7f 4f 7a bd a4 61 82 3d 1c 3f 68 3d
       -0.008045059 -0.06111097 0.0636628 0.05670081
