results/scratch/12owob2t/sae_404/model.pth (torch, 132127 bytes, 2 tensors)

encoder.0.weight f4 [128, 128]
0.024000345 -0.0558307 0.039603822 0.07254282 -0.061588466 0.04589314 0.08297714 0.044398617
0.08030485 -0.05669696 0.0740178 0.004225533 0.0058289664 -0.060703352 -0.011097811 0.079787396
0.06687845 0.0164166 -0.056227367 0.051530723 0.038234696 -0.07507008 -0.014502743 0.02359266
0.085549936 -0.014499923 -0.00037747578 0.08036698 -0.08231036 -0.05697706 0.06277695 0.05525718
-0.026921386 -0.0323852 0.08094149 -0.029621571 0.05195865 -0.0042636534 0.04063374 0.062207583
-0.051941995 0.015907686 -0.022731336 -0.070541546 -0.05622714 0.0047909818 0.018252645 -0.062109586
0.08600215 0.0096421605 -0.07953245 -0.018609459 -0.075904295 -0.07743526 -0.051288452 -0.018291924
-0.0702731 -0.041179363 0.031670023 0.01987512 -0.060910594 -0.077720284 -0.08585028 0.062156335
-0.07501735 0.006312634 -0.015998688 -0.0026618901 0.009205148 -0.06998696 0.008066325 0.013745088
-0.033330705 -0.040385142 -0.018158803 -0.045185495 -0.08155726 0.07991382 0.082026735 -0.03664784
0.07446712 0.021750493 0.014954946 -0.047160078 0.06456317 -0.08566877 0.052974768 0.036401298
0.009776128 -0.06449656 -0.036240555 -0.06938884 -0.08267155 0.014055316 0.048120055 0.045116637
-0.039972022 0.08625749 -0.033271544 -0.08024201 -0.07473479 0.032746855 -0.07279043 0.009219872
0.068111084 0.0030671696 -0.076216966 0.046830412 -0.066737056 -0.05760325 -0.026646331 -0.08838103
-0.06531483 -0.07942722 0.032624993 0.0011258447 -0.018320614 0.05079625 -0.009065159 -0.043856643
-0.007996159 -0.018471334 0.085581966 -0.02968843 -0.0012908335 -0.0248664 -0.018030023 0.06700428
0.0687002 0.06696388 -0.02095195 -0.049451828 0.024651187 -0.042076822 -0.080690995 -0.024870757
0.082179554 -0.06754833 -0.0490703 -0.009638696 0.05265194 -0.041131932 0.045892946 -0.03904734
-0.040391617 -0.06383539 0.017253736 -0.061947588 -0.07006337 0.02177647 0.006217715 -0.033921476
-0.020327985 -0.006127856 -0.053737316 -0.0007613839 0.00466708 0.085798234 0.0023800116 -0.07413021
0.012876906 0.013246594 0.046777617 -0.05464636 0.041733287 -0.06592037 0.046002723 -0.079779625
-0.045198455 0.030563034 -0.077137865 -0.07337566 0.052128766 -0.08638387 -0.03838087 0.07051356
0.024043968 -0.028965686 0.030528903 0.039460644 0.034992058 0.077539854 -0.061645444 0.068250254
0.011243325 0.027409764 0.06256476 -0.062990844 -0.03736338 -0.08005868 -0.053206116 0.020644031
-0.0034084676 -0.009763442 -0.011586766 0.0036703434 0.004571912 -0.05919008 0.07808582 -0.03569901
-0.07993987 0.06647587 0.03519744 0.027998 -0.014154786 -0.040632978 0.072090976 0.06651862
0.07141329 -0.01890874 -0.013055837 -0.047299273 -0.032131504 0.08852254 0.051130734 -0.0649916
-0.018249003 -0.045786437 -0.08609874 -0.010948444 -0.054943994 0.035557833 -0.04971368 -0.022111012
0.08170297 -0.031346265 0.032308046 0.017984202 -0.016123615 -0.044586863 0.08354427 -0.02351036
0.020832717 0.06282954 0.020465571 -0.022529343 -0.06993901 -0.015580621 -0.029913515 -0.07700183
0.08671305 0.045814335 0.035749443 0.032780323 0.032611847 0.036787808 0.040549397 0.026270486
0.017716616 0.058025185 -0.06906886 0.011665725 -0.01485123 0.07395462 -0.008236509 0.05059436
00000000: 5f9c c43c bbae 64bd 9e37 223d 5491 943d
00000010: 3044 7cbd 72fa 3b3d ebef a93d 53db 353d
00000020: df76 a43d 123b 68bd a596 973d 5776 8a3b
00000030: ea00 bf3b 14a4 78bd 98d3 35bc 9367 a33d
00000040: 92f7 883d 1b7c 863c ab4e 66bd e111 533d
00000050: fc9b 1c3d 58be 99bd ea9c 6dbc 6545 c13c
00000060: ce34 af3d 1691 6dbc f1e7 c5b9 7197 a43d
00000070: 5692 a8bd c760 69bd 3491 803d 5a55 623d
00000080: 3d8a dcbc 58a6 04bd a7c4 a53d f0a8 f2bc
00000090: 98d2 543d 1eb6 8bbb 916f 263d 61cd 7e3d
000000a0: 21c1 54bd d650 823c 1137 babc 1678 90bd
000000b0: 6e4e 66bd abfd 9c3b 9286 953c 9f66 7ebd
000000c0: e521 b03d 27fa 1d3c e9e1 a2bd dd72 98bc
000000d0: b673 9bbd 6196 9ebd d713 52bd f2d8 95bc
000000e0: 58eb 8fbd b1ab 28bd 6db8 013d 26d1 a23c
000000f0: 637d 79bd d02b 9fbd 46d2 afbd a497 7e3d
00000100: b2a2 99bd 36da ce3b ae0f 83bc 1b73 2ebb
00000110: 30d1 163c 5355 8fbd 9f28 043c 1433 613c
00000120: c785 08bd e46a 25bd c5c1 94bc 6d14 39bd
00000130: 7e07 a7bd dba9 a33d a2fd a73d 0c1c 16bd
00000140: 3882 983d 172e b23c 9705 753c ed2a 41bd
00000150: b239 843d 1c73 afbd 12fc 583d 8719 153d
00000160: 0e2c 203c c616 84bd fa70 14bd bc1b 8ebd
00000170: b44f a9bd 4548 663c 8919 453d 39cc 383d
00000180: b4b9 23bd c4a7 b03d be47 08bd ec55 a4bd
00000190: 8e0e 99bd 9121 063d 2613 95bd f20e 173c
000001a0: d37d 8b3d 9102 493b a417 9cbd 3fd1 3f3d
000001b0: 70ad 88bd 63f1 6bbd 6849 dabc 1d01 b5bd
000001c0: c8c3 85bd bdaa a2bd c9a1 053d 1491 933a
000001d0: 1d15 96bc bb0f 503d 0886 14bc 06a3 33bd
000001e0: 5202 03bc 3251 97bc 9945 af3d 2635 f3bc
000001f0: 2f31 a9ba 9fb4 cbbc b3b3 93bc 8a39 893d
00000200: b1b2 8c3d 5c24 893d 6da3 abbc 008e 4abd
00000210: 49f1 c93c bf58 2cbd 5241 a5bd c2bd cbbc
00000220: c14d a83d c756 8abd f0fd 48bd 9feb 1dbc
00000230: 90a9 573d f579 28bd 3efa 3b3d 1bf0 1fbd
00000240: ae71 25bd 21bc 82bd b557 8d3c c1bc 7dbd
00000250: 627d 8fbd 9164 b23c f9bd cb3b 3ff1 0abd
00000260: e086 a6bc 2fcc c8bb a91b 5cbd 9c97 47ba
00000270: 4eee 983b fcb6 af3d f8f9 1b3b 94d1 97bd
00000280: a9f9 523c 3e08 593c e399 3f3d ddd4 5fbd
00000290: 86f0 2a3d 4201 87bd 5a6d 3c3d 8063 a3bd
000002a0: 0422 39bd 545f fa3c 75fa 9dbd fa45 96bd
000002b0: f984 553d 07ea b0bd 4235 1dbd 6a69 903d
000002c0: dbf7 c43c 7249 edbc c017 fa3c 7ca1 213d
000002d0: d553 0f3d 37cd 9e3d ef7f 7cbd cac6 8b3d
000002e0: ec35 383c 718a e03c f421 803d 5801 81bd
000002f0: 580a 19bd cef5 a3bd a8ee 59bd ac1d a93c
00000300: 9960 5fbb d8f6 1fbc 6bd6 3dbc 258a 703b
00000310: facf 953b 4c71 72bd 75eb 9f3d 2039 12bd
00000320: 84b7 a3bd 8024 883d 312b 103d 105c e53c
00000330: 7ae9 67bc c46e 26bd 6fa4 933d ea3a 883d
00000340: 2241 923d 80e6 9abc 26e8 55bc e2bc 41bd
00000350: 539c 03bd 4e4b b53d 766e 513d 511a 85bd
00000360: ef7e 95bc 8f8a 3bbd 8954 b0bd 1a61 33bc
00000370: f40c 61bd 17a5 113d 92a0 4bbd 2722 b5bc
00000380: e353 a73d f164 00bd 7155 043d 9b53 933c
00000390: ac15 84bc b7a0 36bd 4219 ab3d cc98 c0bc
000003a0: 60a9 aa3c c6ac 803d 6aa7 a73c 758f b8bc
000003b0: 2f3c 8fbd dc45 7fbc 300d f5bc 23b3 9dbd
000003c0: 9d96 b13d d0a7 3b3d 026e 123d a944 063d
000003d0: 0094 053d d0ae 163d 2017 263d 3435 d73c
000003e0: 7022 913c d1ab 6d3d f973 8dbd 9921 3f3c
000003f0: 9352 73bc 8575 973d 6cf2 06bc 083c 4f3d

decoder.weight f4 [128, 128]
0.019373907 0.06061706 -0.07830055 -0.027391909 0.088246666 0.043849785 -0.035778135 -0.014420563
-0.011636108 -0.007982231 -0.04810094 -0.027185353 -0.047745075 -0.06057979 0.01806031 -0.0087916
-0.012280516 -0.013250339 0.053668533 0.07637278 -0.025681227 -0.03422052 0.019205343 0.061040804
-0.0291121 0.073268294 0.03564365 0.063998856 0.060585875 0.07822549 -0.07049642 0.050112132
0.06440442 -0.023887284 0.08283859 -0.012149286 -0.037001807 0.028430402 -0.07881082 0.0033094448
-0.04217942 0.04205579 -0.060743015 -0.007764243 -9.904476e-05 -0.06946495 -0.04847308 -0.072189316
0.00349638 -0.074229255 0.027881708 -0.019559456 0.08668635 0.08624117 0.047609936 -0.03047147
0.08803211 0.069720276 -0.06427158 0.057066698 0.04806023 -0.015273989 -0.07490648 0.04232178
-0.06521852 0.08842881 0.009307773 0.0325769 0.074108206 0.03785516 0.03789695 0.041142657
-0.016517019 -0.077197544 0.047873035 -0.07966491 0.046496402 -0.03862994 -0.02712986 0.04739855
0.04961019 -0.068529785 0.029605148 0.023538621 0.08365492 0.053234406 -0.0021218378 -0.015137683
-0.055232182 -0.0416775 0.03955403 0.062246468 -0.036573254 -0.035572056 0.06532915 -0.009637244
0.0077247308 -0.05842052 -0.006210014 0.075365454 -0.044095244 0.02456567 -0.06664595 -0.045490153
-0.044811115 -0.068888366 0.026421215 0.06610158 -0.06950792 -0.0674408 -0.06314861 -0.082002014
-0.016034873 -0.023419222 0.042423435 -0.041728508 0.028737644 0.029147306 0.053945493 -0.01798834
0.015376766 0.026015878 0.0700322 -0.066646636 0.042749323 0.058980633 -0.056207277 0.033173542
0.073117346 0.08489315 0.06610665 -0.034036614 -0.07469826 0.039163616 -0.06292917 -0.08713148
-0.08846947 0.05939478 0.078163624 0.021801079 -0.07277713 0.017986866 0.04973268 -0.061939545
0.0605656 0.073738635 -0.033564962 -0.049082845 0.02317706 0.07086816 -0.07501847 -0.0591013
0.031120867 0.0045299004 -0.06499619 0.046501886 -0.04853232 0.08302831 0.06856762 -0.014065821
-0.08344476 0.039127216 -0.012434872 0.08794456 -0.0035766058 0.0553796 -0.019054765 0.066231035
-0.07703083 -0.00024735476 0.03955905 0.0070440248 0.08209817 0.036939017 -0.04395325 0.023545548
-0.03273771 -0.033227496 0.08771507 0.024451986 0.024427978 -0.05792187 0.04674681 -0.067751095
0.04799794 -0.07452247 -0.058596577 -0.062052354 -0.00093210913 0.035652027 0.0139002465 -0.003602818
0.04277395 -0.0220169 -0.018578172 -0.038900886 -0.028615387 -0.012697223 -0.0068645366 -0.031032711
0.0006835244 0.06815553 0.0807952 0.01986854 -0.056387927 -0.061567295 -0.05895392 -0.009519913
0.082404315 -0.053380497 0.06093646 -0.055699583 0.088343516 0.084636435 -0.0394653 0.0022205804
-0.00088072475 -0.02789683 0.037908927 0.031860545 0.076215535 0.039987613 0.07554826 0.015164059
0.003731953 0.04895791 0.005728962 0.00963876 0.02941729 -0.047112357 0.02077944 -0.03712483
0.0067913607 -0.032530744 0.020273235 -0.029220931 -0.03391833 0.01759774 -0.042223472 0.007465292
0.08813781 -0.035451252 0.07584738 -0.0852819 -0.06905839 0.020216994 -0.036479354 0.06331536
0.03744166 0.041663345 -0.078526735 -0.028507378 0.034223106 0.03945678 0.012957642 0.035044175
00000000: 07b6 9e3c 9849 783d 0a5c a0bd ff64 e0bc
00000010: abba b43d d59b 333d 188c 12bd 3a44 6cbc
00000020: 60a5 3ebc e7c7 02bc 7e05 45bd d1b3 debc
00000030: 5790 43bd 8422 78bd 37f3 933c a50a 10bc
00000040: 3834 49bc f317 59bc 89d3 5b3d 5569 9c3d
00000050: 7061 d2bc d12a 0cbd 8654 9d3c ec05 7a3d
00000060: 807c eebc b00d 963d 13ff 113d d511 833d
00000070: e528 783d b034 a03d 6d60 90bd 6142 4d3d
00000080: 77e6 833d 44af c3bc 47a7 a93d cd0d 47bc
00000090: 358f 17bd e0e6 e83c 9167 a1bd 45e3 583b
000000a0: 54c4 2cbd b142 2c3d abcd 78bd 316b febb
000000b0: 40b6 cfb8 a443 8ebd b58b 46bd fed7 93bd
000000c0: 8623 653b 8205 98bd 2e68 e43c 273b a0bc
000000d0: 9d88 b13d 369f b03d a302 433d 4e9f f9bc
000000e0: 2e4a b43d 81c9 8e3d d1a0 83bd c5be 693d
000000f0: ceda 443d c13f 7abc 9268 99bd 9a59 2d3d
00000100: 4a91 85bd 2a1a b53d a17f 183c 5b6f 053d
00000110: 0bc6 973d 030e 1b3d d539 1b3d 3485 283d
00000120: b34e 87bc bf19 9ebd 8416 443d 5b27 a3bd
00000130: 0373 3e3d 6e3a 1ebd 713f debc fb24 423d
00000140: 0e34 4b3d 5859 8cbd 7f86 f23c 11d4 c03c
00000150: 4553 ab3d 520c 5a3d 880e 0bbb 0b04 78bc
00000160: 243b 62bd 07b6 2abd 6803 223d 27f6 7e3d
00000170: d6cd 15bd 01b4 11bd 4acb 853d 88e5 1dbc
00000180: bd1f fd3b 5b4a 6fbd 607d cbbb 3459 9a3d
00000190: 379d 34bd f23d c93c ac7d 88bd e253 3abd
000001a0: dc8b 37bd 5815 8dbd 4e71 d83c 4460 873d
000001b0: 2b5a 8ebd 671e 8abd 0f54 81bd acf0 a7bd
000001c0: 915b 83bc abd9 bfbc 32c4 2d3d 83eb 2abd
000001d0: 356b eb3c 55c6 ee3c f3f5 5c3d 495c 93bc
000001e0: d5ee 7b3c 401f d53c 0b6d 8f3d 087e 88bd
000001f0: ea19 2f3d ad95 713d 9a39 66bd fbe0 073d
00000200: 8cbe 953d 76dc ad3d ec62 873d fa69 0bbd
00000210: 67fb 98bd 076a 203d 02e1 80bd fd71 b2bd
00000220: 7b2f b5bd f147 733d 4014 a03d 2d98 b23c
00000230: 2d0c 95bd 3159 933c 7fb4 4b3d 52b4 7dbd
00000240: a213 783d 4804 973d 6a7b 09bd 180b 49bd
00000250: d1dd bd3c 5323 913d 49a3 99bd 3414 72bd
00000260: 30f1 fe3c 8f6f 943b b91c 85bd c378 3e3d
00000270: d3c9 46bd bf0a aa3d 2e6d 8c3d 5474 66bc
00000280: 16e5 aabd dc43 203d a2bb 4bbc 471c b43d
00000290: 7d65 6abb b8d5 623d bd18 9cbc 23a4 873d
000002a0: 57c2 9dbd 65af 81b9 ac08 223d 90d1 e63b
000002b0: 1623 a83d 5e4d 173d 5308 34bd 98e2 c03c
000002c0: fa17 06bd 8e19 08bd f5a3 b33d 884f c83c
000002d0: 2f1d c83c 7c3f 6dbd 9579 3f3d 16c1 8abd
000002e0: 7d99 443d 3d9f 98bd f702 70bd 9c2a 7ebd
000002f0: c958 74ba dc07 123d dcbd 633c 411d 6cbb
00000300: bd33 2f3d c95c b4bc 4031 98bc 8956 1fbd
00000310: d16a eabc 0308 50bc e8ef e0bb 5038 febc
00000320: 8c2e 333a 2095 8b3d f477 a53d 59c3 a23c
00000330: 07f7 66bd fd2d 7cbd aa79 71bd 69f9 1bbc
00000340: 98c3 a83d 82a5 5abd 8298 793d 3f25 64bd
00000350: 72ed b43d de55 ad3d 5ea6 21bd 2887 113b
00000360: 70e0 66ba e587 e4bc 6446 1b3d 3480 023d
00000370: e416 9c3d 0dca 233d 0cb9 9a3d ac72 783c
00000380: c893 743b 1788 483d 04ba bb3b e4eb 1d3c
00000390: 87fc f03c e3f8 40bd a539 aa3c 3510 18bd
000003a0: 108a de3b f53e 05bd 0e14 a63c bc60 efbc
000003b0: f2ed 0abd 2329 903c 85f2 2cbd 689f f43b
000003c0: 9981 b43d 5535 11bd df55 9b3d 47a8 aebd
000003d0: 7c6e 8dbd 1c9e a53c 606b 15bd 7cab 813d
000003e0: 6d5c 193d 2fa7 2a3d a0d2 a0bd 4e88 e9bc
000003f0: 872d 0c3d 6f9d 213d 4a4c 543c 7b8a 0f3d
