results/scratch/12owob2t/sae_282/model.pth (torch, 132127 bytes, 2 tensors)

encoder.0.weight f4 [128, 128]
00000000: 6291 c53c 1dac 10bd 4c3d 943d 2de7 2c3c
00000010: 3b6c 5cbc 4771 823c 87a2 a33d c2e3 1e3d
00000020: 5bbc 803d 4953 8dbd b86c 823c e156 2f3d
00000030: 7b8a ab3d 9bf1 42bc 6307 4b3c 2961 153c
00000040: bdf5 ac3c 4a1d 493d 5297 19bd 321b 54bd
00000050: d292 a0bd 0955 b2bd 665c 83bd da3b e7bc
00000060: a123 253d f1fc 3bbc 7428 93bd f27d 96bd
00000070: 49d3 fdbc c4ef 683d 8d95 41bd 9796 243d
00000080: 3f3b 23bd 8ede bebb e008 c03c 02dc 4f3d
00000090: f570 88bb 06e7 c63a e80c 9fbd 3709 0bbd
000000a0: 26d7 21bb dca0 75bd 3304 9a3d 87ac 923c
000000b0: 44f7 e5bc 6cda 873a 608a 52bd ab80 28bd
000000c0: 026b eabc 42c6 71bd 6a29 813c f8c9 a4bd
000000d0: ed4a 62bd 595c ef3c b035 873d cd7a f7bc
000000e0: 63f9 02bd 9292 68bd c715 833b da9f 4dbd
000000f0: 5b7e 8b3d 6aef 613d 035f 38bd 2c9e 723d
00000100: 98a0 ab3d eebc 983b 186c 8a3c 8efd 32bd
00000110: 6958 b2bc ee5b d9bc 4a88 5a3d 8f8b 8fbd
00000120: b965 503d 0521 823c 6744 f53c c593 cc3c
00000130: 1ca9 8a3d b328 9cbd a4c0 a8bd ac36 aa3c
00000140: ffdd 483c 4c19 9e3d 3131 82bc a2f7 acbd
00000150: 5315 9f3d 96a9 313d 892c a0bd d8c3 e63c
00000160: cf99 273d 62fb abbd 6c87 503d cd4b a23d
00000170: dc61 503d 204b 4b3d 649c 25bd 5dee a7bd
00000180: 6fe8 dcbc 1823 c4bb dc63 86bd 4938 ad3d
00000190: 6511 9c3c 8d79 853d fcb3 38bd 4fb5 c43c
000001a0: dd2c 85bd bcd8 b73b 0659 443a b334 0bbc
000001b0: 8699 653d aa9d ab3d 2cce 4b3d d7d5 adbd
000001c0: 58ea b33c 1244 0fbd 7373 8c3c eb65 693d
000001d0: a73e 86bd 94c3 113d 3c75 3dbd 0d23 d7bb
000001e0: 166c ab3c 7af0 73bd 2e94 743d 6d61 07bc
000001f0: 4015 34bd e9b2 6bbd 46eb abbd 8eeb 87bd
00000200: 372a 67bd 137e 063d b26b 69bd c4b2 4ebd
00000210: 704e 9d3d f49e 943d 119c a0bd 929b db3a
00000220: 56b9 a4ba 6f39 8c3d 8425 9dbd 30d6 8c3c
00000230: ba0a 1c3d 1431 87bd ffaf 4abd 74c6 00bc
00000240: 772c 28bd 200a 71bd e1a6 5ebd 3b88 dcba
00000250: b636 853d aae2 90bd 5ff6 ddbc 16b1 1abd
00000260: 5a0f 09bd a1be 6c3c 2225 acbd 9dfe c23b
00000270: 2852 c93b a0d8 12bd dd46 513c 0b26 b63c
00000280: 244c 51bd 982a 5d3d 5215 edbc 5926 463d
00000290: d5b7 db3b 5454 42bd 4c83 98bd fdf1 04bd
000002a0: 385e 753d 84de 5f3c c6d0 863d 1c10 0b3d
000002b0: c35c 8ebc 0ff8 e9bc b6c7 81bd cd3d 95bd
000002c0: c478 febc 4877 2bbd e193 adbd 160d a6bd
000002d0: 480b e43c be17 60bd 5ac6 9d3c c5f0 aebc
000002e0: af66 a93d 16be 50bc cdfb d4bc dc2f 34bd
000002f0: 5815 ac3d 2c82 8b3c 8b7f ddbb dbe6 b13d
00000300: 1cea f63a 944c 0abd 4fb9 a8bb 7c89 71bd
00000310: f0a3 1f3c 5359 8a3b 3877 47ba ced5 9e3d
00000320: 34c6 593d 3e57 20bd 4dde 2b3c cdbf 923d
00000330: 02a1 3ebb a986 aa3b c601 9a3d 6c9f dbbc
00000340: f5a6 a73d f6fb edbc 7499 7d3d 8c26 bd3c
00000350: 8c5b 3b3d fa76 4bbd 6ac5 a13d 93ac 1dbb
00000360: 2408 013c 1f3f 983d 6ef6 073d 96eb 583d
00000370: 755f 5a3c f1c6 663c 5db1 b4bd 722e 95bc
00000380: 8d22 a23c ecd9 a13d 3894 2dbd 64be c6bc
00000390: 7571 73bd 011d af3d 97ca 42bd 569f 203d
000003a0: ce59 ec3c bce6 f1bc ec40 8c3d 8683 0ebd
000003b0: 4d91 85bc 7b29 0e3d edb2 04bd 0901 10bd
000003c0: ddb7 ae3d 105d 80bd 5f9f 443d 40a0 e9bc
000003d0: df48 a33d 148e a43d 9776 b7bc 673e ad3d
000003e0: 09e8 22bb 09e1 2ebb 7d17 973d 6ba1 98bd
000003f0: f622 f23b bb1e a0bc 3ffc 1e3d b79b 5c3d
0.024117175 -0.03532039 0.07238254 0.0105531635 -0.0134535385 0.015923155 0.07989984 0.038791426
0.06285926 -0.06900651 0.015920982 0.042807464 0.083760224 -0.011898424 0.012391898 0.009117403
0.02111327 0.049100198 -0.037497826 -0.051783748 -0.07840504 -0.087076254 -0.06414108 -0.028226782
0.04031718 -0.01147388 -0.0718545 -0.07348241 -0.030984538 0.056869283 -0.047261763 0.040182676
-0.039851423 -0.0058248704 0.023441732 0.050746925 -0.004163856 0.0015175052 -0.077661335 -0.033944335
-0.002469489 -0.05996786 0.07520332 0.017904533 -0.028072007 0.0010364777 -0.051401496 -0.041138332
-0.028615478 -0.059026964 0.015766818 -0.08046335 -0.055247236 0.02921884 0.06602037 -0.030209923
-0.031976115 -0.056780405 0.004000399 -0.050201274 0.0681121 0.055159964 -0.045012485 0.059232876
0.0838024 0.004661194 0.016897246 -0.04369884 -0.021770673 -0.026533093 0.05335263 -0.070090406
0.05087826 0.015884886 0.029939843 0.024972806 0.06770536 -0.0762495 -0.08239868 0.020778023
0.012259959 0.07719669 -0.015892597 -0.0844567 0.07767739 0.04337462 -0.078209944 0.028169557
0.040918168 -0.08397557 0.0509104 0.07924614 0.050874576 0.04963219 -0.04043235 -0.08199761
-0.026966302 -0.005985629 -0.065620154 0.08458001 0.019051263 0.065173246 -0.04509352 0.024012236
-0.065026976 0.0056105535 0.0007490072 -0.008496451 0.056054614 0.083796814 0.049757168 -0.08488052
0.02196233 -0.034977026 0.017144894 0.056981962 -0.06554919 0.03558691 -0.04625438 -0.0065654577
0.020925563 -0.05955551 0.059711628 -0.008262974 -0.043965578 -0.05754367 -0.08394484 -0.06636725
-0.056436744 0.032835077 -0.056987472 -0.050463453 0.076809764 0.072568804 -0.07842267 0.0016754738
-0.0012567441 0.06846892 -0.07673171 0.017191976 0.038096167 -0.06601158 -0.04948425 -0.007859815
-0.04105803 -0.058847547 -0.054358367 -0.0016825268 0.06504576 -0.07074483 -0.027095018 -0.03776654
-0.033461906 0.014449746 -0.0840552 0.0059507624 0.006143827 -0.03585112 0.012773243 0.022234937
-0.051098004 0.0539957 -0.02894083 0.048376415 0.006705264 -0.047443703 -0.07446918 -0.03245734
0.059904307 0.013663892 0.06582789 0.03395091 -0.017378217 -0.028560666 -0.0633692 -0.07287178
-0.031063445 -0.041861802 -0.08475471 -0.08107965 0.02783741 -0.054710142 0.01925962 -0.021355042
0.082715385 -0.0127406325 -0.025998974 -0.043990955 0.084025085 0.017029844 -0.006759589 0.0868661
0.001883808 -0.033764437 -0.0051490436 -0.058969006 0.009743676 0.004222074 -0.00076090125 0.07755624
0.053167537 -0.0391457 0.010490012 0.07165489 -0.0029087667 0.005204041 0.075198695 -0.026809417
0.081861414 -0.029050808 0.061913922 0.02308967 0.045741603 -0.04967401 0.07898982 -0.002405916
0.007875476 0.074339144 0.033193998 0.052959047 0.013328423 0.014085517 -0.08822892 -0.018210623
0.019791866 0.079028934 -0.04237768 -0.024260707 -0.059434373 0.08550454 -0.047556486 0.039214455
0.028851416 -0.029528968 0.0684832 -0.0347934 -0.016304636 0.034707528 -0.0323972 -0.035157237
0.08531163 -0.0626775 0.04800355 -0.028518796 0.079728834 0.08034912 -0.022395415 0.08459168
-0.0024857542 -0.0026684424 0.07377527 -0.07452663 0.0073894216 -0.019545903 0.03881478 0.05385944

decoder.weight f4 [128, 128]
00000000: c67c 423d d781 973d b430 993d 587b ac3d
00000010: 06b0 95bd fe8c 903c f9cc b2bc ca54 40bd
00000020: 5407 80bd b93c 063d d16b 883c 3183 d73c
00000030: 6d7d 83bd 2cec 99bd a5c7 953d 47e7 c4bc
00000040: fc88 9d3c af67 783d d7d3 b0bc 361b a1bd
00000050: a2b9 6d3d 8e08 043d cd14 193d e598 7abd
00000060: dc26 9bbd cfef a23c 0620 10bd 1222 9c3c
00000070: d004 59bd ddfb 9a3d b08b 5bbd ff55 97bd
00000080: 5323 fa3c f96b 953d 7195 213d 21ef 673d
00000090: cf3e 433d 0550 6d3d d462 3f3d f472 53bd
000000a0: 4bee a93d 0b21 05bc 9ad7 86bd 9b93 a93d
000000b0: 0eb3 8e3d 1e9a 043d 5c43 5cbc e194 f5bc
000000c0: cb8f 893d 0ca1 9dbc 3ed8 28bd 8d50 68bd
000000d0: 7b76 02bd 5969 a83d 3aba 2fbd 9196 da3b
000000e0: d802 313c 46fe d23b 57ee a7bd 286c 91bc
000000f0: cd8b efbb d217 d43c dae9 a63d 3fd1 a3bd
00000100: 8f34 743d 8fa4 6cbd 7806 51bd 1b43 0b3d
00000110: bb3f 303c b62e 01bd 2d7a 443d 8b62 67bd
00000120: cb66 90bc 74ad 04bd 6a96 5fbd f7fe b03d
00000130: 5180 f43c 76ea 903d 46e0 023d b542 82bc
00000140: 0769 dd3c 0906 7fbd edbd a3bd 9499 473d
00000150: 8693 aa3d cd98 7f3c fc10 2d3d e8e4 533d
00000160: 9686 80bd 709e 25bd 0b61 b43d 25fa 723c
00000170: 1ee2 69bd bb7f 533b cd13 b2bd 06d6 99bc
00000180: 4eb2 8fbd b870 d63c 6e78 633b 3df2 b03c
00000190: f033 5b3d c1f3 96bd 4485 913d 474f 82bd
000001a0: 4ce3 643d 42d6 73bd 6cda 59bd faf9 98bd
000001b0: 5194 e8bc 25c2 c43b ae64 9e3d cf78 81bd
000001c0: e759 293d dbdd 673d dd70 223d 677b 6f3d
000001d0: 35fb 69bd 8c4e 82bd 189f c53b 8139 67bd
000001e0: 064d 7e3c 1f20 ebbc c21b af3d a630 bebc
000001f0: 7d65 96bc c9e6 71bd e696 1e3d 75ad 12bc
00000200: ddcc b3bd 7925 633d 25b8 543c a368 573d
00000210: 8498 28bd e588 4fbd 65d7 f33b 2245 86bc
00000220: 137f 053c e3a4 c9bb 8e2a 1ebd a094 273d
00000230: 9096 5dbc db88 243d 2e5d 8ebd a867 313d
00000240: 65f1 42bd 80d2 123d 6e5b 513d 996b 3cbd
00000250: c28e 293d 775e a93d 46ec 84bc 9252 2f3d
00000260: 1b94 9b3d 55c0 79bc 614d 31bd 35cb ac3d
00000270: e9e7 48bc a2ed 80bc c0c5 493d 1107 c8bc
00000280: 0d29 453d e987 b43d 27ed bfbc 8544 8fbd
00000290: aa43 873c d049 523d 7413 acbd b0cd a13d
000002a0: 0b90 a0bd 2fbc 5f3d 9d4c 8bba 80b4 71bd
000002b0: 1451 e63c 75f6 97bc 580c 483c 8ecc 65bc
000002c0: 7514 ed3c 4964 a3bd 8ea6 a9bc f56e a5bd
000002d0: e843 bdbc db28 493d cf30 743d e5c0 2b3d
000002e0: 6307 2f3d bd4a 93bd 2ddf a53b dd60 acbd
000002f0: 6b5d b13d 440c 35bd bcde 32bd 0030 b2bd
00000300: 07de afbd c5c3 1bbc 1808 7b3d 699c 95bd
00000310: 0108 98bd 3af8 16bd f909 4b3c 1171 c6bc
00000320: d365 09bd f656 7bbd 1cf2 a93c 818a 273d
00000330: 4292 d3bb 41f8 f63c 7f84 a73d 9385 b23d
00000340: 0952 a13d 8a93 9d3c 431f 70bd b1d3 923d
00000350: cd71 f43b ace3 07bd 7824 93bc a8d2 d43c
00000360: 94e2 2fbd 2990 a5bd 3741 d93c 78de 603d
00000370: c45a 9ebb 20b8 0abd a3d2 873c f8af 89bd
00000380: 03f8 d63c d3fc 353d b026 653d e0f2 cebc
00000390: 2e86 a6bc 8f7f f83b ee4e 903d 5be4 733d
000003a0: 7029 a73b 4857 1e3d fd3b 4b3d 1bbb 2c3b
000003b0: 47b6 33bc 6a0c 263d 03e6 d0bc 9652 4dbd
000003c0: 8736 09bd 447d fd3c 4ce7 543c 9cc4 253c
000003d0: 58a0 7d3d 4947 9c3c 26f6 57bd 0a01 943d
000003e0: 7dfb bf3c c28c ea3c 70da bfbc 44eb 913d
000003f0: 4118 6fbd dff3 613d 05dc a5bd 32c8 a03d
0.047482274 0.07397812 0.074799925 0.084219635 -0.073089644 0.017645355 -0.021826254 -0.04695586
-0.06251398 0.032772753 0.016652973 0.026307674 -0.064204074 -0.07515749 0.0731347 -0.024036063
0.019230358 0.060645755 -0.021585388 -0.07866518 0.05803836 0.03223472 0.037373353 -0.061180968
-0.07575771 0.01988974 -0.03518679 0.019059215 -0.052983105 0.0756757 -0.053600013 -0.07389449
0.030534422 0.07295985 0.03944916 0.056624535 0.04766732 0.05793764 0.04672511 -0.0516233
0.08297404 -0.008125554 -0.065840915 0.08280107 0.06967746 0.03237354 -0.013443794 -0.029978218
0.067168795 -0.019241832 -0.04122185 -0.056717444 -0.031851273 0.082232185 -0.04290221 0.006670781
0.010803901 0.006439003 -0.081997566 -0.017751768 -0.0073103667 0.025890265 0.081500724 -0.07998895
0.059620436 -0.057774123 -0.05103156 0.033999544 0.010757382 -0.031538688 0.04796808 -0.056490462
-0.01762714 -0.03239198 -0.054586805 0.08642381 0.029846342 0.0707597 0.031952165 -0.015900949
0.02702762 -0.062261615 -0.0799521 0.048730448 0.08328919 0.015600395 0.042252526 0.051731974
-0.0627567 -0.0404343 0.08807572 0.014830147 -0.057100408 0.0032272178 -0.08695183 -0.018778812
-0.07016431 0.026176795 0.0034709233 0.021599883 0.05351633 -0.07370711 0.071054965 -0.06362777
0.05588083 -0.059530504 -0.05318682 -0.07469554 -0.028391035 0.006004589 0.07734047 -0.063218705
0.041345503 0.056608062 0.039658416 0.058467295 -0.057124335 -0.06362638 0.0060309283 -0.056451324
0.0155212935 -0.02870184 0.08550216 -0.023216557 -0.01835894 -0.059057985 0.038718127 -0.008952488
-0.08779309 0.05545566 0.012983357 0.052590024 -0.041161075 -0.050667662 0.0074414485 -0.016390387
0.008147973 -0.006153689 -0.038614802 0.040913224 -0.013524666 0.040169578 -0.06951366 0.043311745
-0.047593493 0.03584528 0.051112585 -0.04600105 0.04139591 0.08269971 -0.016225945 0.042803355
0.07596608 -0.015243609 -0.043286685 0.08437196 -0.012262323 -0.015738312 0.049260855 -0.024417432
0.048134852 0.08814985 -0.023428513 -0.06995491 0.016511757 0.051339924 -0.08402148 0.0790056
-0.07839974 0.054622825 -0.0010627691 -0.05901003 0.028114833 -0.018550137 0.012209974 -0.01402582
0.028940419 -0.07978112 -0.020709302 -0.08077804 -0.02310367 0.04911123 0.05961686 0.041932005
0.042731654 -0.071919896 0.005062005 -0.08416913 0.08660396 -0.04420115 -0.043669447 -0.087005615
-0.0858727 -0.009507124 0.061287016 -0.073052235 -0.074234016 -0.03685782 0.012392514 -0.024223836
-0.033544373 -0.06136223 0.02074533 0.040903572 -0.0064566443 0.030147674 0.081795685 0.087168835
0.07876975 0.019235391 -0.058623563 0.07169283 0.007459855 -0.03317611 -0.017961726 0.025979355
-0.04294069 -0.08084137 0.026520355 0.054899663 -0.0048325974 -0.033867 0.016579932 -0.067230165
0.026241308 0.044430565 0.0559451 -0.025262296 -0.020327654 0.0075835655 0.07046305 0.05954395
0.0051013753 0.038657457 0.049617756 0.002635664 -0.010968751 0.040539183 -0.025500303 -0.05012759
-0.033499267 0.03094352 0.012994599 0.010117676 0.061920494 0.01907696 -0.05272498 0.07226761
0.023435349 0.028631572 -0.023419589 0.071249515 -0.05837274 0.055164214 -0.08098606 0.07850684
