results/scratch/12owob2t/sae_287/model.pth (torch, 132127 bytes, 2 tensors)

encoder.0.weight f4 [128, 128]
000000 7b 50 e7 3c f3 fd 78 3b b4 86 a4 bd bb d1 6b 3d
       0.028236618 0.0037993162 -0.08033505 0.05757306
000010 f4 7f 3c 3d c4 fb de 3c 6a 5f 2f 3d 59 b5 fd 3c
       0.046020463 0.02721966 0.042815603 0.030970262
000020 ac f6 04 3d ed 9a 1c bd d6 fa d5 bc fe 44 ab 3d
       0.032461807 -0.038233686 -0.026120584 0.083627686
000030 1c 24 64 bd 65 05 a1 bd 6d f0 45 bd 79 cc e0 3c
       -0.0556985 -0.07862357 -0.04832499 0.02744125
000040 0c 4d 00 3d ff 89 a8 3d 8d 9b 82 bd f5 d4 9c bc
       0.031323478 0.08229446 -0.06377325 -0.019144515
000050 3c 55 b1 3d 8a d7 b7 3c 3a 28 86 bd bc 69 80 3d
       0.08658835 0.022441644 -0.06550641 0.06270167
000060 a9 18 03 3b d4 17 29 3d 24 46 04 3d d1 9d 88 3c
       0.0020003712 0.04128249 0.032293454 0.016676815
000070 17 6d b4 bd c2 3e a0 3d 06 79 a0 bd 44 6d 27 bc
       -0.0880987 0.0782447 -0.078355834 -0.010218922
000080 0b e3 4c bd 45 7c 0f 3c 6a 69 8d bd fe 31 80 3c
       -0.050021213 0.0087576555 -0.06904872 0.015648838
000090 d7 3a 7a bc 9f ec b3 bd 4c ff 9b 3c 32 56 5f bd
       -0.015272818 -0.08785366 0.019042633 -0.05452556
0000a0 d7 65 f7 3c 2d 66 1d bd 6d ef 42 bc 30 b6 95 3d
       0.030199928 -0.03842752 -0.011897904 0.0731014
0000b0 cb 8f 5d 3d 9c 3f 96 3c 30 e6 b0 bd ef b6 99 3d
       0.05409221 0.018340878 -0.08637655 0.07505595
0000c0 5c 6b 4c 3d 8c 81 01 3d 10 fc 09 bd 65 cb 8e bd
       0.049907073 0.031617686 -0.03368765 -0.06972388
0000d0 97 84 9a 3d 1f ea 79 bd 52 f3 18 bd 7a 9f 59 bd
       0.07544821 -0.06101429 -0.037341423 -0.053130604
0000e0 b7 a6 ac 3d d4 e6 8b bd 0a 8a de 3c 3a cd a1 bd
       0.08430236 -0.06831136 0.027165432 -0.07900472
0000f0 bc 57 c9 bc 8b f7 8b bd be 02 d5 bc ef b9 02 bc
       -0.024577968 -0.068343244 -0.026002284 -0.0079789
000100 bd c8 7d bc 09 db 30 3d 5b dc 47 bc c4 29 92 3d
       -0.015489754 0.04317764 -0.012198533 0.071368724
000110 24 bd a9 3d e1 7e fe 3c a6 5e 91 3b 7a 10 26 bd
       0.08288029 0.03106636 0.004436332 -0.040543057
000120 c4 2d 7b bc df 94 28 3d 31 fa 61 bd 4b cc 2b 3d
       -0.015330736 0.0411576 -0.05517024 0.041942876
000130 fd f2 78 bd 44 f0 01 bd 60 ba a8 3d 53 3b 87 bd
       -0.060778607 -0.031723276 0.08238673 -0.06603112
000140 77 05 84 bd db 02 45 bd 06 81 50 3c 47 75 40 bc
       -0.06446355 -0.048098426 0.012726074 -0.011746711
000150 08 1b 9f bd a1 b5 2b bc 3e e8 10 bd 9d 95 08 3d
       -0.07768828 -0.010480315 -0.035377733 0.033345807
000160 19 eb ec bc 6d 29 87 3d 19 23 a0 bc 86 44 ac bd
       -0.028920697 0.06599698 -0.019547986 -0.08411507
000170 0e c8 af bd 09 3a 9e bd 9c b4 84 3d f3 a4 1c bd
       -0.08583079 -0.07725913 0.06479761 -0.038243245
000180 a4 80 2a 39 14 d0 a2 3d bb 58 91 bc 3b 7c a4 3c
       0.00016260386 0.07949844 -0.017742505 0.020078769
000190 99 30 2f bc d8 0a 76 bc a8 d3 92 3d 89 b9 e0 3c
       -0.010692739 -0.015017234 0.071692765 0.02743222
0001a0 8a f1 05 3d d2 0b 2a 3c 4a b6 90 3d fa 0c 34 bd
       0.032701053 0.010378795 0.07066019 -0.043957688
0001b0 f9 c3 6f 3d d4 65 a3 bd 36 12 3b 3d 05 78 8e 3d
       0.058536503 -0.079784065 0.045671664 0.06956486
0001c0 e3 00 0f 3d 69 31 55 bd ae 72 a8 3d fa b6 1f bd
       0.034912955 -0.052049074 0.082249984 -0.03899286
0001d0 fe 17 86 bd ad 2b 81 bd f2 33 e8 bb 66 c0 bb bb
       -0.06547545 -0.063071586 -0.0070862705 -0.005729723
0001e0 d2 76 4a bc d2 70 0c bd bd 5f ab bd c8 c8 ac bd
       -0.0123574305 -0.03428728 -0.0836787 -0.084367335
0001f0 ad 11 2b bd bf e7 87 3d 1e 0f 14 bd c3 89 74 bd
       -0.041764904 0.06635999 -0.03614723 -0.059701692
000200 70 c3 87 3d 30 54 d5 3c de f0 63 bd 48 68 ab 3d
       0.066290736 0.02604112 -0.05564963 0.083694994
000210 6a 3d 30 bd e6 4c 89 3d d8 81 1a bd 2c a2 a8 bc
       -0.04302732 0.0670412 -0.037721485 -0.020585142
000220 93 d7 a2 bd e3 64 1f bd e6 8c 87 bc f6 2b e3 ba
       -0.07951274 -0.038914572 -0.016546678 -0.0017331827
000230 c9 69 1a 3d 61 69 fa bb 6a 27 56 3d 4a 81 72 3d
       0.03769854 -0.0076419567 0.052283682 0.05920533
000240 69 5d 84 bd b7 a1 a5 3d ea 67 a6 3d 86 50 49 bd
       -0.06463129 0.08087485 0.08125289 -0.04914906
000250 1b f8 b1 3d fe 88 18 bd 25 7f 8d bd e6 e5 9a 3c
       0.086899005 -0.03724002 -0.069090165 0.018908452
000260 ce be 9d 3d e2 d9 15 3d 40 dc 86 3c 00 6d 98 3b
       0.07702409 0.036584742 0.016462445 0.0046516657
000270 a6 09 59 bd 1c 5c ad bd f1 88 71 3d 0a 75 87 bb
       -0.052987717 -0.08464834 0.058968488 -0.004133825
000280 a9 d3 8c bd 86 81 a4 bd 3e 07 5c 3d 9a b1 5c bd
       -0.068763085 -0.08032517 0.053717844 -0.05388031
000290 1f 17 95 bc 86 d0 21 3d 6b 96 81 bd 26 23 28 bd
       -0.018199502 0.039505504 -0.06327518 -0.041049145
0002a0 9f 45 41 bd 54 af a0 3d da 0c 72 bd 71 db fa bc
       -0.047185536 0.07845941 -0.059094287 -0.030622216
0002b0 81 f5 eb 3a f9 a7 f7 bc 5a f9 84 bd 39 6d 94 bd
       0.0018002243 -0.030231463 -0.064928725 -0.07247395
0002c0 d4 61 50 3d a7 e1 0d 3c d7 1e fb 3c 3d 39 67 bd
       0.050874546 0.008659757 0.030654354 -0.05645107
0002d0 7d 20 02 bb 22 b6 72 bd a8 a2 18 bd 79 e3 a1 bd
       -0.001985579 -0.059255727 -0.037264496 -0.07904715
0002e0 6f 36 3a bd c1 8e 4c bd 82 ba 1e bc 6c 10 5b bd
       -0.04546207 -0.04994083 -0.009688022 -0.053482458
0002f0 cd c6 3c bd 40 85 4d bc a2 8c ae bd 63 c3 4d 3d
       -0.04608803 -0.012543976 -0.08522917 0.050235163
000300 81 41 2c bd 73 ae 85 bd d2 50 65 3b 97 2c 30 bd
       -0.042054657 -0.06527414 0.00349908 -0.043011274
000310 95 0b 59 bd a9 e6 6e bc d1 6a a2 bc 8b 30 08 3d
       -0.05298956 -0.014581361 -0.019826325 0.03324942
000320 83 34 76 3d 50 54 15 bd 50 fa 4e 3d f0 f8 0e bd
       0.060108673 -0.03645736 0.050531685 -0.034905374
000330 92 34 a6 bd 2d 30 a3 bd b9 94 1e 3b 42 b7 6a 3d
       -0.08115496 -0.07968173 0.0024197532 0.057303675
000340 e1 a2 9b 3d b9 20 9c bd e3 6d d6 3c 52 79 88 bd
       0.07599426 -0.07623429 0.026175445 -0.06663765
000350 c2 40 33 3d d7 60 60 bd c6 76 a5 bc 31 fd 40 bc
       0.04376293 -0.054779854 -0.020198237 -0.011779116
000360 a3 5e 43 bd 3e c8 a6 bd 02 d4 0c bd b1 19 11 bc
       -0.047697674 -0.08143662 -0.034381874 -0.008856223
000370 8a 0f a9 bd 21 cd 28 bd f7 57 96 3c 2c 17 05 3d
       -0.08254917 -0.04121125 0.018352492 0.0324928
000380 f5 65 1d bd 5c a3 b2 bd 36 24 20 bd 50 64 c7 bc
       -0.038427312 -0.087225646 -0.039097033 -0.024339825
000390 f1 71 64 bd 45 f4 e2 3c 76 3d 95 3d a5 83 65 bd
       -0.055772725 0.027704367 0.07287113 -0.05603375
0003a0 8d 63 86 3c fd 3a 1e bd b8 a7 44 3d 6e ba 60 3d
       0.016404891 -0.038630474 0.04801151 0.054865293
0003b0 43 f0 65 3d 91 cd b3 bc c7 47 23 bd 17 dc 14 3c
       0.056137335 -0.021948608 -0.039863374 0.009085677
0003c0 27 fe 9f bd 25 2a a2 bd 1d e5 03 bd b2 44 37 bd
       -0.078121476 -0.07918195 -0.03220092 -0.044743247
0003d0 73 b8 55 bc ab 33 f0 3c 07 4b 3f b9 00 48 2a 3d
       -0.013044464 0.029321512 -0.0001824313 0.04157257
0003e0 20 6d 0e 3c 9b 5d 94 bd 37 c1 78 bd 96 81 c5 ba
       0.00869301 -0.07244416 -0.06073114 -0.0015068527
0003f0 93 d3 a0 bd 63 e4 a1 3d 75 88 f2 bc c1 aa e7 bc
       -0.078528546 0.079048894 -0.029606083 -0.028279664

decoder.weight f4 [128, 128]
000000 58 4f fd 3c db 1e 54 bd 88 51 5e 3d de fd 7a bd
       0.030921623 -0.05178724 0.054276973 -0.061277263
000010 13 fc 92 3d 9f 79 b3 bd 4f 08 77 bd 65 19 89 bc
       0.071769856 -0.08763432 -0.060310658 -0.016735742
000020 79 5c 2e bd 16 e5 9a 3d 04 e7 4d bd 5d 38 89 bd
       -0.042568658 0.07563226 -0.05026914 -0.067002036
000030 b5 d2 0e bd d5 10 85 3d f7 a0 4e bd 2e f0 bf 3c
       -0.034868915 0.06497351 -0.050446477 0.023429956
000040 27 fd ab bd 1a a7 bb 3c 9d 6d 6a 3d 0f 5e 10 3b
       -0.08397894 0.022906829 0.05723344 0.002202872
000050 bd 4d 93 bd a3 5d 8c 3b 65 95 8c 3d c0 b1 9f bd
       -0.07192562 0.0042836233 0.06864432 -0.07797575
000060 da 08 80 3c 33 09 75 bd 87 60 b0 3d cd f4 9e 3d
       0.01562922 -0.059823226 0.08612161 0.07761536
000070 e8 d3 b4 bc ed 01 d3 3b e2 1c 1a bd 42 1e 21 3d
       -0.022073701 0.0064394386 -0.0376252 0.039335497
000080 5d 19 86 3d 89 f3 92 bd 73 40 b0 bd ea 03 15 3d
       0.065478064 -0.07175357 -0.08606043 0.036380686
000090 58 b4 99 bb 20 1b 35 bd 5f 52 9e 3c 8f 5e 8f bd
       -0.004690688 -0.04421532 0.019326387 -0.070004575
0000a0 70 c8 1b 3d 25 74 a0 3d a8 42 88 3d 57 a7 bc bc
       0.03803295 0.07834653 0.06653339 -0.023029013
0000b0 3f 8d a7 3d e2 c6 ed bc bd 7c 02 bd 63 b8 1f bc
       0.081812374 -0.029025499 -0.03185724 -0.009748551
0000c0 e2 81 6c 3c 83 db 8b 3d 39 96 a2 3c 4a aa 38 3d
       0.014435263 0.06828978 0.019847022 0.045084275
0000d0 26 07 18 bd de 90 87 3a 1e 17 94 bd f8 63 53 bc
       -0.037116192 0.0010342856 -0.07230972 -0.012902252
0000e0 97 dd d2 bc 79 d8 89 bd 2e 1e 0d bd 10 8e c1 3c
       -0.025740428 -0.06730742 -0.03445261 0.023627311
0000f0 26 e2 9c bb f6 ee 9f 3c 20 13 39 bc 1d 3f a1 bd
       -0.004787701 0.019523125 -0.011296064 -0.07873366
000100 d7 e2 31 bd 88 60 a4 bd 5a b5 50 3c f3 1f aa bd
       -0.043429222 -0.080262244 0.01273855 -0.08306875
000110 b3 e7 47 3d a5 e0 18 bb 8d 25 9b bd 03 c9 90 bd
       0.04880495 -0.0023327258 -0.075755216 -0.0706959
000120 4a 83 12 3c f8 e2 9a bd 52 5b 26 3d c5 a0 76 3d
       0.008942435 -0.07562822 0.040614434 0.060211916
000130 29 eb 3f bd 68 5d 45 3d 43 63 16 3d 1f 35 8d bd
       -0.046855126 0.048184782 0.036715757 -0.06894898
000140 f6 cd ce 3c ca 00 88 bd 20 4a 30 bc 4e cc 48 bd
       0.025244694 -0.066407755 -0.01075986 -0.049022965
000150 1b 6b a0 bc 98 6c 67 bb 6a ca 8b bd 59 14 ee bc
       -0.019582322 -0.003531253 -0.06825717 -0.029062437
000160 73 6a cc 3c 6d 9d 3f 3d de b9 12 bd 6e e7 0f 3c
       0.024953103 0.046780992 -0.035821788 0.0087832045
000170 cc d6 14 3d 0e 3e 0a 3d 2a 61 9d bc 75 9f 8d bd
       0.03633766 0.033750586 -0.01921137 -0.0691518
000180 52 06 25 3d 9a cf 78 3d 9f 3c 89 bd 1a 30 32 3d
       0.04028923 0.06074486 -0.06701016 0.043502904
000190 13 1b 41 3d b9 9b 8c bc 7f cc 7d 3d a8 af 98 3d
       0.04714496 -0.017164098 0.0619626 0.07455379
0001a0 78 ef 57 bd 83 43 98 bd c3 9e b1 bd 42 f6 ae bd
       -0.05271861 -0.07434752 -0.086728595 -0.08543064
0001b0 27 20 d5 3c c0 70 73 bd e0 94 5d bb dd 1d 60 3d
       0.026016308 -0.0594337 -0.003381066 0.05471598
0001c0 d4 cf 86 bd c6 05 7b 3c 83 30 a3 3d f8 1c 4a bd
       -0.06582609 0.015321201 0.07968237 -0.049344033
0001d0 f3 ac a9 bd 83 0c a2 3d 42 68 35 bc ec 30 a1 bc
       -0.082849406 0.07912543 -0.01107222 -0.019676648
0001e0 5b 77 aa bd ef 8d c9 3b a9 7e 4f 3d c6 2e a3 bd
       -0.083235465 0.006150953 0.050657902 -0.07967906
0001f0 8d cd 8b 3d 74 c8 45 3c 24 07 6b 3d 14 ca 84 3d
       0.06826315 0.0120717175 0.057379857 0.06483856
000200 16 fc fe bc 34 a6 58 3c 21 5d 80 bd 73 51 4a 3b
       -0.031126063 0.01322322 -0.06267763 0.0030871301
000210 b0 ce 38 3d 37 12 92 3c 40 ea ee 3c f2 a9 9c bd
       0.045118988 0.017830951 0.029164433 -0.07649602
000220 4b 75 94 bb 16 c0 82 3d 70 00 18 bd 14 53 9a 3d
       -0.004530584 0.06384294 -0.037109792 0.07535377
000230 c4 9a 11 ba 38 f4 94 bd 99 b8 06 3d c7 3e 4d bd
       -0.0005554373 -0.072731435 0.03289089 -0.050108697
000240 39 0a 94 3b 3f 0b a2 bd e8 bc 65 bd d6 9e 28 3d
       0.00451782 -0.07912301 -0.05608836 0.041167103
000250 70 16 8f bd 67 a5 74 bd b5 fc 0c bc 11 53 6c bd
       -0.069867015 -0.059728052 -0.008605172 -0.057696406
000260 01 9f 6a 3c 47 5b d4 3c 99 a8 b0 bd 92 e8 4e 3b
       0.014320136 0.02592243 -0.086259075 0.0031571728
000270 aa f1 a1 bc ac c7 10 bd 33 60 b1 3d e2 55 78 3d
       -0.019768555 -0.035346672 0.08660927 0.06062878
000280 c9 db 31 3d 52 3d 9d bb c2 40 78 3c fd c5 3b bd
       0.043422494 -0.0047985697 0.015152158 -0.045843113
000290 bc 9a 0b 3d 8f af a5 3d 4b 72 6b bd 32 58 91 bd
       0.034083113 0.08090126 -0.057482045 -0.070969
0002a0 30 e8 b2 bd 28 f5 9e 3c 78 78 41 bd 25 ec 27 3c
       -0.087356925 0.019404009 -0.04723403 0.010249172
0002b0 10 bb 8e bd 86 26 18 bd 09 6d 58 3d cf 0a a1 bd
       -0.06969273 -0.037146114 0.05283836 -0.0786339
0002c0 5f c1 a5 3d 53 53 0e 3d c8 9a 9c 3d 83 b4 64 3b
       0.08093523 0.034747433 0.0764671 0.0034897632
0002d0 58 64 13 3d a8 b3 98 bd 8a 59 0e bd 9b 7b fe bc
       0.035984367 -0.07456142 -0.03475336 -0.031064799
0002e0 9f 22 76 3d 9b d8 8d bd 3b 84 86 bd a0 7f 72 bd
       0.06009161 -0.0692608 -0.0656819 -0.059203744
0002f0 49 e1 c0 bc 9d 1a 93 3c fa 30 9c bd e8 c1 a1 bd
       -0.023544924 0.017957026 -0.07626529 -0.07898313
000300 a3 87 af bd e0 8a a3 bd 46 f0 56 bd ff 50 b0 3d
       -0.085707925 -0.07985473 -0.052475236 0.08609199
000310 24 3f 9d 3d ef e0 3b bc b2 d8 02 3d ea fd 3e 3d
       0.07678059 -0.011467203 0.031944938 0.04662887
000320 2d 2a 0b bd cc a9 22 bd e4 ce 46 39 18 45 45 3d
       -0.03397577 -0.039712712 0.00018959824 0.048161596
000330 04 6f 82 3c 72 98 a3 3b 05 33 44 3d 08 60 f9 3c
       0.015922077 0.004992538 0.04790022 0.0304413
000340 51 82 9c bd 78 8e 0a bd a0 98 8e bd 60 0a cb 3b
       -0.076420434 -0.033827275 -0.06962705 0.006196305
000350 7d 4e 48 3d 49 71 32 bd 5f 0e 9a bc ec f6 8e 3d
       0.048902977 -0.04356507 -0.01880568 0.0698069
000360 8a ef 73 bd 5a 03 26 bd b0 e0 64 bd 0b 83 bd bc
       -0.059554614 -0.04053054 -0.05587834 -0.023133775
000370 d4 4a ac bd f6 28 6b bd 45 fd 8f bb 6e f0 9a bd
       -0.0841271 -0.05741211 -0.0043942058 -0.075653896
000380 a3 0a 44 bd e9 ad 9c 3c 7b 44 39 3c 28 5e 8f 3d
       -0.047861706 0.019125896 0.011307831 0.07000381
000390 9e 56 42 3c a7 af 45 3d 33 11 b3 3d 33 4c 8b 3d
       0.011861471 0.04826322 0.08743515 0.06801643
0003a0 97 ae b8 ba 5f 91 23 3d 20 14 c4 bc eb aa 16 3d
       -0.0014090118 0.03993356 -0.023935378 0.036784094
0003b0 fd 02 11 3d 5f 13 1d 3d 63 e5 97 bd db 22 eb 3c
       0.03540324 0.03834855 -0.07416799 0.028703144
0003c0 88 f1 aa bd 4e 7a 97 bd 75 1b 8e 3d 64 89 19 bd
       -0.0834685 -0.07396375 0.06938831 -0.03748454
0003d0 5e 17 1d bd 15 d9 d5 ba 99 76 96 3c 94 72 43 bd
       -0.038352363 -0.0016315306 0.018367099 -0.047716692
0003e0 d1 ba 3a 3b ef 18 69 bb df 1f ad bd 6f 7b 6c 3c
       0.00284927 -0.003556784 -0.084533446 0.014433726
0003f0 28 98 6a bd af 6c 81 bd a7 de 8d 3d d8 c2 93 bc
       -0.057274014 -0.06319558 0.06927233 -0.018037245
