results/scratch/12owob2t/sae_20/model.pth (torch, 132127 bytes, 2 tensors)

encoder.0.weight f4 [128, 128]
-0.05472008 0.037219554 -0.041295152 -0.06095349 0.0043250998 -0.044159215 -0.057161484 -0.042716306
-0.052694008 -0.009833615 0.017235948 0.06364704 -0.07820606 -0.016825328 0.0023725634 -0.04239165
-0.054177184 0.017285684 0.030151835 0.004755245 -0.009189463 0.0022878656 -0.01737508 -0.046155535
0.045543168 -0.06670477 -0.061608676 -0.034394857 0.027988655 0.03547145 -0.08428791 0.085598804
0.036805417 -0.031878952 0.03741964 -0.027536586 0.034470692 -0.07022395 0.07105188 0.016989293
-0.04110652 -0.058140364 -0.06610246 -0.003775582 0.004249266 -0.08124314 -0.07662232 -0.05975788
0.05097014 0.05447663 -0.07835056 0.013499009 -0.07996855 -0.07080176 0.0072916285 0.04934634
-0.03771189 0.06705926 0.07748997 0.05402376 0.063646026 0.06199001 -0.010442885 -0.01899026
-0.0410739 0.06607962 -0.01854886 0.07745038 0.019897588 -0.014330293 0.012420425 -0.014925198
-0.06589036 0.06682144 -0.07881147 -0.0040267897 0.03299165 -0.04266262 -0.07442242 0.030622728
0.00021265147 0.06900501 -0.055927675 -0.0663437 -0.006295739 -0.046944257 0.0557188 0.084388465
0.020116 -0.021125885 -0.04831165 -0.027737308 -0.0048023546 -0.0031888601 -0.041441515 0.012627644
0.0546267 -0.025391147 -0.07411423 -0.05542588 -0.08341115 0.08125277 -0.061973352 -0.009085142
-0.077184744 -0.04236936 0.010531589 -0.008226614 0.05002229 -0.00022586719 0.049479906 -0.08203824
0.050580394 -0.012675589 0.05872131 0.012449469 0.02990357 0.031038066 -0.024914932 0.07262149
-0.068535306 0.05692452 0.0052566654 -0.06459055 0.028686145 -0.0087929955 0.03344728 -0.01556679
0.029725796 0.0057767113 0.046045814 -0.05703876 -0.042826805 0.05472507 -0.036759056 0.06186432
0.050140362 0.02321059 0.047547627 -0.055865604 0.011323067 -0.03567057 -0.045849096 -0.00785796
-0.013802192 -0.008360294 -0.08603559 -0.040662814 -0.041286606 -0.071454786 -0.07458555 0.043457475
0.05028089 -0.00993219 0.057486743 -0.07250352 -0.088359095 -0.027059343 0.07198544 0.07076849
-0.0687684 -0.036510583 0.01550306 -0.008640183 0.045716107 0.06911512 -0.037370753 -0.018210705
0.03488893 0.0030532023 0.042085458 -0.018020814 0.06430188 0.08432564 0.019484088 0.0709989
-0.0007217235 0.030670524 -0.016937312 -0.023521326 0.06582664 -0.031028226 0.055207934 -0.086455606
-0.035083048 -0.052434456 -0.08599707 -0.08215067 0.054690883 0.02198125 0.0218223 0.017224535
0.027357686 0.06509702 -0.024372008 0.04768744 0.0054932507 0.06392448 0.06328348 0.087890655
-0.051668454 0.06931322 -0.03663453 -0.056616068 -0.03032494 -0.056550026 0.019732382 -0.061970066
0.066812076 0.010692475 -0.0043013534 0.026526978 0.07769683 -0.029058306 -0.011183628 -0.030222261
0.02434499 -0.05085145 -0.04936863 -0.034315653 -0.025770828 0.07675541 -0.023339488 0.04412898
0.046498347 -0.020702913 0.050875638 0.0050728363 0.07212063 -0.020669498 0.00786222 -0.057100732
-0.01130233 -0.060826648 -0.014567421 -0.039446127 0.01761897 0.06715179 0.003486838 -0.07125067
-0.014320779 -0.0031593859 -0.040413167 -0.04402424 0.047457166 0.07320225 -0.0043827137 -0.009213185
0.06303012 0.0325265 -0.01347259 -0.05823888 0.0037353612 -0.022419026 -0.037978284 0.05277012
00000000: 2a22 60bd 8873 183d 1b25 29bd 5eaa 79bd
00000010: 91b9 8d3b 4be0 34bd 2922 6abd 4bf7 2ebd
00000020: acd5 57bd 2c1d 21bc 6732 8d3c 6159 823d
00000030: 802a a0bd 45d5 89bc 027d 1b3b dea2 2dbd
00000040: e5e8 5dbd b59a 8d3c fb00 f73c e3d1 9b3b
00000050: 678f 16bc 04f0 153b 2f56 8ebc 960d 3dbd
00000060: 798b 3a3d 839c 88bd 6159 7cbd 9fe1 0cbd
00000070: 7748 e53c 834a 113d 249f acbd 6d4e af3d
00000080: 47c1 163d 8193 02bd 5645 193d 6894 e1bc
00000090: 2431 0d3d 93d1 8fbd a683 913d 212d 8b3c
000000a0: 4f5f 28bd 9724 6ebd ba60 87bd c16f 77bb
000000b0: 6d3d 8b3b ce62 a6bd 2aec 9cbd aec4 74bd
000000c0: 11c6 503d e322 5f3d 4276 a0bd f32a 5d3c
000000d0: 8dc6 a3bd 8300 91bd 9dee ee3b 631f 4a3d
000000e0: c877 1abd 5e56 893d 10b3 9e3d 0548 5d3d
000000f0: d958 823d 3de9 7d3d a218 2bbc 7691 9bbc
00000100: 1b3d 28bd c054 873d c7f3 97bc 4e9e 9e3d
00000110: 4400 a33c 9bc9 6abc 0a7f 4b3c d188 74bc
00000120: 86f1 86bd aed9 883d e867 a1bd 29f3 83bb
00000130: 4122 073d 00bf 2ebd c86a 98bd 84dc fa3c
00000140: 32fb 5e39 8052 8d3d 6b14 65bd 35df 87bd
00000150: 7d4c cebb 9f48 40bd 6539 643d dcd3 ac3d
00000160: 4fca a43c 3110 adbc 70e2 45bd 5a39 e3bc
00000170: 125d 9dbb 32fc 50bb 94be 29bd 2ee4 4e3c
00000180: 3fc0 5f3d 1801 d0bc 34c9 97bd 3f06 63bd
00000190: 77d3 aabd da67 a63d c5d7 7dbd d9d9 14bc
000001a0: 0913 9ebd 7e8b 2dbd b08c 2c3c ecc8 06bc
000001b0: 2ce4 4c3d c3d6 6cb9 71ab 4a3d aa03 a8bd
000001c0: 632d 4f3d 46ad 4fbc c285 703d dcf8 4b3c
000001d0: 55f8 f43c 8b43 fe3c 661a ccbc 93ba 943d
000001e0: 3d5c 8cbd af29 693d 1b40 ac3b 0d48 84bd
000001f0: 35ff ea3c 7f10 10bc 0400 093d d90b 7fbc
00000200: 8383 f33c 914a bd3b 899a 3c3d 7aa1 69bd
00000210: 296b 2fbd 6527 603d aa90 16bd 7165 7d3d
00000220: fb5f 4d3d 2324 be3c 4dc1 423d 55d3 64bd
00000230: 6384 393c 4e1b 12bd 43cc 3bbd acbe 00bc
00000240: 9722 62bc 9df9 08bc 6d33 b0bd 0d8e 26bd
00000250: 251c 29bd e356 92bd 4fc0 98bd 7700 323d
00000260: 56f3 4d3d a0ba 22bc 3877 6b3d ba7c 94bd
00000270: 9df5 b4bd 8eab ddbc 1a6d 933d 12ef 903d
00000280: 72d6 8cbd 1f8c 15bd 8c00 7e3c 8e8f 0dbc
00000290: d040 3b3d 3a8c 8d3d 1312 19bd 9e2e 95bc
000002a0: b2e7 0e3d 3c18 483b cd61 2c3d 63a0 93bc
000002b0: b4b0 833d ecb2 ac3d 189d 9f3c df67 913d
000002c0: 0b32 3dba c040 fb3c 1ec0 8abc ccaf c0bc
000002d0: 1ed0 863d e82e febc b721 623d a30f b1bd
000002e0: 3eb3 0fbd 83c5 56bd 3b1f b0bd 9c3e a8bd
000002f0: 8c03 603d 0612 b43c aec4 b23c 781a 8d3c
00000300: 3a1d e03c 9651 853d cea7 c7bc e853 433d
00000310: ba00 b43b d6ea 823d c59a 813d 0400 b43d
00000320: 4da2 53bd 17f4 8d3d 170e 16bd 40e6 67bd
00000330: 026c f8bc 00a1 67bd cea5 a13c 53d4 7dbd
00000340: c5d4 883d 7e2f 2f3c 5ef2 8cbb 1b4f d93c
00000350: 841f 9f3d af0b eebc 893b 37bc ad94 f7bc
00000360: 256f c73c 9c49 50bd c336 4abd 928e 0cbd
00000370: 581d d3bc f131 9d3d 7432 bfbc 97c0 343d
00000380: 0d75 3e3d 2899 a9bc f962 503d 093a a63b
00000390: fbb3 933d 1453 a9bc 8ad0 003c 75e2 69bd
000003a0: 682d 39bc 5d25 79bd 31ac 6ebc 4392 21bd
000003b0: a855 903c e186 893d 6f83 643b dfeb 91bd
000003c0: b3a1 6abc b30d 4fbb 4788 25bd c352 34bd
000003d0: 7262 423d 10eb 953d de9c 8fbb e6f2 16bc
000003e0: f015 813d 823a 053d 23bc 5cbc e48b 6ebd
000003f0: f6cc 743b 1ba8 b7bc 1e8f 1bbd 7b25 583d

decoder.weight f4 [128, 128]
0.025598144 0.0067401035 -0.010098219 -0.045085423 0.052700754 0.0021369264 0.04844743 0.009076109
-0.08502283 -0.021111943 -0.025922308 0.056606997 -0.009288052 0.04051082 0.006267124 0.01948425
-0.011873759 0.026788525 0.04263829 0.022507302 0.06255044 -0.045369115 -0.019720875 -0.004289554
-0.087204896 -0.082502335 0.028102243 -0.08755668 0.024348328 0.069534056 0.00028130476 0.033912513
0.042662293 0.06693294 0.08005788 0.027057227 0.06883086 0.010976653 -0.05810231 -0.003857216
-0.05220063 0.00080742926 0.07800044 0.07674008 -0.02854431 0.08308044 0.03988552 0.054368544
-0.017647889 0.07242236 -0.012082297 0.0076524154 -0.021294035 0.014130717 -0.05339684 -0.045867056
0.033225097 0.0054218015 0.072656795 -0.00485594 0.058934405 -0.046169937 -0.068215065 -0.011579819
-0.08484698 0.03419336 0.08280339 -0.0048705083 0.08498925 0.001310523 -0.010441832 -0.029063493
0.04242843 0.01856276 -0.0031508484 -0.032760195 -0.05181712 -0.025997763 0.05510738 -0.008718225
0.07750312 -0.07520062 0.02369139 0.06989123 -0.03623901 -0.020147827 -0.024015546 0.07669364
0.022872249 0.021812197 -0.07996752 0.046455543 -0.012501082 -0.052641965 -0.055056185 -0.014484351
-0.07891354 -0.057579417 0.058240514 0.081336595 -0.03876883 0.053015344 -0.021986403 -0.082058
0.06595589 0.041854907 0.047824603 0.0182972 -0.07851331 0.014951667 -0.05147742 0.082053974
0.0490324 -0.05719558 -0.07174772 0.008148957 0.052929413 0.062879205 -0.017826054 3.8975584e-05
-0.07659111 -0.065891765 0.06904734 0.078566894 0.08725835 0.06537258 0.02958686 -0.01770398
-0.038570985 0.0022675886 0.024265071 0.012503624 -0.006958679 0.032494403 0.08625223 0.046987694
0.07084648 0.05735399 -0.021777712 0.05975989 0.03946341 -0.07602122 0.028802838 -0.008106627
0.08237529 0.029488109 0.079384126 0.01662669 -0.07038432 -0.017152175 -0.06589418 -0.0022782616
-0.06551287 0.08134809 0.08800379 -0.08626277 0.07749704 0.05689018 -0.04505772 -0.064291306
0.07156928 -0.078528926 0.057313826 -0.0005550559 0.06766026 -0.077430785 -0.060893517 0.024089083
-0.07904441 0.03088097 -0.088282876 0.0582563 0.055395585 0.019447902 -0.072061494 -0.036543354
0.045020178 -0.07260819 0.052644078 -0.0008174126 -0.06670671 0.08432784 0.074551076 0.01672797
0.055915195 0.043934956 -0.033498567 -0.07396405 -0.082669176 -0.06935809 0.03891391 -0.0603945
-0.049844813 0.032894697 0.059263658 -0.019391837 -0.071066484 -0.032809157 0.046250727 0.012144573
-0.06284925 0.064839885 0.067462526 -0.028899552 0.049609214 0.08593769 -0.01839759 0.0054038065
0.06598478 0.08068499 0.038050346 -0.057003032 0.044840917 0.014627346 -0.079234615 -0.051092822
-0.033488628 -0.038933013 -0.05073091 0.03381718 -0.08624488 -0.08796894 -0.04341807 -0.054272495
0.028851798 -0.00485449 -0.060149714 0.016641725 0.01807293 -0.047333796 0.082874835 -0.03318913
0.06857582 0.02979546 0.079702035 0.06548723 -0.018764967 0.081451625 0.005698371 0.022802338
0.029230516 -0.03829923 0.0050678314 -0.04685553 -0.06998451 0.010442515 0.043284953 -0.042090222
-0.03210463 -0.08519271 0.0021753204 -0.052482095 -0.024289621 -0.08404354 0.037663747 0.012717505
00000000: 33b3 d13c 16dc dc3b 0073 25bc 7eab 38bd
00000010: bfdc 573d ad0b 0c3b d070 463d f6b3 143c
00000020: 7320 aebd f4f2 acbc 055b d4bc bddc 673d
00000030: ea2c 18bc acee 253d 725c cd3b 6f9d 9f3c
00000040: 288a 42bc 9c73 db3c 7da5 2e3d 3c61 b83c
00000050: 721a 803d f7d4 39bd ac8d a1bc 638f 8cbb
00000060: 7b98 b2bd fcf6 a8bd ad36 e63c eb50 b3bd
00000070: 2576 c73c df67 8e3d 167c 9339 d9e7 0a3d
00000080: a8be 2e3d 2314 893d 63f5 a33d 1ea7 dd3c
00000090: 32f7 8c3d 6bd7 333c b0fc 6dbd 59c9 7cbb
000000a0: 54d0 55bd a9a9 533a b2be 9f3d e729 9d3d
000000b0: c2d5 e9bc 1426 aa3d 005f 233d 8db1 5e3d
000000c0: 4e92 90bc 2d52 943d d4f4 45bc 1dc1 fa3b
000000d0: d470 aebc 8684 673c a5b6 5abd 18df 3bbd
000000e0: 0a17 083d 5ea9 b13b 16cd 943d 941e 9fbb
000000f0: 3465 713d b01c 3dbd 57b4 8bbd 48b9 3dbc
00000100: 41c4 adbd 560e 0c3d d394 a93d c998 9fbb
00000110: d80e ae3d dbc5 ab3a 3814 2bbc 9016 eebc
00000120: 6fc9 2d3d ee10 983c 777e 4ebb 8e2f 06bd
00000130: 303e 54bd 43f9 d4bc 47b8 613d e3d6 0ebc
00000140: f5b9 9e3d c802 9abd 7214 c23c 2223 8f3d
00000150: 5b6f 14bd 0e0d a5bc 40bc c4bc 8e11 9d3d
00000160: 955e bb3c 7eaf b23c 03c6 a3bd 2b48 3e3d
00000170: 57d1 4cbc 1a9f 57bd 9882 61bd c54f 6dbc
00000180: 6c9d a1bd 65d8 6bbd 9b8d 6e3d cd93 a63d
00000190: 11cc 1ebd 9e26 593d d41c b4bc 060e a8bd
000001a0: e213 873d 0d70 2b3d bbe3 433d 02e4 953c
000001b0: 96cb a0bd d6f7 743c fdd9 52bd ea0b a83d
000001c0: 33d6 483d ea45 6abd 78f0 92bd 3483 053c
000001d0: 83cc 583d d0c6 803d f207 92bc b779 2338
000001e0: cddb 9cbd 43f2 86bd b168 8d3d aee7 a03d
000001f0: 81b4 b23d 0fe2 853d 2560 f23c f007 91bc
00000200: 9cfc 1dbd d39b 143b 8bc7 c63c 00dc 4c3c
00000210: a105 e4bb da18 053d 02a5 b03d 2b76 403d
00000220: f617 913d 04ec 6a3d 2c67 b2bc c9c6 743d
00000230: 62a4 213d 03b1 9bbd eef3 eb3c a8d1 04bc
00000240: 60b4 a83d 0c91 f13c 2594 a23d b234 883c
00000250: a825 90bd b882 8cbc 87f3 86bd e34e 15bb
00000260: 9d2b 86bd d499 a63d 553b b43d 89aa b0bd
00000270: c5b6 9e3d ad05 693d 728e 38bd 29ab 83bd
00000280: ea92 923d c6d3 a0bd e7c1 6a3d 2c81 11ba
00000290: 7691 8a3d 0894 9ebd 7b6b 79bd 7856 c53c
000002a0: 09e2 a1bd 17fa fc3c a7cd b4bd 289e 6e3d
000002b0: 7be6 623d 3551 9f3c fa94 93bd 7cae 15bd
000002c0: 1467 383d 9ab3 94bd 51a1 573d a247 56ba
000002d0: 879d 88bd 13b4 ac3d 3cae 983d 1909 893c
000002e0: 5507 653d 24f5 333d cb35 09bd 777a 97bd
000002f0: 754e a9bd 9d0b 8ebd 3164 1f3d 3960 77bd
00000300: 132a 4cbd 97bc 063d 73be 723d a1db 9ebc
00000310: 4e8b 91bd e562 06bd 6771 3d3d 08fa 463c
00000320: 1cb7 80bd c6ca 843d cb29 8a3d c1be ecbc
00000330: 0833 4b3d 1a00 b03d 8bb6 96bc 6a12 b13b
00000340: 0723 873d 2c3e a53d aeda 1b3d 037c 69bd
00000350: 1cab 373d 89a7 6f3c c245 a2bd b546 51bd
00000360: 5f2b 09bd 3978 1fbd 37cb 4fbd e283 0a3d
00000370: 28a1 b0bd 0f29 b4bd 25d7 31bd d64c 5ebd
00000380: 9b5a ec3c 6a12 9fbb 8c5f 76bd 3a54 883c
00000390: ae0d 943c 15e1 41bd 48ba a93d 53f1 07bd
000003a0: 7b71 8c3d 9c15 f43c d23a a33d 2b1e 863d
000003b0: fdb8 99bc 1cd0 a63d 67b9 ba3b f8cb ba3c
000003c0: d674 ef3c a7df 1cbd 0d10 a63b 96eb 3fbd
000003d0: 0a54 8fbd 1517 2b3c 904b 313d cc66 2cbd
000003e0: 2580 03bd 8479 aebd d28f 0e3b 77f7 56bd
000003f0: 07fb c6bc 051f acbd 4d45 1a3d 155d 503c
