results/scratch/12owob2t/sae_363/model.pth (torch, 263199 bytes, 2 tensors)

encoder.0.weight f4 [256, 128]
0	0xbd922e99	-0.07137794
1	0xbdafefb7	-0.08590644
2	0xbd9f81a2	-0.07788397
3	0x3d54822a	0.051881947
4	0xbd77c264	-0.06048812
5	0x3d96ebef	0.073692195
6	0x3d9cb625	0.07651929
7	0x3d8f88d0	0.07008517
8	0x3d28693b	0.04111598
9	0xbbe9a796	-0.0071305735
10	0x3cbeb725	0.02328069
11	0xbd50ac19	-0.050945375
12	0x3d88f47f	0.06687259
13	0xbcc53b20	-0.024076045
14	0x3da62d22	0.08114077
15	0x3cd9746a	0.026544768
16	0xbd2db662	-0.042410262
17	0x3d3051cf	0.04304677
18	0x3dad600a	0.084655836
19	0x3c47fcea	0.0122062955
20	0xb93a7721	-0.00017782721
21	0xbd1f4a48	-0.0388892
22	0x3c270701	0.010194541
23	0x3d8bdc84	0.068291694
24	0xbc931147	-0.017952574
25	0xbd0a626f	-0.03378528
26	0x3dad9b9b	0.08476945
27	0xbda21690	-0.0791446
28	0xbcfb5f39	-0.030685054
29	0x3cbe407c	0.023224108
30	0xbc5b5b1e	-0.013388423
31	0xbba4b72d	-0.005026719
32	0xbda5f7fb	-0.08103939
33	0xbd21d2cf	-0.039507683
34	0xbb65199c	-0.0034957891
35	0xbd9e32df	-0.07724547
36	0xbc7e8ed4	-0.015536983
37	0x3d8955b6	0.06705801
38	0xbb17747a	-0.0023110197
39	0xbda66988	-0.08125597
40	0x3d65daee	0.05611699
41	0xbcdc2ade	-0.02687591
42	0xbbf5496e	-0.00748556
43	0x3d8c29ac	0.06843886
44	0xbd4b6bf7	-0.04966351
45	0xbd36a7c7	-0.0445936
46	0xbd7059eb	-0.058679502
47	0xbd622c42	-0.05521799
48	0x3d14f190	0.036363184
49	0xbc805647	-0.01566614
50	0x3c11ae3e	0.00889164
51	0x3d8e8ad7	0.06960075
52	0x3cedf8a0	0.029049218
53	0xbda0b41d	-0.07846854
54	0x3cd4f095	0.025993625
55	0x3da22fe5	0.079192914
56	0xbc392b72	-0.011301862
57	0x3d17cb3b	0.03705905
58	0xbd947182	-0.072482124
59	0xbd89ddbb	-0.06731745
60	0xbd5e7154	-0.054307297
61	0x3d1a0d23	0.037610184
62	0x3d52cf56	0.051467262
63	0x3cda2fe3	0.026634162
64	0xbc86432c	-0.016389452
65	0xbc8c184c	-0.01710143
66	0x3b84e551	0.004055657
67	0xbd9cedec	-0.076625675
68	0xbcf34681	-0.029696705
69	0x3d3c737c	0.046008572
70	0x3daf5996	0.08562009
71	0xbc2dc39c	-0.010605719
72	0xbd02e6bd	-0.03195833
73	0xbda52a40	-0.08064699
74	0x3c0a2c4f	0.008433416
75	0x3d680de2	0.056653865
76	0x3cc48281	0.02398801
77	0x3bff7e91	0.0077970703
78	0x3ccfc85e	0.025364097
79	0xba6ddcfe	-0.0009073763
80	0xbd15f8d5	-0.036614258
81	0x3d1c1d9b	0.03811417
82	0x3d789a3b	0.06069396
83	0x3ad5c0ea	0.0016308103
84	0xbd2cd817	-0.042198267
85	0xbd1053b1	-0.035236064
86	0x3d4ce778	0.050025433
87	0x3c7a9683	0.015294674
88	0x3d11ed32	0.035626598
89	0xbbc221dd	-0.005924447
90	0x3c5badc4	0.013408128
91	0x3d97b823	0.07408168
92	0xbd16dc5d	-0.03683125
93	0x3d37a2b1	0.04483289
94	0xbdaad103	-0.08340647
95	0xbc8aab94	-0.016927518
96	0x3cde8753	0.027164137
97	0xbdae5803	-0.08512881
98	0xbdaed53e	-0.085367665
99	0x3dae1953	0.08500924
100	0x3ce2193f	0.027599929
101	0x3d4375de	0.04771983
102	0x3c639140	0.013889611
103	0xbd73ea34	-0.059549525
104	0x3d6361d2	0.05551321
105	0x3da989bb	0.08278223
106	0xbd653148	-0.0559552
107	0x3d7c5570	0.061604917
108	0x3cc5b190	0.02413252
109	0xbc5b7037	-0.013393453
110	0xbdb3826c	-0.087651104
111	0x3cf25efc	0.029586308
112	0xbdb0a451	-0.08625091
113	0xbcc1c863	-0.023655122
114	0xbd5a2633	-0.053259086
115	0x3d3136a6	0.043265007
116	0x3d94238b	0.07233342
117	0xb9d74bf1	-0.00041064576
118	0xbd81ed4e	-0.063440904
119	0xbbe191a2	-0.006883816
120	0x3d261c9c	0.040554628
121	0x3d343c57	0.044002857
122	0x3c78dc47	0.015189237
123	0x3bf0ff08	0.007354621
124	0x3d84249f	0.064522974
125	0x3d79a435	0.060947616
126	0xbcba4834	-0.022739507
127	0x3d65928d	0.056047965
128	0xbca7b48e	-0.020471837
129	0xbd957dc0	-0.072993755
130	0x3d348dc4	0.04408051
131	0xbd9abed9	-0.075559326
132	0xbb450941	-0.003006533
133	0x3da08e12	0.07839598
134	0x3d75748c	0.0599256
135	0xbd537df7	-0.0516338
136	0x3c1b788c	0.00948919
137	0x3d98302b	0.07431062
138	0xbd8a1133	-0.06741562
139	0x3ca80188	0.020508543
140	0xbd1d2f06	-0.038374923
141	0xbd219622	-0.03944982
142	0x3da17873	0.07884302
143	0xbd8bdc14	-0.06829086
144	0xbd671b9b	-0.05642281
145	0xbbf9fc13	-0.0076289265
146	0xbd69c822	-0.057075627
147	0x3d9a0cb2	0.07521953
148	0x3d1bfcde	0.03808295
149	0x3cffad03	0.031210428
150	0x3d8b4b45	0.06801466
151	0xbcb01d55	-0.021498362
152	0x3d30c4aa	0.043156303
153	0xbceb90e1	-0.028755607
154	0xbda39d9d	-0.07989047
155	0xbcb0f0c8	-0.021599188
156	0x3aab8c95	0.0013088161
157	0xbd1a05fb	-0.03760336
158	0x3d5952a7	0.05305734
159	0xbd50aec2	-0.050947912
160	0x3d67d672	0.056600995
161	0x3da17542	0.07883693
162	0xbd7dec11	-0.06199271
163	0x3d4e101f	0.050308343
164	0x3da8fa34	0.082508475
165	0x3d8b83a5	0.068122186
166	0xbd919408	-0.07108313
167	0x3d8a4a8b	0.06752499
168	0x3d190842	0.03736139
169	0x3ccd2a6f	0.025044648
170	0x3ceee111	0.029160054
171	0x3c6fd196	0.0146373715
172	0xbdb455a7	-0.088053994
173	0xbd8e250b	-0.06940659
174	0xbacb285c	-0.0015499699
175	0xbd29da33	-0.041467857
176	0x3daae642	0.083446994
177	0x3c927b01	0.017880918
178	0xbd26b197	-0.040696707
179	0x3d849267	0.064732365
180	0xbcf729e5	-0.030171344
181	0xbd8e5c5f	-0.06951212
182	0xbd736ed9	-0.059431884
183	0xbc94fabb	-0.018185964
184	0xbc65af0d	-0.014018786
185	0x3ca0222f	0.01954755
186	0xbd94907b	-0.0725412
187	0xbd0ce5f9	-0.034399007
188	0xbcb75eb9	-0.022384034
189	0x3d465615	0.048421938
190	0xbdb16bb2	-0.086631194
191	0xbcb93365	-0.022607515
192	0xbdb08538	-0.086191595
193	0xbc9b8a2c	-0.018986784
194	0xbd864153	-0.06555428
195	0x3cf494ff	0.029856203
196	0xbdaf59e5	-0.08562068
197	0xbdb1069e	-0.0864384
198	0x3d4feed0	0.05076486
199	0x3d50776b	0.050895136
200	0x3d4bd5c3	0.049764406
201	0xbd7f9908	-0.0624018
202	0xbda9971f	-0.08280777
203	0x3dae2bd7	0.085044555
204	0xbce37a6e	-0.02776834
205	0xbce4b292	-0.02791718
206	0x3cf3e30e	0.029771354
207	0xbd024027	-0.03179946
208	0x3ce6b08a	0.028160352
209	0x3c9a6f7e	0.018851992
210	0x3d77a279	0.06045768
211	0x3ba08501	0.004898668
212	0x3d3a6ffa	0.045516945
213	0xbc615cd3	-0.013755041
214	0xbbbb3565	-0.0057131522
215	0x3cd9d376	0.02659009
216	0x3da5f5be	0.08103512
217	0x3d96e175	0.07367221
218	0xbc6c9b82	-0.014441373
219	0x3cbb0645	0.022830138
220	0xbd943c00	-0.072380066
221	0xbb470d12	-0.003037278
222	0xbdb0728b	-0.08615597
223	0xbd1cede5	-0.03831281
224	0xbcd6bc55	-0.02621285
225	0xbc9101d4	-0.017701067
226	0xbd8d77e7	-0.06907635
227	0xbdb2ac06	-0.08724217
228	0xbd72e58c	-0.059300944
229	0x3d3c0617	0.045904245
230	0x3ca96aa6	0.020680737
231	0xbda70eed	-0.08157144
232	0xbd811d98	-0.06304473
233	0xbd9fa518	-0.07795161
234	0xbb9fcdf7	-0.004876848
235	0xbd510a70	-0.051035345
236	0xbd40b8e7	-0.047051337
237	0x3d5231fd	0.051317204
238	0x3cca63df	0.024705825
239	0xbd929c88	-0.07158762
240	0x3d7edb90	0.06222111
241	0xbca13eaf	-0.01968321
242	0xbda6e1e4	-0.08148554
243	0x3d986e10	0.07442868
244	0x3b01c021	0.0019798356
245	0x3d2b6f76	0.041854344
246	0xbd884971	-0.06654633
247	0x3cd55e1a	0.026045848
248	0xbd6b91f8	-0.057512254
249	0xbd80e38c	-0.06293401
250	0x3c4fed8e	0.012690915
251	0x3d8de96d	0.06929288
252	0x3d8adf9c	0.06780931
253	0xbd74f1a6	-0.059800766
254	0x3d23eead	0.04002254
255	0xbd8bee66	-0.0683258

decoder.weight f4 [128, 256]
0	0xb9d3e4cf	-0.00040415532
1	0xbd23f01f	-0.04002392
2	0xbcc3d081	-0.023903133
3	0x3c088500	0.008332491
4	0x3d184971	0.037179414
5	0x3bc9b402	0.006155492
6	0x3caabc9f	0.020841895
7	0xbc273c21	-0.010207207
8	0x3bd4154e	0.0064722663
9	0x3c6594c7	0.014012522
10	0x3ce31207	0.027718557
11	0x3c9fe04d	0.019516135
12	0xbd56fcbb	-0.052487116
13	0xbc116e11	-0.0088763395
14	0xbd68e6b6	-0.056860648
15	0x3d2fdbf1	0.04293436
16	0xbceb68c1	-0.028736474
17	0xbcc00543	-0.023440009
18	0xbd2c5cd3	-0.04208071
19	0xbcd1446e	-0.025545325
20	0xbd127ca5	-0.0357634
21	0x3d7331a0	0.059373498
22	0xbd1ee3ae	-0.03879135
23	0x3ccd5d25	0.025068829
24	0xbd4c1e10	-0.049833357
25	0xbc6d56b7	-0.014486006
26	0x3d0dcb72	0.03461785
27	0x3b360fea	0.0027780482
28	0x3cb52de3	0.022116607
29	0xbcec3325	-0.028832981
30	0x3d6180c1	0.05505443
31	0x3b2acee6	0.0026063262
32	0xbd0564a3	-0.032566678
33	0x3d3c77e8	0.04601279
34	0xbb2934aa	-0.0025818744
35	0xbc27fc97	-0.010253093
36	0x3d3b8704	0.045783058
37	0xbbaad492	-0.0052133286
38	0x3cdfe3cb	0.0273303
39	0x3d53ec39	0.05173895
40	0x3b93f1ff	0.004514932
41	0x3d584dc6	0.052808546
42	0xbd24a977	-0.040200677
43	0x3d66f8ec	0.056389734
44	0x3c06b3d2	0.008221583
45	0x3aa796c1	0.0012786017
46	0xbcd9393d	-0.026516551
47	0xbd770a50	-0.06031257
48	0x3d0c0307	0.034182575
49	0xbc929a85	-0.017895946
50	0x3cf9b0ae	0.030479755
51	0x397f6b23	0.00024358607
52	0x3d07a440	0.033115625
53	0xbd5fad2e	-0.054608516
54	0xbc64da1f	-0.01396802
55	0x3d760583	0.06006385
56	0x3c97daab	0.018536886
57	0xbd459372	-0.048236318
58	0x3cebbbec	0.028776132
59	0x3cf42859	0.029804396
60	0x3d75e3c3	0.060031664
61	0x3d0d1f5c	0.034453735
62	0x3d3c0c48	0.04591015
63	0x3d10b119	0.035325143
64	0x3d316943	0.043313276
65	0xbb77852d	-0.0037768588
66	0x3d2d4b56	0.042308174
67	0x3d08890b	0.03333382
68	0xbd27608d	-0.040863562
69	0x3c23dd1f	0.01000145
70	0xbb3651e5	-0.002781981
71	0xbcb07521	-0.021540226
72	0xbcfe3e88	-0.031035677
73	0x3c0cb21e	0.008587388
74	0xbc380bce	-0.011233283
75	0xbc564e09	-0.0130801285
76	0xbd387e9e	-0.045042627
77	0x3a802908	0.0009777853
78	0x3d21d549	0.039510045
79	0xbc536d38	-0.012904458
80	0xbd786e58	-0.060652107
81	0xbc61f772	-0.013791906
82	0x3d0ad1a7	0.033891346
83	0xbcae2b1d	-0.021260792
84	0xbafa4eec	-0.0019097007
85	0xbbc30eec	-0.0059527066
86	0x3d7ec726	0.06220164
87	0xbd559d54	-0.052151993
88	0xbc78860b	-0.015168677
89	0xbc87d03c	-0.016578786
90	0x3c25627b	0.01009428
91	0xbcb35fb1	-0.021896215
92	0xbcf0235f	-0.029313741
93	0x3d74eccc	0.05979614
94	0xbd3dbc84	-0.04632236
95	0xbcc13cee	-0.023588624
96	0xbcaf6a19	-0.021412896
97	0xbb995313	-0.0046790927
98	0xba8062fb	-0.0009795123
99	0xbd6ad395	-0.057330687
100	0xbd578366	-0.052615546
101	0x3d684e52	0.056715317
102	0xbb080190	-0.0020752884
103	0xbc9ca7b3	-0.019122934
104	0x3ba0468e	0.0048912233
105	0xbd4baff3	-0.049728345
106	0xbd691ed9	-0.056914184
107	0x3ca8df31	0.020614238
108	0x3d3da77f	0.046302315
109	0x3a7b127a	0.00095776434
110	0xbd60a1a9	-0.05484167
111	0xbd4f7dfe	-0.050657265
112	0x3c0c5fa0	0.008567721
113	0x3a52d60c	0.000804276
114	0x3d6fde2a	0.05856148
115	0xbd5edd03	-0.054409992
116	0xbcc76a90	-0.024342805
117	0x3d3fd8b9	0.046837542
118	0xbd39c6d0	-0.045355618
119	0x3cf53165	0.02993078
120	0xbd1b10d1	-0.037857834
121	0xbcc70f70	-0.024299353
122	0xbd4169dc	-0.047220096
123	0x3bb3edbd	0.005490987
124	0x3cda2444	0.02662862
125	0xbd6abbe4	-0.057308093
126	0x3d5740d9	0.052552078
127	0xbd1da570	-0.03848785
128	0xbd442084	-0.04788257
129	0xbbe715c9	-0.0070521575
130	0x3d1ddec7	0.038542535
131	0x3c669187	0.014072782
132	0x3d673fbe	0.056457274
133	0xbd3d1e8c	-0.04617171
134	0x3c3a7f3d	0.011382875
135	0x3d29985c	0.041405067
136	0xbd12b512	-0.035817213
137	0x3d675c64	0.056484595
138	0xbd6addae	-0.057340316
139	0xbd44b686	-0.04802563
140	0x3d211237	0.03932401
141	0x3c82347e	0.01589417
142	0xbcd72536	-0.02626286
143	0x3d622535	0.055211265
144	0xbb6196ab	-0.003442208
145	0xbd79a46b	-0.060947817
146	0xbcba850e	-0.022768524
147	0x3d467217	0.04844865
148	0x3ca03cf1	0.01956031
149	0x3d5121b5	0.051057536
150	0xbb8f7558	-0.004378002
151	0xbcb17a36	-0.02166472
152	0xbceeccf0	-0.029150456
153	0x3d76ca5d	0.060251582
154	0xbd297baf	-0.04137772
155	0xbb136a34	-0.0022493722
156	0xbca8c6cf	-0.020602612
157	0xbd706b7f	-0.058696266
158	0xbc333b3c	-0.010939416
159	0x3c271f8d	0.010200393
160	0x3d1abf90	0.037780344
161	0xbce90aa0	-0.02844745
162	0xbcfe4df3	-0.031043028
163	0xbb8b3e26	-0.004249352
164	0xbd40a25e	-0.047029845
165	0xbc086598	-0.008325003
166	0xbc5e4831	-0.013567016
167	0xbd23086b	-0.03980295
168	0x3b94187b	0.00451952
169	0xbcf8bc80	-0.030363321
170	0x3d4ce56b	0.050023478
171	0x3c3589dc	0.0110802315
172	0xbcdeffc6	-0.027221572
173	0x3b094c31	0.0020949955
174	0x3d624d2a	0.05524937
175	0xbc81367f	-0.015773056
176	0xbce956e7	-0.028483821
177	0x3d2a12fc	0.04152201
178	0x3d222dd9	0.039594505
179	0x3d0ac6da	0.033881046
180	0x3bbb260a	0.0057113217
181	0x3c4b0854	0.012392122
182	0x3cae86ca	0.021304507
183	0x3b2487b4	0.00251053
184	0x3d7adbc6	0.06124475
185	0xbd0682fa	-0.032839753
186	0x3d75d82b	0.060020607
187	0x3c9a0a18	0.018803641
188	0xbc982f2a	-0.018577177
189	0xbba094d3	-0.0049005537
190	0xbc1549ad	-0.009111804
191	0x3c48327a	0.012219066
192	0xbc772c06	-0.01508618
193	0xbd3e1c15	-0.0464135
194	0xbd50134d	-0.050799657
195	0x3c9a32ac	0.01882299
196	0xbd4867c9	-0.048927102
197	0xbcd9ae6f	-0.026572434
198	0x3c39e02c	0.011344951
199	0xbcd09723	-0.025462693
200	0xbd06baa6	-0.032892846
201	0xbd7e27c0	-0.062049627
202	0x3c9b6421	0.018968644
203	0x3d11e4b6	0.035618506
204	0xbcaca917	-0.021076722
205	0xbc173800	-0.00922966
206	0xbb30703f	-0.0026922373
207	0x3cdbce1c	0.026831679
208	0x3d630e41	0.055433515
209	0xbc8b8d07	-0.01703502
210	0xbd0f6397	-0.035007086
211	0x3d0f8f1e	0.035048597
212	0x3ca38cee	0.019964661
213	0x3d1179e9	0.035516653
214	0x3d166975	0.036721665
215	0x3d586dbc	0.052839026
216	0xb9fa20fb	-0.00047708288
217	0x3c3f65ad	0.011681956
218	0x3b84259f	0.004032805
219	0xbcde90f1	-0.027168723
220	0xbcb39f2f	-0.02192649
221	0xbcf65146	-0.030068051
222	0xbafe008e	-0.0019378827
223	0xbd1f6894	-0.038918093
224	0xbc6c955f	-0.01443991
225	0xbc7cb4df	-0.015423982
226	0x3d29e58d	0.041478682
227	0xbd4edc35	-0.050502975
228	0xbc3866f7	-0.0112550175
229	0xbd786379	-0.06064174
230	0x3cb97169	0.022637086
231	0x3c883c9f	0.016630469
232	0x3d31e2d0	0.043429196
233	0x3d2135dc	0.039358005
234	0xbc32ee5c	-0.010921087
235	0xbcba6bc5	-0.022756467
236	0xba6365f0	-0.00086745527
237	0x3c7f6f06	0.015590435
238	0x3d361344	0.044451967
239	0xbd28287b	-0.04105423
240	0xbd063017	-0.032760706
241	0xbd4253a1	-0.047443036
242	0xbd74527c	-0.059648976
243	0xbd5f4e81	-0.054518227
244	0x3d61e853	0.055153202
245	0x3d5f1195	0.054460127
246	0xbd0eb79b	-0.03484307
247	0xbaa076c0	-0.0012242422
248	0x3d455e74	0.04818578
249	0xbd2b9191	-0.04188687
250	0x3c32bd6d	0.01090942
251	0x3cfb4b88	0.030675665
252	0x3d7187d4	0.058967426
253	0xbd1cd204	-0.038286224
254	0xbd21556d	-0.03938811
255	0x3d6602ab	0.056154888
