results/scratch/12owob2t/sae_193/model.pth (torch, 132127 bytes, 2 tensors)

encoder.0.weight f4 [128, 128]
000000 93 ad c6 3c 34 3d aa 3d 6c b6 a8 bd c4 6c 96 3c
       0.024252689 0.08312455 -0.08237919 0.01836241
000010 60 13 76 bd 8b ac 8d bc 95 8a 78 3d 11 ae 6a bd
       -0.06007707 -0.017294189 0.060679037 -0.05729491
000020 41 ce a3 3c dd 16 4e bc d7 62 08 bd 81 6b a2 bd
       0.01999581 -0.012578693 -0.033297386 -0.07930661
000030 a9 a3 3a bd a9 d7 f9 bc a7 a7 55 bd 52 54 81 bd
       -0.045566235 -0.030498343 -0.05216184 -0.06314911
000040 f3 e7 97 3d 4a 33 b3 3a 26 18 89 bd be eb 9d 3d
       0.07417288 0.0013671902 -0.06694059 0.0771098
000050 0b 66 8a 3d 93 32 e8 3a 63 75 80 3d 7f 87 ff bc
       0.067577444 0.0017715268 0.0627239 -0.03119254
000060 18 fc a9 3d 5a 5d da 3c c4 f0 60 3d 33 74 96 3d
       0.08300036 0.026655842 0.054917112 0.07346382
000070 fa 0b 45 3d 0e 16 85 3d cc e4 80 bd e6 c1 74 3b
       0.048107125 0.06498347 -0.062936395 0.0037347018
000080 0f 5c 12 bd 28 59 d2 3a 20 43 97 3c 37 61 68 bd
       -0.035732325 0.0016048299 0.018464625 -0.056733336
000090 91 e5 07 3d 92 16 82 3d b6 cd 71 3d 04 10 8b 3d
       0.033177916 0.06351961 0.059034072 0.06790164
0000a0 35 f9 8e bd 1d e8 37 bc 11 83 7b bd 90 fe 68 3d
       -0.06981126 -0.011224774 -0.06140429 0.056883395
0000b0 fa 71 38 bd 1d bf 45 bd 13 3e 3f 3d 7d 0a d3 bc
       -0.04503057 -0.048277963 0.046690058 -0.025761837
0000c0 58 a6 9c 3d 43 57 4f 3d a3 5a 01 bc c0 03 3f 3c
       0.07648915 0.05062033 -0.007895145 0.011658609
0000d0 f5 65 0e 3d d3 04 9a bd 34 b8 44 3d 40 83 01 3c
       0.034765203 -0.075204514 0.048027232 0.007904828
0000e0 67 3f 35 3d 65 45 a0 bd f2 47 29 bd b3 df 8e bc
       0.04424992 -0.07825736 -0.041328378 -0.017440652
0000f0 97 05 b9 3c 4e 94 f8 3b 73 9f c5 3b dd a2 8a 3d
       0.022585673 0.0075860387 0.0060309707 0.06769345
000100 1e db 98 bb dd a0 a2 bd c9 70 9d 3d 24 92 6e 3c
       -0.0046647927 -0.079408385 0.07687528 0.01456121
000110 6b 2a 9b bd 64 1e 26 bd ee df 9f bc 8c 13 3a bc
       -0.0757645 -0.040556327 -0.019515958 -0.011357199
000120 e6 fe 75 3d 96 8e 99 3d d2 1a 19 3d 43 44 86 bd
       0.060057543 0.07497899 0.037379093 -0.06555989
000130 c8 06 a6 bb 72 8b ad 3c ab 35 b0 3c 92 6c 45 bd
       -0.0050667264 0.021184657 0.021509966 -0.048199244
000140 31 25 66 3b 8a 12 94 3d e0 6f 27 3c 6a d7 42 bd
       0.0035117383 0.072300985 0.010219544 -0.047568716
000150 fc 92 93 bd 96 ed 32 3d 95 f2 52 ba 17 d7 75 bd
       -0.072057694 0.04368361 -0.0008047012 -0.06001958
000160 16 ec 57 3d 4d d3 a2 bd 44 2a b6 bc af d6 77 bd
       0.052715383 -0.07950459 -0.02223695 -0.060507473
000170 ce 8c 10 3d fa 04 ef 3c 4b 78 68 bd de 3e 99 3d
       0.03529053 0.029177178 -0.056755345 0.07482694
000180 24 ae 8c 3d e0 5e e7 bc 49 02 ab 3d 8c ab b0 3c
       0.06869152 -0.028243482 0.08350045 0.021566175
000190 76 8f a2 3d 5a b4 91 3d 61 d2 87 bc 75 f3 15 3d
       0.07937519 0.071144775 -0.016579809 0.03660913
0001a0 ee 7c 22 bd 97 07 78 3d d2 40 02 3d d6 52 7e 3d
       -0.039669923 0.060554113 0.0318001 0.062090717
0001b0 6f 72 0d bd 06 5a 1f bd ed 92 b0 3d 4b a2 af 3d
       -0.03453296 -0.038904212 0.08621774 0.08575877
0001c0 0f 67 a2 3d 7a e4 d0 3c fc 36 94 3d 04 a5 5d 3d
       0.07929813 0.025499571 0.0723705 0.05411245
0001d0 b9 83 e7 3c 1b 61 18 3d 36 cc 6b 3d 89 c3 6f bd
       0.028261052 0.037201982 0.057567798 -0.058536086
0001e0 ea ff b1 3d 1c bf a4 3d e5 f5 32 3c b4 b9 a9 3d
       0.0869139 0.08044264 0.010922884 0.08287373
0001f0 03 97 69 bb 7d 0b 23 bd f6 c0 b0 3d ef 55 bd bb
       -0.0035642989 -0.039805878 0.086305544 -0.0057780663
000200 ee f5 53 bd e7 ac 41 bd ff cc 39 bd 34 0a 9c 3d
       -0.05174821 -0.047284033 -0.045361515 0.076191336
000210 3a 04 a4 3d 4e 4b e4 3c c5 d3 62 3d 21 54 06 bd
       0.08008619 0.02786794 0.05537774 -0.032795075
000220 36 c7 98 3d dc ee ad 3c 15 69 3a 3d f1 90 47 bd
       0.074598715 0.021232061 0.04551037 -0.04872221
000230 29 7d 94 3c fc 3c a7 3d e4 f0 b1 bd 42 4d 42 3b
       0.018126087 0.08165929 -0.08688524 0.00296481
000240 ff e3 2d 3d 4c a0 b1 3d 42 af 0b 3d de 63 2f 3d
       0.042453762 0.08673152 0.034102686 0.04281985
000250 c6 26 8d bc be cc 08 3d 84 f4 8c 3d d5 60 72 bd
       -0.017230403 0.033398382 0.06882575 -0.059174377
000260 b1 57 16 bc 04 16 b8 3c ff 05 8d 3c ac 74 9f 3d
       -0.009176181 0.022471435 0.017214773 0.07785925
000270 b8 86 7d 3d c5 22 6d 3d 8d a7 7a bc 4d 1f 8b bd
       0.061896056 0.057894487 -0.015298736 -0.067930795
000280 3a fa a6 bd 37 f7 c4 3c 9c 65 39 bd 0d 48 b4 bd
       -0.08153196 0.024043662 -0.045262918 -0.08802805
000290 3b 99 a7 3d c5 9f 9c bd 49 65 1c bd 45 4d 07 bc
       0.08183523 -0.07647661 -0.03818253 -0.008258169
0002a0 1c c5 97 ba e0 40 95 bd 45 34 4c 3d 77 28 9d bc
       -0.0011579129 -0.072877645 0.049854536 -0.019184334
0002b0 2a 01 05 3d 05 c2 2b 3d 42 9b a0 bd 98 20 10 bd
       0.032471813 0.04193308 -0.07842113 -0.035187334
0002c0 8c e4 87 bd 12 39 9d 3c 90 ad 2e 3c a0 0c 28 3c
       -0.06635389 0.019192252 0.010661498 0.010256916
0002d0 6b 1e 54 3d 0c 93 6c bc 60 06 93 3b c9 a2 90 bd
       0.05178682 -0.014439356 0.004486844 -0.07062299
0002e0 9f c9 b4 3d 85 cc 0f 3d 9a 94 8f bd 1e fb 94 bd
       0.08827519 0.035107154 -0.070107654 -0.07274459
0002f0 44 64 5b 3c f1 c9 f4 3c 0a eb 04 bd eb fd 81 bd
       0.013390604 0.02988145 -0.032450713 -0.06347259
000300 40 b5 c9 3c 3b a4 3e 3d 4c ef 41 bd fa 72 8c 3d
       0.02462256 0.04654334 -0.047347352 0.068578675
000310 03 be 80 3d 83 d4 a8 3d 60 df 12 3d 8a fe 07 3d
       0.06286242 0.082436584 0.03585756 0.03320173
000320 3f 5b 52 bc 71 2c 44 bd cf c8 38 bd 9b 5c 89 bd
       -0.012839138 -0.047893945 -0.04511338 -0.06707116
000330 21 8f 37 bd d1 3e 11 bd 48 48 c6 ba 1b cb 3b 3d
       -0.044814233 -0.035460297 -0.0015127743 0.045847993
000340 50 39 70 bd fd d3 9c bd ad b0 d3 3c 3b b6 57 bd
       -0.058648407 -0.07657621 0.025841082 -0.052664023
000350 4f f9 b5 bc 8f 6e 05 bd a7 71 0f 3d bc 0e dd 3c
       -0.022213606 -0.03257614 0.035020497 0.026984565
000360 b4 a3 3a 3d 0f 26 3e bd 94 e7 ac bd 9c cc 1b 3d
       0.045566276 -0.046423014 -0.084426075 0.038036928
000370 87 4d 9c bb f1 ef 0b bd e2 90 ad 3d 4e e7 9f 3d
       -0.004769984 -0.034164373 0.084749 0.0780779
000380 34 9c 73 3d 2c f0 be 3c 32 44 d6 3c f4 16 ac bb
       0.05947514 0.023307882 0.026155565 -0.0052517597
000390 fb de f8 3b 8e be 6d 3d 3d 2e aa bc 54 91 88 3d
       0.0075949407 0.058043055 -0.020774001 0.06668344
0003a0 f0 94 5d 3d 3e d9 0f 3d 5f 9a 17 3d f4 28 a7 3d
       0.054097116 0.035119288 0.037012454 0.08162108
0003b0 21 b9 e7 3c d9 e8 32 3d 74 e1 68 bd fc 98 a6 3d
       0.028286519 0.043679092 -0.056855634 0.08134648
0003c0 3e d0 8d bd 91 0c 28 3c e1 7a 95 bc f0 30 9a 3d
       -0.06924485 0.010256902 -0.01824707 0.07528865
0003d0 24 04 b2 3d 88 ce 76 3d ea 76 b3 3d 0d 2f 53 bd
       0.08692196 0.060255557 0.087629154 -0.051558543
0003e0 39 94 05 3c 6f dd 83 3a 07 ab f4 3c c8 98 99 3d
       0.008153015 0.0010060499 0.029866708 0.07499844
0003f0 58 f1 97 bd 64 c2 5e 3d ca 19 ae bd e7 59 86 bd
       -0.074190795 0.054384604 -0.085010126 -0.06560116

decoder.weight f4 [128, 128]
000000 f5 1a 19 bd 60 32 b2 bd 36 24 8c 3d 59 f3 7a bd
       -0.037379224 -0.087010145 0.06842844 -0.06126723
000010 9f c2 53 bd 73 ed 89 bd a5 73 6c ba bf a6 4a bd
       -0.051699277 -0.06734743 -0.0009019918 -0.049475428
000020 ba c8 91 3d bf e7 ec bb 99 08 b5 3d 00 0c a0 bd
       0.07118364 -0.0072297747 0.088395305 -0.07814789
000030 a0 b9 87 bd 27 f2 a5 3b fc 21 72 bd 02 a2 53 bd
       -0.06627202 0.005064267 -0.05911444 -0.051668175
000040 ae e3 07 bd a1 79 5b 3d 74 35 bc 3c 92 e7 e9 bc
       -0.033176117 0.05358279 0.022974707 -0.028552804
000050 33 ca b0 b8 67 ed 94 3d 64 37 a8 bd 92 e2 ac bd
       -8.4299965e-05 0.072718434 -0.0821369 -0.08441652
000060 fa b5 b4 bd 41 18 02 bb c1 d8 79 3d 64 09 b0 3c
       -0.08823772 -0.0019850882 0.06099773 0.021488853
000070 c9 b7 8b bd 61 4d e5 bc 66 ad 7a 3c b1 5e b0 bc
       -0.068221636 -0.027990999 0.0153001305 -0.021529527
000080 34 90 88 3d b6 9a b3 3d 51 40 87 bc 24 20 14 bd
       0.066681296 0.08769743 -0.01651016 -0.036163464
000090 94 17 53 bd c5 90 ae bd 71 7d 2a bc ed 70 ae 3c
       -0.051536158 -0.08523706 -0.010405884 0.021294082
0000a0 81 26 64 3d ca 4a 5b 3d 82 3f dd bc d4 50 5e bb
       0.055700783 0.05353812 -0.027007822 -0.003392269
0000b0 28 0b 65 3c 6c 52 57 3d f8 f3 38 3c ed bc 86 3b
       0.013979711 0.052568838 0.011288635 0.004111877
0000c0 12 c8 51 bd b4 0a ab bc ec d4 41 3d f9 d9 95 3c
       -0.051216193 -0.020879127 0.0473222 0.018292414
0000d0 94 9a 66 ba ed cc 96 3d b4 0b a6 bd 61 c2 9d 3d
       -0.00087968376 0.07363305 -0.08107701 0.077030905
0000e0 11 ea 42 3c 1e 5f 88 bd b1 d5 46 3d 15 7a 10 3d
       0.011896626 -0.06658767 0.048543636 0.035272676
0000f0 12 f4 89 bd f9 42 83 bd 1b a2 a9 bd 29 f6 18 3d
       -0.06736006 -0.064092584 -0.08282872 0.03734413
000100 7b da 86 bb d1 03 a1 bd c1 af 1c bd 89 75 82 3d
       -0.0041154004 -0.07862056 -0.03825355 0.06370074
000110 6a af 5a 3d f7 21 d6 3c 91 00 60 bd 4e f7 88 bc
       0.053389944 0.026139243 -0.05468804 -0.016719487
000120 0b 91 03 bd 77 3e a3 3c 9f 17 6f bd 72 e7 ad bd
       -0.032120746 0.019927246 -0.058372136 -0.0849141
000130 5d d4 8e 3c 4a 68 84 bd 46 cc 86 bd 4f db 84 3d
       0.017435247 -0.06465204 -0.06581931 0.06487142
000140 9f c2 9e bd 36 e1 ad 3c 10 f6 32 bc 90 51 5f bd
       -0.07751965 0.021225553 -0.010922924 -0.054521143
000150 9b b0 66 3d 18 6e a2 bd d8 41 a0 bd 15 fb 49 3d
       0.056320768 -0.07931155 -0.07825059 0.049311716
000160 77 58 a3 bc e0 87 9d bd e3 99 5e bd 92 9a 87 3a
       -0.019939644 -0.07691932 -0.054345977 0.0010345748
000170 75 50 ad 3b 31 45 60 bc 37 01 82 bd a8 65 fa bc
       0.0052891322 -0.0136883715 -0.06347888 -0.030566052
000180 17 a0 05 3d e3 66 4c bb 34 c3 d1 bc c1 9f 8f bc
       0.032623377 -0.0031189255 -0.025605775 -0.017532231
000190 44 ed 3d bd 3d a1 a9 bb c0 68 3f bc ad 7c ba bc
       -0.046368852 -0.005176692 -0.011682689 -0.022764528
0001a0 a4 b1 8b 3d 0f 00 fb 3b 1a c8 7d 3c 34 56 2e 3d
       0.06820992 0.007659919 0.015489602 0.04256268
0001b0 c8 8c 3b 3d 5d d2 39 3d 8f 32 83 bd 97 5c 8c bd
       0.045788556 0.045366634 -0.06406128 -0.068535976
0001c0 7d 1f 75 3d 8a 83 59 3d 1d 87 12 3c 07 d3 1e bc
       0.059844483 0.05310396 0.008943346 -0.0096938675
0001d0 5b f7 81 3d a1 10 0d 3d 54 76 8f 3d 37 9f 01 3c
       0.063460074 0.034439687 0.07004991 0.007911495
0001e0 d6 14 04 bd ce b5 9f bd 14 1f 26 3d 94 c1 7f bd
       -0.032246433 -0.07798348 0.040556982 -0.06244047
0001f0 22 ca ad bd 1f 71 51 3b 9f 97 7d bd 5f 8f 48 3d
       -0.084858194 0.0031958295 -0.061912175 0.048964854
000200 2a de a1 bd e0 15 76 3d ba 11 33 3d 5f db 9b 3d
       -0.079037026 0.060079455 0.043718077 0.07610201
000210 76 d4 62 bd 84 c2 31 bd 34 02 1d bd 22 11 3a 3c
       -0.0553784 -0.043398395 -0.03833218 0.011356624
000220 a3 a7 3f bd cd 5d 21 3d 10 03 b3 3c 0e 75 99 bd
       -0.04679073 0.039396096 0.021852046 -0.074930295
000230 81 ba 90 bd a8 e2 44 bd a6 e0 a3 3c 61 3b d0 3c
       -0.07066823 -0.04806772 0.020004582 0.02541894
000240 18 83 97 3d f2 20 86 bc 6d 02 95 bd 65 0c 5c bd
       0.07398051 -0.016373131 -0.07275853 -0.053722758
000250 63 76 9f 3c 1a 4c 9f 3c 7e b8 6d 3d 7a f1 1a 3d
       0.01946563 0.019445468 0.058037274 0.037827946
000260 05 c4 78 3d eb 21 3f 3d 75 26 8d 3d a7 fb 93 3d
       0.060733814 0.046663206 0.06892101 0.07225733
000270 16 98 c0 bb c0 3a 94 bd 8e 9a 38 3d 43 a9 a4 bd
       -0.005877505 -0.07237768 0.04506927 -0.080400966
000280 b7 93 56 bd 92 a4 80 bb 47 5b 98 bd 41 6d a5 3b
       -0.052386966 -0.0039258683 -0.07439285 0.0050484245
000290 bf 16 11 3d 02 51 58 bd f3 b6 0c 3d 23 cf 47 bd
       0.035422083 -0.05281163 0.03435416 -0.048781525
0002a0 eb c6 c1 bc 63 93 88 bd 69 b3 83 3d 89 b0 33 3d
       -0.023654422 -0.06668737 0.06430704 0.04386953
0002b0 12 b1 89 3d 4e 80 51 3d 48 b5 5e bc e4 52 45 bd
       0.067232266 0.05114775 -0.0135930255 -0.048174754
0002c0 13 70 a1 3d 26 ba 38 bd f0 9c 56 3d c4 48 ed bc
       0.078827046 -0.0450994 0.05239576 -0.028965361
0002d0 de d3 54 3d 1f d6 58 bd b9 ea 8a b9 cb f0 93 3d
       0.051959865 -0.052938577 -0.00026496293 0.07223662
0002e0 31 eb 0b 3d 72 f2 51 3d 2f 4d 06 3b 7f b6 54 bc
       0.034159843 0.051256604 0.0020492782 -0.012982964
0002f0 e7 34 4c bd 58 a4 fa bc d5 e7 98 3d a0 ec 42 3d
       -0.04985514 -0.030595943 0.074660935 0.047588944
000300 11 e1 33 bd c6 58 4f 3d d2 c8 44 bd 43 30 5b 3d
       -0.043915812 0.05062177 -0.04804308 0.053512823
000310 a2 3b 11 bd 4d bb 8c bd da 82 54 3c b9 57 36 3d
       -0.03545726 -0.06871662 0.012970651 0.044517253
000320 0f 8a 1c bd 6b a0 a2 bc 0d b2 9e bd 43 4a dc 3b
       -0.0382176 -0.019851884 -0.07748804 0.00672272
000330 38 c6 92 bc fb 88 a9 bc 09 b0 54 3d 81 d3 a3 bd
       -0.017916784 -0.0206952 0.051925693 -0.079993255
000340 a9 a1 85 3d 42 fe ee bc fc b9 87 bd a0 ef 45 3d
       0.06524975 -0.029173974 -0.066272706 0.048324227
000350 4f 98 7d 3d 66 5a af 3d 73 6a 71 bb f6 7b 7e 3d
       0.06191283 0.08562164 -0.003683713 0.062129937
000360 00 1e 03 bd d9 bc f1 3c f5 d5 20 3d 32 ca 0d 3d
       -0.032011032 0.029508995 0.039266545 0.034616657
000370 25 31 ad bd 05 ab 48 bd 58 2c 6e 3d e5 40 f9 3c
       -0.08456639 -0.048991222 0.05814776 0.030426452
000380 b1 04 82 3d 18 c3 05 bd c8 99 7a bd cd c7 b0 3d
       0.06348551 -0.03265676 -0.061181813 0.08631859
000390 fd 64 a0 3d 85 03 58 bd e1 12 5b 3d 70 b4 86 bd
       0.07831762 -0.05273773 0.0534848 -0.065773845
0003a0 f5 f8 30 3d 0c 8f 88 3d 47 01 8e 3d bf 26 a7 bd
       0.043206174 0.06667909 0.069338374 -0.08161687
0003b0 20 53 01 bc 48 e4 c9 bc f0 ef 6d 3d d2 e0 76 bd
       -0.007893354 -0.024644986 0.05809015 -0.060273
0003c0 da ea 8a bd 8b bf 12 bd 93 ba 93 3d c9 10 2e 3d
       -0.06783076 -0.0358272 0.072133206 0.042496476
0003d0 eb 6c 80 3d 58 29 6d bd 3d 92 92 bd 9e 09 1d 3d
       0.062707745 -0.057900757 -0.07156799 0.03833925
0003e0 a5 75 63 bd c6 ed ae 3d 3e f1 13 bd c3 bb 87 3d
       -0.055532116 0.085414454 -0.03611874 0.066276096
0003f0 bc d3 30 bd 53 e1 83 3d bd 0f 1a 3d 8e 09 9d 3d
       -0.043170676 0.064394616 0.037612665 0.07667838
