results/scratch/12owob2t/sae_199/model.pth (torch, 525343 bytes, 2 tensors)

encoder.0.weight f4 [512, 128]
00000000: 40be 82bb 8b2f a83d 54e5 59bd 9ba2 633d
00000010: 605b f5bc ca54 22bd 6ef0 0d3d 164e 113c
00000020: 0d95 dfbb 9737 1a3d de43 163d 046f 313d
00000030: 3353 eebc 7934 aa3b a5b1 503d 1b83 b43d
00000040: 62ad 873d 9955 8f3d a5b5 4a3d 77da a73c
00000050: f392 95bd 958d 85bd 2b20 81bd 2f67 edbb
00000060: edcd 7a3c bbfa 8b3d 5231 d13c b778 34bd
00000070: dab9 9cbc f654 f7bb 00c8 353d 0203 27bd
00000080: d07c ffbc 1fba 9a3d b5f2 9f3d 2666 afbd
00000090: a405 7fbc 6648 08bc 56fb 3b3d 7feb 54bb
000000a0: 2a9c 0bba c0c9 833d f4eb ac3d cf32 b2bc
000000b0: bfc9 62bd 37a1 8abd 24f0 3c3d 78bd fa3c
000000c0: 137e 9cbd 3d86 f1bc b219 5f3d a926 58bd
000000d0: 99e1 373d ef0b c23a c1f4 b13d 3144 343d
000000e0: edec 70bd 10cd 2fbb 237c 1e3d 79dc 5bbd
000000f0: 4c5e 8b3d 8e8c 36bd 9141 84bd b591 7bbd
00000100: 856f 0fbd 3661 8b3d 4349 40bd 3f3c 13bd
00000110: 7d8f c13c 77df b33d cab2 6c3c 2796 a93d
00000120: b12f 913c 7afa 123c 1c69 50bc 02ea 1e3d
00000130: 96a3 b43d 73f2 853b 46df 68bd cb59 863b
00000140: e320 173d 56a4 ed3c ac91 453a 6998 84bd
00000150: 4385 35bd aa41 81bc dde9 583d 8e85 b1bd
00000160: a252 f43c 2fed 0dbd f05d 93bc f9c4 e93c
00000170: 7d3d 28bd f240 923d 067b 7ebd f82e 21bd
00000180: d984 983d fe49 713d c5fa 183c 9e5f 783d
00000190: 099c 693d 0450 203c d5c1 e7bc 30a2 843d
000001a0: b253 d7bc 2b57 95bd a234 3cbc 5ef2 e3bb
000001b0: 3284 e33c f054 9cbd 172f 26bd 5df1 9f3b
000001c0: 14c1 c0bc 0cb5 e7bc 1ef5 6c3d ff86 b2bd
000001d0: f67f 6b3d ef4a c1bc d67b 24bd 0cca c7bc
000001e0: 5f0b 9bbd 0bca 923d 1007 a63d 7320 b43d
000001f0: 57f4 2dbd 88d5 73bd db7e 223d 4e81 3abb
00000200: a62d 91bc 73a1 223d e21b 053d 1a1f 49bd
00000210: 2f24 f3b9 4a80 afbd 07b0 9d3d bea2 b1bd
00000220: be6c be3c 9407 e1bc 146f a73b 1712 9bbd
00000230: bdeb 5bbd c6fa e13c 77bf 5cbd fdd2 00bd
00000240: 367e 39bc fad9 fe3c 8c75 073c 8469 953d
00000250: 996b c33c 7a6d 283b c380 123d ca1a abbd
00000260: ff89 c73c e3bb 873d 2174 77bd d1a9 8d3c
00000270: c77f 42bd d3dc 9ebd 86b1 46bc f991 6c3d
00000280: d289 e13c 1907 173d 9675 6d3d e297 8bbc
00000290: fa5a cfbc 94af 76bd f1e7 a8b9 38c8 293d
000002a0: 68c1 5f3d 7904 31bd ce30 9dbd b0fb 9ebd
000002b0: 8778 41bd 310e c1bb 7bc5 463d 8405 103d
000002c0: c775 b23d 9330 a63d e27a 043d 1b57 223b
000002d0: d6e7 873d 2935 bfbc 9a22 a9bc 05df 563d
000002e0: ee00 863d 9a32 3b3d 3848 483d 7e81 0a3d
000002f0: 6926 a33c 7574 433d eb01 a93d 90a3 5b3d
00000300: 9822 adbd e39a db3c aec9 74bd 2332 3dbd
00000310: 58c1 1a3d 3b3e 853d 6610 763d 6916 543d
00000320: f669 8fbd 12bd a03c 3811 97bc 2d32 c33c
00000330: 699b 8a3d cf7f b8bc e901 d2bc d696 7cbc
00000340: 7414 00bc 8267 7dbd 80e5 843d 890e 823d
00000350: 7b79 833d 7d72 29bd 1280 37bd 4266 a23d
00000360: 1c6e 35bd 7847 e53c dee8 75bd 169e 38bd
00000370: cbf6 27bd ce5c ac3d c84e 4fbd 6350 523c
00000380: f3b8 573d 8c5d 9f3d 529f 55bd d790 a53d
00000390: 0760 363d c04a 51bd e634 03bd 31c6 3ebc
000003a0: 3452 7c3d 614a 76bd 1842 a0bd 61c5 b9bb
000003b0: 0aa6 7d3d 493e 80bd 43d6 ad3c f835 7cbd
000003c0: 1e3a 8c3c 1542 89bd 7a83 013d 4579 4fbd
000003d0: 32c4 7dbd aaed 55ba a87a 41bd eaa1 5abd
000003e0: 2f34 a7bd 5a31 a9bd ad06 1f3d 1535 9b3d
000003f0: a365 693d 5158 863d fe77 82bd 59fb 83bd
-0.0039899647 0.08212193 -0.05319722 0.055574995 -0.029950798 -0.039631642 0.03465312 0.008868715
-0.006823188 0.03765067 0.036685817 0.043318763 -0.029092407 0.0051942435 0.050950665 0.08814069
0.06624867 0.06998748 0.049489636 0.020489914 -0.07303419 -0.06521145 -0.06304964 -0.0072449665
0.015307886 0.068349324 0.025536213 -0.044060435 -0.01913159 -0.00754797 0.044380188 -0.040774353
-0.031187445 0.07555031 0.078099646 -0.08564405 -0.01556531 -0.008318042 0.04589399 -0.0032489
-0.00053256995 0.06434965 0.08443442 -0.021752743 -0.05536818 -0.067690305 0.046127453 0.030607924
-0.07641234 -0.029482955 0.054467864 -0.052771244 0.04489288 0.0014804582 0.08689261 0.044010345
-0.0588197 -0.0026825108 0.038692605 -0.053677056 0.06805095 -0.044567637 -0.06457818 -0.061418254
-0.035018463 0.06805651 -0.046944868 -0.035946127 0.02362799 0.08782857 0.0144469235 0.082805924
0.017722936 0.008970851 -0.0127203725 0.038797386 0.08820264 0.00408774 -0.056853555 0.0041000596
0.036896598 0.029009026 0.00075366604 -0.064743824 -0.04431654 -0.015778381 0.052957404 -0.08668052
0.029824559 -0.034650024 -0.017989129 0.028536307 -0.041074265 0.071412936 -0.062129043 -0.039351434
0.07447214 0.058908455 0.009337132 0.060638063 0.057033572 0.009784702 -0.028290669 0.06476247
-0.026285026 -0.072920166 -0.011487158 -0.0069563827 0.027772997 -0.07633388 -0.040572252 0.0048810677
-0.023529567 -0.028284572 0.05785095 -0.08717155 0.05749508 -0.023595301 -0.04015716 -0.024388336
-0.07570528 0.07167443 0.08106816 0.08795252 -0.04246935 -0.05952981 0.03967176 -0.002845842
-0.017721962 0.03970475 0.032497294 -0.049101926 -0.0004637553 -0.08569391 0.0769959 -0.08673619
0.023245212 -0.027469434 0.005109677 -0.0757181 -0.053691614 0.027585398 -0.053893533 -0.031451214
-0.011321595 0.031109799 0.008267771 0.07295516 0.023855017 0.0025700019 0.035767328 -0.08354719
0.024357794 0.066276334 -0.060413484 0.017292889 -0.04748514 -0.077569626 -0.012127286 0.057756398
0.027531538 0.036872003 0.057973467 -0.017040197 -0.025311936 -0.060226038 -0.00032216267 0.04145071
0.054627806 -0.043217156 -0.076753244 -0.07762849 -0.047234084 -0.0058915843 0.048528176 0.03516151
0.087138705 0.081147335 0.032343753 0.0024771157 0.06636016 -0.023340778 -0.020646382 0.05245878
0.06543146 0.045702554 0.048897 0.0338149 0.019915776 0.047718484 0.08252319 0.053622782
-0.08453864 0.026807254 -0.05976265 -0.046190392 0.037782043 0.0650601 0.060074233 0.051779184
-0.07002632 0.019621406 -0.018440828 0.023827637 0.067679234 -0.022521881 -0.025635676 -0.015416821
-0.007817376 -0.06186629 0.06489086 0.063504286 0.06419655 -0.04136895 -0.04479987 0.079296604
-0.04429446 0.02798818 -0.060036533 -0.045072637 -0.041006844 0.084161386 -0.05061224 0.0128365485
0.052666616 0.077815145 -0.052153893 0.08084267 0.044525173 -0.051096678 -0.03203287 -0.011643932
0.061601833 -0.060129527 -0.078251064 -0.0056692814 0.061925925 -0.0626188 0.021220332 -0.061574906
0.017117556 -0.06702057 0.031619526 -0.05065276 -0.061954685 -0.000816072 -0.047236115 -0.05337707
-0.0816425 -0.08261366 0.038824726 0.07578484 0.056981694 0.06559814 -0.06370543 -0.06444425

decoder.weight f4 [128, 512]
00000000: d5c8 3b3c 98d5 b93c 711a aebc a6ff de3b
00000010: f1f1 023d f1ea 2fbd 31f2 ebba 35e5 9a3b
00000020: 41ac f1bb 3a5e 39bb 1f10 213d 6443 08bd
00000030: d5a2 253c 6958 a7bc 0f96 7fba 7cca a5bc
00000040: bba4 ac3c bcdc b03c 7970 e9bc 5481 3abc
00000050: 461d 0fbd e4f6 2dbd fcc9 b8bc 3189 8fbc
00000060: 57a8 753c c888 563c 7ec2 25bd 6ba4 e63c
00000070: 7c9b 303c bca7 333b 24c3 12bd 8343 eebc
00000080: c2ba 4e3c 4212 3cbb 2fd9 cf3c 969d 7a3c
00000090: 5d7f 0abc cce3 2dbd 4756 93ba 8330 2abd
000000a0: 5b3f 42bc 7260 bf3c 1fe0 e9bc 4a3f 16bc
000000b0: 0013 9f3b 7cc0 db3c 4761 a8bc 2bf7 9dbc
000000c0: b616 303c 5f4d c93b 1c25 6c39 b835 bdbc
000000d0: 4240 ebbb 4db7 2ebd d532 2ebc 461e d93b
000000e0: 07b1 8d3c 0bba b13c 91cf 19b9 3d8e 84bc
000000f0: 493a 2bbc e5ee 123d 4706 1d3d 5704 d0bc
00000100: 1d97 123c 6f97 94bb 543f 3b3b d204 953c
00000110: 0061 033c a17f ab3c 5a5f c33c 5969 e5bc
00000120: c7ef cebb 161c 33bd a925 d03c dfd6 083c
00000130: 7517 2d3d a3c5 7fbc 05c2 153d 49d7 10b9
00000140: 9756 17bd bd18 22bd 7308 483b 39f3 333d
00000150: defd 39bb 8abd 20bd ad48 ca3c 2d64 bb3c
00000160: 72bb e13c 0d71 a43c f9e0 7cb9 15b9 903c
00000170: 7e1b 65bb 6d62 a83c efb5 c1bc be46 05bd
00000180: 7ae3 223d 44cd 943c ea24 b43c e338 ebbc
00000190: 9596 27bc 6eb1 d73c ccfe 133d 7849 43bb
000001a0: b840 273d 1d58 133b ecf0 13bd f43b 9d3b
000001b0: 5e89 d4bc 684f bcbc 58eb 31bd 63d1 0dbd
000001c0: 9d35 05bd cca3 28bd c2fa 753c 2a21 18bd
000001d0: 692b 24bc 872a 943c 2ec5 c03c d4fb 123c
000001e0: 0c57 8a3a 7b7f a23c 9cc7 5cbc 584e 0c3d
000001f0: aa8a 0f3d 12bb b93c 56ed 8abc 1f59 d43c
00000200: 0d5e b1bc 34af 2d3d 00ff e13a 7020 1abd
00000210: fc05 4ebb 1d69 c1bc d509 8c3c 72e6 11bd
00000220: ca72 1e3d 9ade c63c 0ddc a1bc e102 26bd
00000230: 7668 22bc 4d16 e63b a522 9a3b 1ed8 7fbc
00000240: a761 2f3d b99d 1abd d6d4 043d b3c6 04bd
00000250: 1af2 e5bc 6b44 0f3d 2b76 e83b a8cb 1cbd
00000260: b007 83ba 4c13 ccbc 0208 7e3c cd31 473c
00000270: e5b9 0abc 1623 acbc 93e4 be3c 6e1d 8ebb
00000280: 6ef3 e4ba d614 593c a0ab 80bc 94b5 32bd
00000290: b0d1 e2bc d84f c63c f9c8 15bc b876 3fbc
000002a0: 26bf 82bb 0b3b 023d 376e 77bc 098d f73c
000002b0: b5ac f4bc fc58 1fbd b95d 09bc bfc4 073c
000002c0: 06fa 8abc 11e8 ca3c 6090 d9bc 1edb 66bb
000002d0: e0de 0fbc b538 3eba 262f c9bc ceff 64bc
000002e0: ef5d 1fbd f445 b6ba e4fe 06bc 954e 853c
000002f0: e8df 36bc 67bd d23b 44f0 9dbc eb71 81bc
00000300: 53be 0d3c 8c9e dc3c fc54 88bc fb4e 5d3c
00000310: 1986 04bc fddd 163d 0792 2dbd 321e dc3c
00000320: 0f53 e63c 2e18 d43c 4bd6 16bd 31f0 a9bc
00000330: 9278 8cbc 983b 41bc 9682 0e3d 790d 29bd
00000340: 17b9 20bd 74b4 3ab9 def8 27bd 448b 153d
00000350: f95d 793c 193b cc3c 037f aebc 03a1 95bc
00000360: a1bb 063d 5017 c33c 8221 a43a 6a57 5a3b
00000370: e610 b1bc 1528 843c 54de 1e3d 2846 463c
00000380: 7ea5 f13c 4a63 b2bc eb24 f1bc ec22 463c
00000390: 87e6 0dbd 0cb8 893c 6357 0b3d 001e c8bc
000003a0: dabe 123d fd84 edbc 2de7 493c 4944 91bb
000003b0: b616 e43c 3df7 753c 5674 113d 0c59 7dbb
000003c0: 6b32 593c a47d 223d 5495 4b3c f625 afbc
000003d0: f29c e83a faa0 4d3c 3563 30bc 322c 2b3c
000003e0: ca90 b03a 7faf e5bc d452 22bd 895b 933c
000003f0: eb74 19bd 6beb 1ebc 1427 103d 55ba 1e3d
0.011461456 0.022684857 -0.021252843 0.006805378 0.031969015 -0.042948667 -0.0018001256 0.0047270306
-0.0073752706 -0.0028284923 0.039322015 -0.033267394 0.010109623 -0.0204279 -0.00097498385 -0.020238154
0.021074643 0.02158963 -0.028496014 -0.011383373 -0.034940027 -0.04247178 -0.022557251 -0.017521473
0.014993749 0.013094135 -0.040468685 0.028154572 0.010779258 0.002741321 -0.03583063 -0.029084926
0.012617769 -0.0028697406 0.025372116 0.0152963605 -0.008453217 -0.042453572 -0.0011240923 -0.04155017
-0.011855925 0.023361418 -0.028549252 -0.009170363 0.00485456 0.026825182 -0.020554198 -0.019282898
0.010747602 0.0061432566 0.00022520538 -0.023096904 -0.007179291 -0.042655278 -0.0106322365 0.0066259233
0.017296327 0.021695158 -0.00014668542 -0.016181106 -0.010450908 0.03587236 0.038336065 -0.025392694
0.008947161 -0.004534654 0.0028571682 0.018190775 0.008018732 0.020934882 0.023849178 -0.028004335
-0.006315205 -0.043727957 0.025408583 0.0083520105 0.0422587 -0.015611085 0.036561985 -0.0001381311
-0.036947813 -0.039574374 0.0030522614 0.043933127 -0.0028380076 -0.03924326 0.024692858 0.022874916
0.027555201 0.020073438 -0.00024116402 0.017666379 -0.0034959014 0.020554746 -0.023646323 -0.032538168
0.03976772 0.018164285 0.021990258 -0.02871365 -0.010228773 0.026329722 0.036131665 -0.002979843
0.040833205 0.002248294 -0.036118433 0.0047984067 -0.025944408 -0.022987083 -0.043437332 -0.034623515
-0.032521833 -0.041171834 0.015013399 -0.037141003 -0.010020115 0.018086685 0.023531523 0.008971173
0.0010554506 0.019836178 -0.013475325 0.034254402 0.03504435 0.02267221 -0.016958874 0.025921402
-0.021651292 0.042403415 0.0017242134 -0.03762859 -0.0031436672 -0.023609692 0.017094532 -0.03562016
0.03868369 0.024276067 -0.019758249 -0.04053009 -0.009912601 0.0070217014 0.004703837 -0.015615491
0.042817738 -0.037748072 0.03242954 -0.032416057 -0.028069545 0.034977358 0.007094165 -0.03828016
-0.0009996798 -0.024911545 0.015504839 0.0121578695 -0.008467172 -0.021012824 0.023302352 -0.0043370044
-0.0017467567 0.013249597 -0.015706837 -0.043630198 -0.027687877 0.024207994 -0.009142154 -0.01168602
-0.003990072 0.03179459 -0.015101961 0.030218618 -0.02986751 -0.03890322 -0.008384162 0.008286654
-0.016964924 0.024768861 -0.026558101 -0.003522582 -0.008781165 -0.0007256375 -0.024558615 -0.013977004
-0.03890794 -0.0013906346 -0.008239482 0.016272822 -0.011161782 0.00643127 -0.019279607 -0.01580139
0.008651334 0.02693107 -0.016642086 0.0135076 -0.008088612 0.0368328 -0.04237559 0.026869867
0.028115777 0.025890436 -0.03682546 -0.020744415 -0.017147336 -0.011793993 0.034792505 -0.041272614
-0.039239015 -0.00017805566 -0.041008823 0.036509767 0.015220159 0.024930524 -0.021300798 -0.018265253
0.03289378 0.023814827 0.0012522193 0.0033316263 -0.021614503 0.016132394 0.038786247 0.0121016875
0.029497858 -0.02177586 -0.02943655 0.012093287 -0.034643676 0.016811393 0.034018885 -0.024428368
0.03582654 -0.028994078 0.012323183 -0.004433189 0.02784286 0.0150125595 0.035511337 -0.0038657812
0.0132566495 0.0396706 0.012425739 -0.021380406 0.0017746969 0.012550587 -0.01076584 0.010447549
0.0013470885 -0.028037785 -0.039629772 0.017987983 -0.037465017 -0.009699683 0.035193518 0.03875192
